best_thgc_lstm.pth (torch, 614481 bytes, 18 tensors)

gcn1.fc.weight f4 [128, 2]
00000000: 629f 4cbe 754f c23d 040d c3be f4f5 b73e
00000010: b729 1c3f a3ef 05bf 9d87 1d3f 1357 d53d
00000020: 34e0 033f 8f2d 9f3d 003e b43e 0a4d b6bd
00000030: 431d 103f 742a 753d 2f79 abbe 6b70 323e
00000040: 4e7a a0be c5bb a6bd 5ca9 6bbe 986c fa3e
00000050: 73f4 05bf 9340 a3be 04b9 46be 9555 cebe
00000060: d493 b03d fc38 0ebf ea03 2a3f c9cf 0fbf
00000070: b3ce 103f 6d63 983d a53e 60be 9802 d73e
00000080: 8859 eb3d 7731 ec3e 2f09 b63d d119 56be
00000090: 89f5 543e 082c 32be 882b ac3e 5e98 023f
000000a0: feb5 e53e 8eb0 86be b459 e23e fc4c a13d
000000b0: 796c b93e 906d d7be 942c 1dbf 56e6 97be
000000c0: 1bc2 02bf 47e7 113f 7f2d 5f3e 37f9 853e
000000d0: c8d2 633e 094c 9fbc 1eb3 0d3f 5add fcbe
000000e0: ad36 623d de21 c8be f180 623e dc5d 75be
000000f0: 80e6 833e 6d63 d4bd 1718 193f f3c8 cbbe
00000100: 7c93 ccbe 3084 cdbe 09eb 253f 9aff 453e
00000110: ea87 293f 6be3 16bf f492 27bf b5e2 07bf
00000120: 4f61 ffbe 9fc4 843e 2eb8 963e 6bd8 f23e
00000130: 592c a1be 3eaf fcbe fb12 b83e 731c 99be
00000140: a0a4 e43e 6185 17be e558 d03e 0e46 09bf
00000150: 6d68 bdbe cfec 4d3e a2f6 1b3e c8cb 35be
00000160: e230 e13e 7e5e d93e b4a8 d8be 0a4a d3be
00000170: 7649 283f 15c1 60be 2367 73be 7667 21bf
00000180: 183e c5be c9e3 463e ceed 52bd 0b9f fbbe
00000190: 4b6f bb3c 5f4b 9dbe ed61 14bf 54a9 b4be
000001a0: 859b 11bf 673d e3be d250 363f d86e bb3d
000001b0: 9041 7b3e e520 16bf 611a e7be bd03 62be
000001c0: 013d c23d 0bea 0fbf dae8 92be a038 d6be
000001d0: 3282 863c bdeb 3dbe af2b 71bd e84e cdbe
000001e0: dcfa e6be 1146 d0be 97b2 52be 87a1 0abf
000001f0: 21ce 183f 8145 04be 4e18 203f 5051 323e
00000200: 7ff2 22bf c6f1 dc3e f8db 29be 82a8 91be
00000210: 402a 0abf 2029 28bf 44dd 453e cea1 27be
00000220: 5e54 913e 7c3f 0cbf b190 073f be71 01bf
00000230: 6332 2cbe 31bc c93d 61e5 cb3e 890c f63e
00000240: 211d 273f e5bd 0abf aeeb 423e 406d 93be
00000250: 1211 90bd fbf2 eabe a6bd 223f 3309 05bf
00000260: c757 cd3e d5f3 543e f0c3 843e 292c b2be
00000270: 286d 273f ccea f23d 3993 be3d dec5 09bf
00000280: 5f4a a13e b246 b4bd 19a9 93be 9743 163f
00000290: 997c 303e 27d5 babe 24b6 96be 5df7 d0bc
000002a0: 211b de3e 8936 0dbe 4109 d0be 4230 60be
000002b0: 9c0b 08bf d848 7b3e b82b 0d3f 27be 24bf
000002c0: ca72 0e3e fdff b53e a5da 223e 1a03 5fbe
000002d0: 105a df3e f7b8 8d3e 6970 973e 44c1 bcbd
000002e0: 5bc9 5bbe 1950 4c3d ee7c b9bd 2a97 73be
000002f0: eeac d33e d2a1 103f 669a 02bd 3b9a 3ebe
00000300: ddf8 2e3d d49e 5ebc 304c 3b3e 54c9 383e
00000310: b374 21bf 0dc6 5bbe 681b 1d3f d0f3 6c3e
00000320: c3d2 16bd 4601 babe b7c9 d9be eb07 15bf
00000330: 8b51 5bbe decd 7e3e d76b 013f 95c1 7e3e
00000340: 68e8 15bf 26dc cfbe ea2c e1bd 5e9d 0b3f
00000350: 8ce9 eb3d a251 2ebe 94d4 993e d1b9 84be
00000360: bf8d dcbe 7c32 033f f915 a0be 0400 0bbe
00000370: c6b9 40bf 9ce6 d23e 1d2f 0c3f 9b49 5f3e
00000380: 2c8a e9be 2cc4 2abf 73eb 1abf 0c55 ef3e
00000390: d1f8 ac3e 68cb 0b3f 256f c33e db1c 1d3e
000003a0: 41e1 08bd 7418 b1be daf0 07bf 46d3 27bf
000003b0: 6fdc a03e 6643 a3be 5947 c7bd aa55 d5be
000003c0: 0d54 d9bd c96c f4be 9304 edbe 6126 6c3e
000003d0: 98f9 67be da1c c73e 6263 76be 30de eebe
000003e0: 91ee c4bd 4b44 b2be ba79 3bbe 21b7 21bf
000003f0: ef74 d93e 9ccd e8be 3f06 b53e c345 9a3e
-0.19982675 0.094878115 -0.38095868 0.35929835 0.6100115 -0.5231878 0.61535054 0.10416999
0.5151398 0.077723615 0.35203552 -0.08901413 0.5629465 0.05985494 -0.33490893 0.17425697
-0.3134331 -0.08141283 -0.23013824 0.48910975 -0.52326125 -0.31885204 -0.19406515 -0.4029967
0.08621946 -0.555557 0.6641222 -0.5617643 0.565654 0.07440839 -0.21898897 0.41994166
0.11491686 0.4613149 0.088884704 -0.20908286 0.20796789 -0.17399609 0.33626962 0.51013744
0.44865412 -0.26306576 0.44209063 0.07876012 0.3621557 -0.42075777 -0.61396146 -0.2966792
-0.5107743 0.56993526 0.21794699 0.26166698 0.22248375 -0.019445436 0.55351436 -0.49387628
0.055227924 -0.3908834 0.221195 -0.23961586 0.25761795 -0.103705265 0.59802383 -0.3980175
-0.39956272 -0.40139914 0.6481176 0.19335786 0.66223013 -0.5894076 -0.6545861 -0.530803
-0.49878928 0.2593126 0.29437393 0.4743074 -0.31479147 -0.4935245 0.3595198 -0.29904518
0.4465685 -0.14796974 0.4069282 -0.5362252 -0.36993733 0.20109867 0.15230802 -0.17753518
0.43982607 0.42454904 -0.4231621 -0.41267425 0.6573709 -0.21948655 -0.23769812 -0.63048494
-0.38523936 0.1942283 -0.05149632 -0.49144778 0.022880217 -0.30721566 -0.5796192 -0.35285437
-0.5687793 -0.44382784 0.7121707 0.09152001 0.24536729 -0.58643943 -0.45137313 -0.22071739
0.09484292 -0.56216496 -0.28693277 -0.41840076 0.016419504 -0.18546958 -0.05887955 -0.40099263
-0.45113266 -0.40678456 -0.20575939 -0.5415272 0.5968953 -0.12917139 0.62537086 0.17413831
-0.6365127 0.43153208 -0.16587818 -0.28448874 -0.5397072 -0.6568775 0.19322687 -0.16370317
0.2838468 -0.5478437 0.52955157 -0.5056418 -0.16816096 0.09850348 0.3982344 0.4805644
0.6527882 -0.54196006 0.19035217 -0.2879429 -0.07034506 -0.45888504 0.6357063 -0.5196716
0.4010603 0.2079614 0.25930738 -0.34799317 0.65400934 0.1186119 0.09305424 -0.53817546
0.31502053 -0.088025466 -0.2883995 0.58696884 0.1723503 -0.36490747 -0.29435837 -0.025508577
0.43380073 -0.13790335 -0.4063206 -0.21893409 -0.53142715 0.24539506 0.55144835 -0.6435265
0.13910976 0.35546866 0.15903719 -0.21778527 0.436234 0.2768018 0.2957795 -0.0921655
-0.2146353 0.049881075 -0.090570316 -0.23788133 0.41342872 0.5649692 -0.031885527 -0.18613522
0.042717803 -0.013587672 0.18290782 0.1804555 -0.63068694 -0.21462269 0.61369944 0.23139882
-0.03682209 -0.36329097 -0.4253671 -0.58215207 -0.21417825 0.2488322 0.50555176 0.24878533
-0.5855775 -0.40597647 -0.10994895 0.54537 0.11519155 -0.17023328 0.30044997 -0.25923017
-0.43076894 0.5124891 -0.31266764 -0.13574225 -0.7528347 0.41191566 0.5475939 0.21805422
-0.4561323 -0.66705585 -0.60515517 0.46744573 0.33783582 0.5460725 0.38170734 0.15343039
-0.033417944 -0.3458897 -0.53101885 -0.6555675 0.31418177 -0.31887358 -0.09730405 -0.4166692
-0.106117345 -0.47739246 -0.46292552 0.23061515 -0.22653806 0.388892 -0.24061349 -0.4665389
-0.096158154 -0.34817728 -0.18308154 -0.6317006 0.42472026 -0.45469368 0.35356328 0.3013135

gcn1.fc.bias f4 [128]
00000000: c476 323e be3d 52be 8a49 353e 6990 53bd
00000010: f0ac 953c 23d5 9f3e b64a 30b7 0194 c938
00000020: 4371 1cba e697 7cbe 2d6e 5f3d ba79 b1be
00000030: 2ed0 f93d 56c0 463e 4cfd a13e 848c 48ba
00000040: 572c 74be 9d85 f639 6566 b23d 9455 b2be
00000050: d92c 0cba e8c8 e2bd 5b7d 8835 c675 74bd
00000060: b1c1 ebbc 1b1f fbbb c07e a3be 5076 733e
00000070: 82b6 7e3e cdb3 9736 43b3 6536 b91b eabc
00000080: fc18 94be a001 abbe 31ec 963c 460e afbd
00000090: a21d 09be 4fb2 34b7 2f33 27bc 9d07 0dbc
000000a0: 4d0e 13b6 cb33 88b9 a104 4abc c796 5dbd
000000b0: e343 6fbe c4d2 7e3e 5b69 d6bc 80f2 0b3b
000000c0: afbc 52bc f977 a8b6 a39a 9d3e 7d29 403d
000000d0: a55b 88be b889 ce3c de25 a33e 40be 033b
000000e0: 14bc 183e 4137 af3e a64b 9636 8c2b 4c39
000000f0: 5102 27be 2ea8 3eb9 ad20 423e dd71 8c3d
00000100: 8c80 03be 2ecb 67be 4934 20be 4b8a afbe
00000110: 550e 55be 40ad 9bba 134c 1b3e e7e5 4437
00000120: 0e4b 4ebe c201 68be d3a8 7d3d dc17 44be
00000130: caa8 6336 921f 5f3d b47a 43bd fd12 b135
00000140: 37ea 80b8 a129 4fba e15a 87bd 1857 90be
00000150: 7bd7 6bbe 9bd7 a1bd 2999 a83e 5cac 64bd
00000160: 125e 19be ce18 803a 282b 3e3b f0f0 ad3d
00000170: 5e02 4e3e fed1 b63d b012 b1be b808 57b7
00000180: a247 e93d 89f9 68b7 d806 d8bd 2c7e a43e
00000190: cdbe 9bbc d166 c3bd d99b 93be 591a e336
000001a0: e43a 253d 6c8f d239 e274 e638 97f0 4cbe
000001b0: 611f 9ebe 7e70 b837 d2f0 963e c22b cb3d
000001c0: bcaa d0bd e9fa d7b5 b212 40be c3ac 63bd
000001d0: 9d52 0338 caa1 aa3d 126a 783e a6fa 98be
000001e0: 2bb2 173e ff0a 2dbe 05a4 9c3c d3dd 813e
000001f0: ca32 09b7 ce48 963e 0ab7 83be 0e93 acbc
0.17428118 -0.20531365 0.17703834 -0.051651392 0.01827094 0.31217298 -1.05078125e-05 9.611995e-05
-0.0005967805 -0.2466732 0.05454843 -0.34663182 0.1219791 0.19409308 0.31638563 -0.0007650333
-0.2384504 0.00047020326 0.087109365 -0.34830916 -0.0005347259 -0.11073476 1.0169273e-06 -0.05968263
-0.028778883 -0.00766362 -0.3193264 0.23775601 0.24874309 4.5210822e-06 3.4228003e-06 -0.028577672
-0.28925312 -0.33399677 0.018423172 -0.08547644 -0.1339021 -1.0770352e-05 -0.010205074 -0.008607772
-2.191303e-06 -0.0002597853 -0.012330205 -0.05409887 -0.2336574 0.24885088 -0.026173284 0.0021354258
-0.0128623685 -5.020757e-06 0.3078204 0.046914566 -0.2663242 0.025212154 0.31864828 0.0020102412
0.14915496 0.34221843 4.479155e-06 0.00019471179 -0.16309477 -0.00018182464 0.18957777 0.06857655
-0.12842005 -0.226361 -0.15644945 -0.34285197 -0.20806248 -0.0011877194 0.15165739 1.1736039e-05
-0.20145819 -0.2265692 0.06192858 -0.19149727 3.3923884e-06 0.054473467 -0.04772444 1.3193054e-06
-6.1471415e-05 -0.00079026265 -0.06609131 -0.28191447 -0.23031418 -0.079024516 0.32929352 -0.055828437
-0.14977291 0.0009773017 0.0029017422 0.08493221 0.2011809 0.089267716 -0.3458457 -1.2817029e-05
0.11390616 -1.3886377e-05 -0.1054818 0.32127512 -0.01901188 -0.09541095 -0.2882984 6.7681945e-06
0.040339366 0.0004016118 0.00010989026 -0.20013653 -0.30883315 2.1986893e-05 0.29480606 0.099204555
-0.10188815 -1.6091773e-06 -0.18757132 -0.05558468 3.1309773e-05 0.0833164 0.24259213 -0.2987873
0.1481406 -0.16898726 0.01912118 0.2536455 -8.177662e-06 0.2935242 -0.25725585 -0.021066215

gcn1.bn.weight f4 [128]
00000000: ff88 743f 0a6d 733f 71ce 793f b094 7e3f
00000010: 3550 7a3f e9f1 843f 181e 833f 6993 763f
00000020: 5ff1 7a3f 1dd8 7b3f 7f76 773f 3d26 763f
00000030: 4b77 733f ec17 7d3f 40a1 833f 6e6d 723f
00000040: 5adc 763f 797b 733f 447c 7a3f 8b52 723f
00000050: 2807 7e3f 64db 803f bebe 733f cfb7 723f
00000060: 319a 6f3f 49c7 713f fca4 8a3f 8d52 803f
00000070: 97c8 723f 3479 793f 528e 7e3f 483f 803f
00000080: bae4 703f 615a 813f 36c9 753f 15c2 793f
00000090: 2685 733f 884f 763f 75dc 743f 9dc5 7b3f
000000a0: 5cb5 833f c4b9 773f 9796 723f edce 753f
000000b0: d6dd 803f 486c 6e3f 1290 823f 0911 7c3f
000000c0: 660c 783f 21f0 743f 5cbb 713f 66ed 743f
000000d0: 117e 753f 15e8 803f 0f29 713f 7ce7 7a3f
000000e0: 6182 793f 9914 7b3f 0f47 783f 6c32 773f
000000f0: 6d0e 733f e7db 6e3f 65c7 8b3f ab16 823f
00000100: 46ce 7c3f acd2 733f 27a0 743f 8043 743f
00000110: 2d94 773f aaa4 783f a734 733f d144 733f
00000120: ce27 803f 08f9 743f 9c71 753f 6cc0 7e3f
00000130: cf36 753f 7cb9 7f3f 4f8b 823f 7f40 733f
00000140: 49df 823f 91ec 763f fe3b 733f 4ec2 773f
00000150: 8b8a 7a3f 4a4a 753f b36f 7b3f 89c4 7a3f
00000160: e775 763f 383f 6e3f 9521 7a3f f9da 843f
00000170: 55c9 7d3f eea2 7a3f 6ee2 773f c283 753f
00000180: a537 703f 7e84 7c3f 8d30 7a3f eb30 823f
00000190: f984 7e3f a152 743f cc6a 6d3f 0ae5 7d3f
000001a0: 0b9e 763f 4981 7b3f 4f74 7d3f 60aa 773f
000001b0: 564b 753f eb76 783f bb71 773f 8760 783f
000001c0: 1118 773f ab86 783f a959 813f 4e2f 773f
000001d0: d7b9 7b3f f346 733f 49d2 783f e20c 723f
000001e0: 0e94 753f 9e01 7b3f dea2 6f3f 5cd0 7d3f
000001f0: 7acb 763f 7c83 773f 0f69 7b3f b5c6 7d3f
0.9552154 0.95088255 0.9758063 0.9944563 0.97778636 1.0386325 1.0243559 0.9631868
0.98024553 0.9837664 0.96665186 0.96152097 0.951039 0.98864627 1.0283585 0.94698226
0.9642998 0.9511028 0.97845864 0.946572 0.9922967 1.0066953 0.95212924 0.9481172
0.9359465 0.9444471 1.0831599 1.0025192 0.94837326 0.97450566 0.99435914 1.0019312
0.9409901 1.0105706 0.9601015 0.9756177 0.95125043 0.96215105 0.9564889 0.9834841
1.0289721 0.9676783 0.9476103 0.9601887 1.0067699 0.93133974 1.0200217 0.98463494
0.9689392 0.9567891 0.9442651 0.9567474 0.9589549 1.0070826 0.94203275 0.9800947
0.9746457 0.98078305 0.96983427 0.9656131 0.94943887 0.93304294 1.0920225 1.0163168
0.9875225 0.95243335 0.95556873 0.95415497 0.96710473 0.9712626 0.95002216 0.9502688
1.0012147 0.9569249 0.9587648 0.9951236 0.95786756 0.998924 1.0198764 0.9502029
1.0224391 0.9645472 0.95013416 0.9678086 0.9786765 0.9581648 0.98217314 0.9795614
0.96273655 0.93065214 0.9770749 1.0379325 0.99135333 0.9790486 0.9682988 0.9590417
0.93834907 0.9863967 0.9773033 1.0171179 0.9942165 0.9543858 0.92741084 0.9917761
0.96334904 0.9824415 0.990056 0.96744347 0.9581808 0.97056454 0.96657914 0.9702229
0.965211 0.97080487 1.0105487 0.96556556 0.98330444 0.95030135 0.9719587 0.9455091
0.9592904 0.9804934 0.9360789 0.99146056 0.9640423 0.96685004 0.9820718 0.9913133

gcn1.bn.bias f4 [128]
00000000: 9063 5d3b 79b0 14bd febd b43a c5f3 a1bb
00000010: 0e4f 6dbc ca3e dfbc 45c9 debc 8f72 b03b
00000020: fdec 0ebc 4092 3f3c 82ba d3bc 7eda 76bc
00000030: 8a2f 043b 5d9d 2cba c728 023c 2058 3cbd
00000040: 33d7 20bd 0fae d3ba 8992 b3bc 73df 1abc
00000050: 35c0 42bc c35b 36bc 4f0e 4c3c b10b e03b
00000060: 71a8 9bbc 3ec9 36bd d598 b6bc 1e99 ec3c
00000070: 2d02 c13c 7362 f13b bc02 0dbd 0e23 b23c
00000080: 28bc f0bc 0658 be3c 6b93 29bc 9abf 3d3b
00000090: 9c0c b1bd e21d 293c d531 983c e1e3 6abb
000000a0: f45a b1bc 645b 0b3d d910 c6bb 2768 f13c
000000b0: d72a 953b 5094 08bc 2c07 20bd 6a59 033c
000000c0: 2db3 f13b 9a46 873c f9f6 00bd c72b 1bbd
000000d0: 336f 08bc 89ed f1bc 6a71 023c aee8 d23b
000000e0: b83d 253b 6f19 d63c 6252 a4ba 8006 3fbc
000000f0: cc81 0cbd e1dc 68bc 086f ccbb f093 37bc
00000100: f71a 50bb 2440 aabc 81c2 e3bc a859 f43b
00000110: 5502 a33c 2cf3 89b9 72e2 febc 8a00 8bbc
00000120: bc71 483c 6c58 213d 4dec c83c 7b80 cfbb
00000130: 3186 7abc f75b a53c 90d4 aebc 38b1 9ebb
00000140: cc32 e4bc 3e49 f0bc fe65 14bc 0cbb 2dbc
00000150: 40c8 05bd 38d4 18bd dd34 5138 973e f83c
00000160: cd26 c1bc 3770 493b 94e4 ab3c 782b 83bc
00000170: 240a ad3c 6e23 243c 0d0e d4bc b555 2f3c
00000180: 757d 6d3b 8470 72bc 01a2 debc 8d9a 04bd
00000190: e9bb 0c3d 4458 dabc b872 b7bc d941 5d3c
000001a0: 4e4e d7bb ff2f a9bc 214e fc3c f001 25bc
000001b0: c8b5 dbbb e2b1 30bc f677 34bd da4b cbbc
000001c0: e27a 133c 5baf de3b 1a45 8b39 4436 04bd
000001d0: 393f 63ba 7bae a73b f198 133c 4956 873b
000001e0: 245f 4d3c 2f8d 293c 10bc e8bc 89a9 0c3c
000001f0: 13af 7e3c 8a27 3439 c359 b33c 7ea4 79bc
0.0033781268 -0.03630111 0.0013789532 -0.0049423897 -0.01448418 -0.02725162 -0.027195582 0.00538475
-0.008723495 0.011692584 -0.02584577 -0.015066741 0.0020169937 -0.0006584728 0.007944292 -0.04598248
-0.03926773 -0.0016149896 -0.02192046 -0.0094526885 -0.011886646 -0.011130276 0.012454583 0.006837331
-0.019001218 -0.044625513 -0.022289673 0.028881606 0.023560608 0.0073664724 -0.034426436 0.021745231
-0.029386595 0.023235332 -0.010350089 0.0028953315 -0.08644983 0.010322066 0.01857845 -0.0035841393
-0.021649815 0.034022704 -0.006044489 0.029468609 0.004552226 -0.008336142 -0.03906934 0.008016923
0.0073760957 0.016513158 -0.03148553 -0.037883546 -0.008327293 -0.02953221 0.00796161 0.006436429
0.002521379 0.026135175 -0.0012536759 -0.011659265 -0.03430347 -0.014212818 -0.006238822 -0.011204705
-0.0031754354 -0.020782538 -0.027802708 0.007456977 0.019898573 -0.00026311853 -0.031113837 -0.01696803
0.012234148 0.039390966 0.02452674 -0.0063324547 -0.015290783 0.020185454 -0.021341592 -0.0048429035
-0.027856253 -0.0293318 -0.00905752 -0.0106036775 -0.032661676 -0.037311763 4.9878716e-05 0.030303283
-0.023578072 0.0030737051 0.020983018 -0.016011938 0.021123 0.010018213 -0.025885606 0.0107015865
0.0036238108 -0.014797334 -0.027176859 -0.032373954 0.034358893 -0.026653416 -0.02239357 0.013504469
-0.006570614 -0.02065277 0.030798974 -0.010071263 -0.0067050196 -0.010784598 -0.044059716 -0.024816442
0.0090014655 0.0067958063 0.0002656363 -0.032278314 -0.00086687837 0.0051172352 0.009008632 0.004130159
0.01253489 0.010348602 -0.028409988 0.008585342 0.015544671 0.00017180867 0.021893388 -0.015236972

gcn1.bn.running_mean f4 [128]
00000000: e42e 1a3e 24a8 20be f0e9 013e 84d6 713e
00000010: d17a 823e ccc4 cb3e d08d 7a3e de37 06bd
00000020: b3bb 26be 9cb2 91bd 8aca a0be 2040 23bf
00000030: 1d19 13be b31d 133e df25 123f 76e6 113e
00000040: a762 553d 1606 a0bd 74e9 943d 440c 553d
00000050: ec47 e13c 0140 c83d c8c5 b7bd 0044 e7be
00000060: cec7 ac3d 6353 5c3e e11f 7dbe 7c7f 3a3e
00000070: 75ac 773d 5ec7 38bd 1713 2a3d d7f7 8bbc
00000080: 0932 28bf b875 603c 7b13 45bd 466d 1ebf
00000090: 3df2 3bbe dc7b bb3e 5b18 cabe 90ec 0abd
000000a0: f52b b63d 8625 0abe 3d67 35bd f128 bdbd
000000b0: 6ba0 233e 861e 07be e02c d43d 3675 dabe
000000c0: 93ad 5dbd 554d 91be bdd4 1b3e bff4 b8be
000000d0: 1884 38bf 0aef af3e 8b1b c63d 7303 93be
000000e0: d7bf eebd c7d1 203c 9176 bfbd 7275 73be
000000f0: 3f99 0dbf e3fc bcbe 6e35 b13e 043a cc3e
00000100: ba06 0dbe 55c6 e2be 52dd 36bf 56bf b7be
00000110: 6dea cabe bf67 95bd 684c 113e ed4c d13e
00000120: 1e2c 7dbe f1df 9ebe 9ef4 57be 9b32 6dbe
00000130: 3cc5 863e b18f 0bbd 4862 863e 4342 82be
00000140: be52 923d 1305 533e 3a4e 4abe e1d7 d0be
00000150: e219 11be b5a9 b3be 6ced 853e 69dc 46be
00000160: 15b3 be3d e0ea 65bd d90b a23e 704a 173e
00000170: 0d93 173e 06e6 93bd 0a97 e73d 2dbb e5bd
00000180: 59a8 fc3d f710 2a3e 8c72 ebbe d3a9 2d3f
00000190: 271c 6abe dae2 11bf d3b7 71be 113b a63e
000001a0: c022 ccbe 4c48 813e 7046 44bd 4248 68be
000001b0: 9550 49be a7a9 43be ed8e 6e3e 4007 d93e
000001c0: fa32 22bf 876e bd3c e65a 6e3e f697 2e3e
000001d0: a668 4bbe d73a f0be a650 433e 5784 0fbf
000001e0: fb71 17be fb0f 62be 94a1 123e e99d b2bd
000001f0: e1f5 64be 2852 eabd 6934 afbe 6059 8c3e
0.1505695 -0.1568914 0.12686896 0.23616987 0.25484326 0.39798582 0.2446816 -0.032768123
-0.16282539 -0.07114145 -0.31404525 -0.6376972 -0.14365049 0.14366798 0.57089037 0.1424807
0.052096035 -0.07813661 0.0727109 0.05201365 0.027500115 0.09777833 -0.08973271 -0.45169067
0.08436547 0.21516185 -0.24719192 0.18212694 0.060467202 -0.045112006 0.04152211 -0.017085953
-0.6570135 0.013699941 -0.04811428 -0.6188549 -0.18354125 0.36617935 -0.39471707 -0.03391701
0.08895103 -0.13490877 -0.04428791 -0.092363246 0.15979163 -0.13195238 0.10360122 -0.4266755
-0.05412061 -0.28379312 0.15217872 -0.36124226 -0.7207656 0.3436206 0.09673222 -0.2871357
-0.11657684 0.00981564 -0.093487866 -0.2377527 -0.5531196 -0.36911687 0.34611076 0.39888012
-0.13772097 -0.4429194 -0.7143146 -0.35888165 -0.39631978 -0.072951786 0.14189303 0.40879002
-0.2472386 -0.3103023 -0.21089408 -0.23163836 0.26322353 -0.03407258 0.26246858 -0.2544118
0.07144688 0.20607404 -0.19756404 -0.40789703 -0.1417003 -0.35090414 0.261577 -0.19420017
0.09311501 -0.056132197 0.31649664 0.1477449 0.14802189 -0.07221608 0.11308105 -0.112173416
0.12336797 0.16608034 -0.4598583 0.67837256 -0.22862302 -0.56986773 -0.2360528 0.3246694
-0.39870262 0.2525047 -0.047918737 -0.22683814 -0.19659646 -0.19107686 0.2329671 0.42388344
-0.63359034 0.023123993 0.23276863 0.17050156 -0.19864139 -0.4691989 0.19073734 -0.5606131
-0.14789574 -0.22076409 0.1431945 -0.08721525 -0.2235942 -0.11441451 -0.34219673 0.27411938

gcn1.bn.running_var f4 [128]
00000000: 557e b63a 819c 883c 5d37 0e3d 3dc4 f43c
00000010: 4771 a33c 9d77 723b 0936 ad3c a387 8d3b
00000020: 654d 203c 3a31 203d 9f97 6d3d 1c0f 423d
00000030: 307a 773d c696 233d 551c bb3c f8b5 e53c
00000040: 8844 5b3d a3a6 ee3b 9fc7 7a3b 265e ad3d
00000050: f0a2 153c 4c3f 813c 9fb7 c63c 3026 7f3d
00000060: 97c5 333d 70b0 ca3c 516c 003b 222c ff3c
00000070: 5a96 f63c 7e7f fb3b 3e96 063b c352 a43c
00000080: 598a 833d ecdf 3b3d 239c 353d ace1 033e
00000090: 34ea 1c3c cc4b 923d e141 a03d 3e25 393c
000000a0: ee0c bf3b 0c70 273d 6280 b63b 06ef 8c3b
000000b0: 307d 963d e360 8d3d dd39 4f3c dd3e de3d
000000c0: a098 b43b 4b72 633d 8ded 9e3c 8c85 913d
000000d0: 9a6c bd3d 031f 133d 839d 6c3d c095 0b3d
000000e0: db22 7b3d db3b 6d3d 8e70 e53b dc9a 1b3d
000000f0: b35d 903d 572a a43d 2f60 353c 2ea3 263d
00000100: 4c64 c03c 10f8 cd3c 93b0 1e3e 8c46 5e3b
00000110: f18f 433d 7192 073d cbed a73a b487 aa3d
00000120: f9dc 173d 494a 493c 156d 4c3d e24e 0b3d
00000130: 85a6 e93c 1eb4 8d3c 1aa9 0e3d b6b9 653d
00000140: 24f2 3e3b 0ee3 633d 4d6a b13c 9e59 b43b
00000150: 3ecd b33b a94d fa3c e161 1d3c 1e64 683d
00000160: 1776 0e3d 90ee df3b 8fc0 2c3d bd4a 273b
00000170: 5fae b73a d1af 7d3c 3044 de3d ad2e 083c
00000180: d159 5e38 c9a5 563c 05c2 443d d359 4a3d
00000190: 001f f83c c81f ec3d 3b35 0b3c bc03 303d
000001a0: 332e ad3d 021b 683d ede0 8b3b 4ca2 0b3c
000001b0: 7f7a 143d b595 6e3c 0fca be3c 27eb 283d
000001c0: ab8d 163e 55d4 e03c f2b0 c13d bc87 a53c
000001d0: fe3a e03c fe11 1d3e d41f 5b3c d45f 313d
000001e0: b90f 673d 649c 003c eb1f bf3c 6bbf 843d
000001f0: 1f66 fe3c 5a24 d33d d10a e23c 620e 243d
0.0013923148 0.01667619 0.034720767 0.02987873 0.019951476 0.0036997565 0.02114393 0.0043191477
0.009784077 0.039109446 0.058005925 0.04737769 0.06041926 0.03993871 0.022840658 0.028040871
0.053532153 0.0072830482 0.0038265956 0.08465223 0.009133086 0.015777253 0.02425748 0.062292278
0.04388961 0.024742335 0.0019595812 0.031148974 0.03010099 0.0076751104 0.0020536329 0.020058995
0.06422872 0.045867845 0.044338357 0.12879056 0.009577323 0.07143363 0.078250654 0.011300383
0.0058303988 0.04087834 0.0055695036 0.0043009548 0.07348096 0.06903245 0.012648073 0.10851834
0.0055113584 0.05552892 0.019400382 0.0710555 0.0924923 0.035918247 0.057767402 0.03407836
0.061312538 0.05791841 0.007001943 0.037989482 0.07049122 0.08015888 0.011070295 0.040682964
0.023485325 0.0251427 0.15497045 0.003391656 0.047744695 0.03309864 0.0012811957 0.083266646
0.03707597 0.012285777 0.049908716 0.034010775 0.028521786 0.0172978 0.034829237 0.05608531
0.0029136026 0.055636458 0.021657133 0.0055038473 0.0054871133 0.03055461 0.009605856 0.056736104
0.034780588 0.006833859 0.042175826 0.0025526725 0.0014013759 0.015483812 0.108528495 0.00831191
5.3012573e-05 0.01310105 0.048036594 0.04940207 0.03028822 0.11529499 0.008496578 0.04297231
0.084560774 0.05666638 0.0042687566 0.008522581 0.036249634 0.01456206 0.023289708 0.041239884
0.1470248 0.027444998 0.09457578 0.020206325 0.02737188 0.15338895 0.013374288 0.04330428
0.05641148 0.007849786 0.02333065 0.064818226 0.031054555 0.10309668 0.027593048 0.04005278

gcn2.fc.weight f4 [128, 128]
00000000: ca3b 063d 116b 1cbd 8b15 23bd edaf 54bd
00000010: c1f3 323d 0048 e93c 3dfd 2f3c cc90 7bbd
00000020: 5984 85bd 1d1e fbbb d854 fd3c cbb7 1cbd
00000030: 9821 dcbc c3a5 1b3d 8667 13bc ff8b 5ebc
00000040: 4fa0 10bd 1449 adbd 28d3 cdbd ecc6 60bd
00000050: 2397 70bd 610b 393c 013b 1fbd ce2e eebc
00000060: 0bab 823d d0a4 903c d157 333d 42d0 7dbd
00000070: af85 1dbd 8eb9 873c 2d50 97bd 8592 99bd
00000080: 0b5d 71b9 dd07 3fbd ed50 b3bd 41db 663d
00000090: 41e4 793d 84c8 ed3a 666c 4dbc 8a65 d6bd
000000a0: 865b 34bd 0098 2e3c 756c d83c d5ad bfbc
000000b0: f4e8 3ebd 7c1b 5a3d 59ac a8bd 2caf 673d
000000c0: 65c6 22bd b0f4 b03a d56b 96bc eb56 7f3c
000000d0: f6c7 b3bc 934b 3f3d dc51 f5bb 8260 963d
000000e0: f915 a73d e016 24bd 39e4 85bd b728 903d
000000f0: 8473 953d 8557 85bd 8602 abbc 5d34 cfbd
00000100: 987a b5bd bd09 a53c e405 dc3c 7f4f 78bb
00000110: b99e fabc 6161 783d cdbc 6cbb c685 83bd
00000120: 92fd debc 8db7 3f3c 82b2 f83c d3c1 aebd
00000130: 9d47 9e3c 723b 62bd 480c b5bd 720d 4dbd
00000140: 433c 8f3d 5c34 6b3d 8ecd 943d 07b8 6d3d
00000150: 9155 553d 22ad ddbb 873b 60bd af6a f43c
00000160: 2cad 70bd a8ea 8abd f52f 26bd b754 953b
00000170: d4e2 2f3d 4297 02bd a2ba 82bd 372c 5d3c
00000180: 11cd 63bd 5ab2 8dbd b11e 523d 8469 eebc
00000190: 58a7 a23d 51b1 b53d 5741 d13b a0a1 8a3c
000001a0: 5f76 cb3c 4512 64bc 58ef 72bc 4f69 9cbc
000001b0: 8f80 593c b4d6 b13d f257 0dbd 01f2 51bd
000001c0: 97bd 96bc 77e5 7dbd 3ed9 213b d5e9 503d
000001d0: a416 8b3d a564 333d 7bbb a1bd b79b 3bbd
000001e0: c360 99bc 213a d3bc fce2 26bc 616f a0bd
000001f0: 6f70 e93c 16e1 86bd 9157 8ebd d3de adbd
00000200: 9b94 b33d 0884 82bd 011c a53d 95c4 4b3d
00000210: d02d 373d b233 f53d 9350 4c3d 6308 7a3d
00000220: 0353 a23d 377b 61bd 35da 273d 71f7 913c
00000230: 5df4 983c f0f3 e03c 1eac 9f3d dd72 b2bc
00000240: f8a0 3c3c b345 ae3d 74c4 923d 377c ad3c
00000250: fe5c 74bd 69f4 5d3d c7ba 45bd 401b a33d
00000260: e4ef 0ebd 27d7 873c e52e 643d 4dfa f63c
00000270: 780f a53d 21af a23c 6629 a53d fea3 ab3d
00000280: a920 953d 66e8 743c ab12 4bbb 6597 363d
00000290: 401d 58bc 240a 853d ae62 95bc 4455 2abd
000002a0: 0578 b53d 1662 aa3c 178c 403d f9d0 bd3d
000002b0: fa39 aa3d 165e ac3d ac3b 6a3d e951 97bd
000002c0: 63de 53bd e773 5dbd e7e0 99bd 5856 17bd
000002d0: c188 9bbd da63 bbbc 3367 45bd 6ca3 a0bd
000002e0: 59fa 55bd 4aa2 0a3d 5461 933d 578d cabc
000002f0: dfc5 b3bc 4887 403d 7fec d93c 5ba6 953b
00000300: 6b65 843d 4bac 97bd db9d 563c ed6a b93d
00000310: 502d 993c 93b5 183d a867 09bd 1aee b53c
00000320: 48d8 a83c 73c6 d83c 5a1c 093d f2e1 b93d
00000330: 62bb 09bd 814e 0a3c 00e9 163c dcab 8abd
00000340: 611c 5e3d adee 64bd e4d1 813d 27af ed3c
00000350: 00e0 f83b 5847 5a3d 7214 91bd 368f bcbc
00000360: 8ccb de3b f47c 8cbd 2927 dcbc 7895 0e3d
00000370: 4dc9 a53d 88d4 aa3d bd88 9e3d 4826 56bd
00000380: b59e 2cbd f078 cb3d b10a 313d ac9a 283d
00000390: b1d4 3d3c 939b 88bd 1663 35bc 3893 eb3d
000003a0: a080 90bc 75ca 883c ed66 87bd 04d0 08bd
000003b0: d1ba 823c d5e1 2fbd 6ac6 78ba 94d1 923d
000003c0: ca80 aabd a02e 243d 8169 0abd f676 86bb
000003d0: 0dfe 093d 6cf8 8f3d d21d 58bc 3b56 10bd
000003e0: b531 a0bd edd7 13bd 3f75 65bd 1633 94bc
000003f0: e051 933c 7910 a5bd 7d28 ad3d 3670 a13d
0.032771863 -0.038188044 -0.039815467 -0.05192559 0.043689493 0.028476715 0.010741529 -0.061417386
-0.06519384 -0.007663502 0.030924246 -0.038261216 -0.026871487 0.03799988 -0.00899685 -0.013583182
-0.035309132 -0.08461204 -0.100500405 -0.054877207 -0.058737885 0.011294217 -0.03887463 -0.029075053
0.0638028 0.017656714 0.04378492 -0.06196619 -0.03845757 0.016567972 -0.07388339 -0.074986495
-0.00023018212 -0.04663836 -0.0875567 0.05636144 0.061008696 0.0018141423 -0.012538051 -0.10468586
-0.044032596 0.010656357 0.026418904 -0.02339832 -0.04660888 0.053248867 -0.08235998 0.05656354
-0.039739985 0.0013500657 -0.018361965 0.015584688 -0.021945935 0.046702933 -0.007486565 0.07342626
0.08158488 -0.040060878 -0.06537671 0.07039016 0.072974235 -0.06510834 -0.020875227 -0.101174094
-0.088612735 0.020146245 0.026858278 -0.003788918 -0.030593263 0.060639743 -0.0036123276 -0.06422
-0.027220521 0.011701477 0.030358557 -0.08533063 0.019321257 -0.055232473 -0.08840233 -0.05006165
0.06993916 0.05742298 0.07265769 0.05803683 0.052083556 -0.006765024 -0.05474427 0.029836027
-0.0587589 -0.067830384 -0.04057308 0.004557218 0.04294093 -0.031882532 -0.06383254 0.013499311
-0.05561549 -0.069187835 0.0512988 -0.029103048 0.079420745 0.08871711 0.006385963 0.016922772
0.024836717 -0.013920371 -0.014827572 -0.019093184 0.01327528 0.086835295 -0.0345077 -0.051256184
-0.01840095 -0.061986413 0.0024696137 0.05100425 0.06791428 0.043797154 -0.07897087 -0.045802798
-0.018722897 -0.025784554 -0.010185953 -0.07833744 0.028495995 -0.065859005 -0.06950296 -0.08489766
0.087685786 -0.06372839 0.08061982 0.049748022 0.044721425 0.11972751 0.04988153 0.061043154
0.079259895 -0.055049147 0.040979583 0.017818185 0.018671209 0.027460068 0.077965006 -0.021783287
0.011512987 0.08509388 0.07166377 0.021177394 -0.059658997 0.054188166 -0.048273828 0.07964182
-0.034896746 0.016582085 0.055708785 0.03014865 0.08059591 0.019858899 0.08064537 0.083808884
0.0728162 0.014947986 -0.0030986469 0.044577975 -0.0131905675 0.06496075 -0.01823553 -0.041585222
0.088607825 0.020798724 0.0470086 0.09268374 0.083118394 0.08416383 0.057185814 -0.0738867
-0.051725756 -0.05406561 -0.075136 -0.03694758 -0.07594443 -0.022874761 -0.04819412 -0.0784367
-0.052240703 0.033846177 0.07196298 -0.0247256 -0.021944938 0.047004014 0.026602028 0.0045669503
0.064646564 -0.07405909 0.013099159 0.090535976 0.018698364 0.037282538 -0.03354612 0.022208262
0.020610943 0.026461815 0.033474304 0.09076299 -0.033625968 0.008441568 0.009210825 -0.06771061
0.054226283 -0.05589168 0.063388616 0.029014183 0.0075950623 0.053290695 -0.07083978 -0.023017507
0.006799167 -0.068597704 -0.026874142 0.034810513 0.08095036 0.08341318 0.077409245 -0.0522826
-0.042143542 0.09935176 0.043223087 0.04116313 0.011586354 -0.066702984 -0.011070987 0.11502689
-0.017639458 0.016698102 -0.066114284 -0.033401504 0.015958222 -0.04293998 -0.0009490015 0.0716888
-0.08325346 0.040083528 -0.033792023 -0.0041035367 0.033689547 0.070298046 -0.0131907035 -0.035238486
-0.07821981 -0.036094595 -0.056020018 -0.018090766 0.017983377 -0.080597825 0.08454988 0.07882731

gcn2.fc.bias f4 [128]
00000000: 1943 bb35 885d 2bb7 b5e8 6835 7e1f 32b3
00000010: ff4c 1235 9afb 0035 3738 5635 8929 47b3
00000020: 9ab5 2bb6 fc7f 61b1 cb0f c436 cc6b fa35
00000030: 66c6 d136 2224 b535 ef20 08b7 950d afb5
00000040: bb8e e235 e50a 0637 8508 3bb5 ffb3 5fb5
00000050: f4b6 8133 c413 8ab6 9681 1eb6 3f32 9538
00000060: 097b ddb7 6252 07b7 739b 83b6 a786 7b36
00000070: a967 ceb6 bdf0 a7b5 00cb 2ab7 53fd 1337
00000080: d056 bf36 6bc4 e1b4 d026 77b4 4590 64b5
00000090: b346 a5b5 cfe7 c2b4 ce7a f636 d773 dc33
000000a0: 1a8f a935 0b09 2638 4741 b435 6504 0eb5
000000b0: 4f1c f3b7 bedc e1b3 3a45 8c36 ec37 3a36
000000c0: 5898 14b6 d51c 08b6 fd8c 8034 d5ae 3835
000000d0: 5c99 7eb6 002d bb37 3bb9 17b6 6498 6a36
000000e0: 4894 71b6 bfee 81b6 1a72 78b2 7cf7 f7b5
000000f0: 8488 b136 93d9 4d37 2bd4 a435 55fe 6e36
00000100: a564 fbb6 f42b a7b5 70d2 78b7 273e 3c36
00000110: 0f4c 8835 8eb3 3036 1494 ebb5 6cce 6035
00000120: 91ad 4036 57e3 f835 7a78 8a35 db52 39b6
00000130: 5ea5 04b7 5287 d136 92bf a5b5 ee62 f135
00000140: 28d4 2836 df8b afb7 ee26 1637 255e 8135
00000150: 5e04 59b6 76bf b1b6 ef30 2237 5519 ca35
00000160: 758f 52b6 dbc1 87b5 03cf beb7 40db 0136
00000170: 69f2 e036 6296 2235 59c2 5db6 7e17 0637
00000180: 3c94 3eb5 c71a 4d37 0484 1fb7 1e41 6836
00000190: d5a6 a5b5 2cdb f6b6 76d2 8936 4bde a3b6
000001a0: 6be9 b0b5 7607 3eb5 077c 8334 2638 0637
000001b0: 77de b4b6 8d9a 85b5 3dbf eeb4 f24f 8db8
000001c0: 1fb3 93b6 1f76 c3b6 168a 1b37 479d 88b7
000001d0: 1631 3f32 9c73 e435 a0ce 2fb6 58c0 5935
000001e0: b81a 4bb5 e037 4bb6 e6fe 3bb5 4c5d 92b4
000001f0: 5909 3e35 f328 1735 f165 5ab6 4c21 acb4
1.3952114e-06 -1.0214171e-05 8.676537e-07 -4.1472497e-08 5.450128e-07 4.8049844e-07 7.9803016e-07 -4.6371074e-08
-2.5586692e-06 -3.281456e-09 5.8430937e-06 1.8657825e-06 6.251782e-06 1.3496067e-06 -8.1139e-06 -1.3042469e-06
1.6879852e-06 7.989559e-06 -6.9675326e-07 -8.33359e-07 6.0403096e-08 -4.1150215e-06 -2.3619264e-06 7.114233e-05
-2.6402546e-05 -8.065808e-06 -3.922201e-06 3.7480293e-06 -6.151346e-06 -1.2512534e-06 -1.0180054e-05 8.820864e-06
5.70235e-06 -4.205243e-07 -2.3017787e-07 -8.514656e-07 -1.2314034e-06 -3.630398e-07 7.3456677e-06 1.02656195e-07
1.2633129e-06 3.9585906e-05 1.3430043e-06 -5.2905517e-07 -2.898104e-05 -1.0517532e-07 4.180384e-06 2.774871e-06
-2.2142394e-06 -2.0282362e-06 2.394444e-07 6.8799756e-07 -3.7938216e-06 2.2313092e-05 -2.2608572e-06 3.495742e-06
-3.599811e-06 -3.8722933e-06 -1.4461444e-08 -1.8474962e-06 5.2909036e-06 1.226961e-05 1.2280701e-06 3.5612804e-06
-7.4920995e-06 -1.2455262e-06 -1.4830948e-05 2.805036e-06 1.0154926e-06 2.6330558e-06 -1.7551961e-06 8.3746886e-07
2.8711258e-06 1.8543604e-06 1.0316865e-06 -2.7615376e-06 -7.906316e-06 6.2444387e-06 -1.2349212e-06 1.7984692e-06
2.5157442e-06 -2.0926758e-05 8.949761e-06 9.638649e-07 -3.2338062e-06 -5.2973e-06 9.667346e-06 1.5057545e-06
-3.1375941e-06 -1.0114703e-06 -2.2746162e-05 1.9350118e-06 6.7039405e-06 6.056854e-07 -3.3044691e-06 7.992492e-06
-7.0996225e-07 1.2225187e-05 -9.507876e-06 3.4608597e-06 -1.2342012e-06 -7.3568863e-06 4.107419e-06 -4.883657e-06
-1.3180955e-06 -7.079137e-07 2.4490893e-07 8.0000955e-06 -5.3903163e-06 -9.954252e-07 -4.44701e-07 -6.738295e-05
-4.401794e-06 -5.825204e-06 9.270871e-06 -1.6285701e-05 1.1128824e-08 1.702097e-06 -2.6197304e-06 8.1118696e-07
-7.5662274e-07 -3.028188e-06 -7.0033855e-07 -2.7262502e-07 7.079412e-07 5.631147e-07 -3.254387e-06 -3.2061723e-07

gcn2.bn.weight f4 [128]
00000000: 339c 7d3f 77a6 7f3f 8991 783f 1006 813f
00000010: 6891 7b3f 7517 733f 20b0 803f 04c9 803f
00000020: dfb4 7e3f 09af 773f d159 7b3f 30ba 7f3f
00000030: 90c6 823f c691 7f3f c080 843f 1a03 823f
00000040: 9a8f 7e3f d70e 7e3f bc26 833f 487e 7f3f
00000050: d9c1 7f3f ac52 833f 86c3 7e3f 2e1d 823f
00000060: 7e5e 7f3f 1753 813f fa22 813f d4e3 803f
00000070: ad0c 7e3f 21ce 833f 288a 7e3f 9d64 813f
00000080: 627b 803f 04dc 823f db7a 833f 7097 773f
00000090: b6aa 813f 6c91 783f 9117 793f e594 843f
000000a0: 3582 823f cf4a 7d3f 3a82 803f 4f60 7e3f
000000b0: b37f 7c3f 2342 7d3f 0b9f 7f3f 9c34 7b3f
000000c0: a9c5 7a3f b8cf 823f 83f2 7c3f dfce 843f
000000d0: 6c6a 7f3f 2644 803f e9eb 813f 92a8 813f
000000e0: f694 833f 459d 7e3f b705 813f f68e 833f
000000f0: 4ba5 7c3f 7475 773f 1e2e 793f d85e 7e3f
00000100: b720 823f 2fa9 7e3f ca4d 813f 2b93 833f
00000110: 017b 7b3f 2804 853f 8880 793f e0d6 823f
00000120: cc8c 783f da6f 7e3f 1b01 823f 4835 843f
00000130: 675f 823f f1f3 843f 1aec 823f f206 773f
00000140: 23be 7c3f 679e 793f 31cc 813f dc50 753f
00000150: 6390 823f c8a2 7d3f 9b42 7f3f 8a3a 813f
00000160: 9452 823f d4c1 843f 585e 833f cbf5 783f
00000170: 2cb8 743f dd8c 803f 9324 843f 85cc 803f
00000180: 76b1 783f 54b8 813f 4b32 853f 2e55 803f
00000190: dee2 803f 1549 803f fba2 803f 7253 7e3f
000001a0: 0c78 7b3f 9f5f 7b3f 7485 823f c2c8 833f
000001b0: d0ff 743f 2815 803f 7422 823f c374 833f
000001c0: 79bc 803f 68e2 793f d21c 833f eb08 843f
000001d0: 0d53 803f 97f3 843f b505 803f 6430 803f
000001e0: 0dbe 803f a7ae 813f 7c45 7e3f ce3a 793f
000001f0: c7e4 803f 4e22 803f cbfd 7d3f e010 7b3f
0.99066466 0.9986338 0.9709707 1.0079975 0.9826875 0.9495767 1.0053749 1.0061345
0.9949474 0.9675146 0.98183924 0.99893475 1.0216846 0.9983181 1.0351791 1.0157197
0.9943787 0.99241394 1.0246196 0.99802065 0.99905163 1.0259604 0.99517095 1.0165155
0.9975356 1.0103482 1.0088799 1.0069528 0.9923809 1.029728 0.9942956 1.010883
1.0037653 1.0223393 1.0271868 0.9671545 1.0130222 0.97096896 0.97301584 1.0357939
1.0195986 0.98942274 1.0039742 0.99365705 0.98632354 0.9892904 0.99852055 0.9812715
0.97957855 1.0219641 0.98807544 1.0375632 0.9977176 1.0020797 1.0150119 1.0129569
1.0279834 0.99458724 1.0079869 1.0278003 0.9868972 0.96663594 0.97335994 0.9936347
1.0166234 0.99476904 1.0101864 1.0279287 0.98234564 1.0391893 0.9746175 1.0221825
0.9708984 0.9938942 1.0156587 1.032876 1.0185364 1.0386945 1.0228302 0.9649497
0.98727626 0.9750733 1.0140439 0.95826507 1.0200313 0.9907651 0.99711007 1.009599
1.0181451 1.0371652 1.0263166 0.9725005 0.95593524 1.0042988 1.0323662 1.0062414
0.97145784 1.0134377 1.0405973 1.0025995 1.0069234 1.0022303 1.0049738 0.9934608
0.9823005 0.9819278 1.0196977 1.0295641 0.9570284 1.0006456 1.0166764 1.0270008
1.0057517 0.97611094 1.024317 1.0315222 1.0025345 1.0386838 1.0001742 1.0014768
1.0057999 1.0131425 0.99324775 0.97355354 1.0069817 1.0010469 0.9921538 0.98072624

gcn2.bn.bias f4 [128]
00000000: 0482 b43a 00f6 45bc b019 3bbc 7899 3a3c
00000010: 3711 e5bb 5587 13bd 285e 753c e393 8b3c
00000020: ecb9 dfb8 8390 ffbc c96f 08bd 5d67 273c
00000030: 7503 073d cf0d fabb 064b 303c 3868 873c
00000040: e867 2bbc e149 73bc 7921 183d b4b8 463c
00000050: 4033 a33b 9a73 f63c dfd2 c5b9 5688 293b
00000060: f066 13bc f2a8 02bc caac 843c 24f1 5dbb
00000070: 36e0 a6bb 9257 053d 6c29 973b 7ae1 863c
00000080: 5ac2 4b3c 3957 f23c f5df f43c b201 d4bc
00000090: f150 b43c 9ff1 dcbc 2682 1abd c48b 1d3d
000000a0: 4447 c5ba 631c d5bb 3e71 683c f5e6 78bc
000000b0: 7745 293a 110e d83b 7272 febb 9edc 89bc
000000c0: c7f1 7dbc 4994 173d 79ca 41bc af6d 243d
000000d0: c439 003b 49f1 713b 44b1 c33c 9655 8d3c
000000e0: 7d40 083c 9a4b 81bc 2a44 183c 3942 113d
000000f0: 8119 243b ec62 c6bc 6308 0ebd ad7e 473b
00000100: b10a 963b 10fb 43bb a221 313c d7f1 283d
00000110: 783b 74bc 0721 1b3d 2f54 5abc 2859 0f3d
00000120: abc3 bbbc ab99 a6bb 6cc3 9e3c d45a 393d
00000130: f5b8 ec3c c550 ee3c 4558 143d 3f21 acbc
00000140: a9d9 f7bb 0026 f8bc f562 af3c 018e 9bbc
00000150: a071 163c 2d8e afbc c8a5 07bd 7a69 133c
00000160: 80b2 c13c 30ef 133d 030f 063d d1d2 89bc
00000170: fe64 14bd 3e37 9c3c 269f ec3c 6315 9c3c
00000180: b2e4 90bc 4d4a b73c 4673 c23c 5367 43ba
00000190: 64eb ee3b e917 ef3b 56ee ae3c b48a d1bb
000001a0: 9a47 a0bc 1367 9ebb 5405 da3c d791 853c
000001b0: 1ca2 2dbd 088f 993b c8d4 a83c 378b b43c
000001c0: d61c 533c 47e3 c7bc 0af6 b13c 27e6 833c
000001d0: e473 2e3c c433 273d ba0e a13b f238 ba3a
000001e0: 619e ffb9 0db2 9c3c 1871 263c 0bdf 84bc
000001f0: c096 bebb ff4b 653c ef91 8ebc 2207 0fbc
0.0013771658 -0.012082577 -0.011419699 0.011389129 -0.0069905776 -0.036017735 0.014976062 0.017038291
-0.00010668099 -0.031196838 -0.03330973 0.010217515 0.03296228 -0.0076310406 0.0107600745 0.016529188
-0.010461785 -0.014849157 0.037141297 0.012128998 0.0049804747 0.03008442 -0.0003773188 0.0025868616
-0.00899671 -0.00797485 0.016195673 -0.0033865655 -0.005092646 0.032554217 0.004613092 0.016464937
0.012436474 0.029582607 0.029891947 -0.025879715 0.022011252 -0.026970683 -0.037721775 0.03846337
-0.0015051146 -0.006503628 0.014187155 -0.015191783 0.00064571894 0.0065934737 -0.007765108 -0.016828831
-0.015499539 0.03700665 -0.011828058 0.040143665 0.001956568 0.0036917499 0.023888238 0.017252725
0.008316156 -0.01578312 0.009293595 0.035463545 0.0025039616 -0.024217092 -0.034675967 0.0030440495
0.0045789112 -0.0029904284 0.010811241 0.04124626 -0.014906757 0.037873294 -0.013325735 0.034997135
-0.02292045 -0.0050842366 0.019380294 0.045252636 0.028896788 0.029091248 0.036216993 -0.021011947
-0.007563789 -0.030291557 0.021409491 -0.018988611 0.009182364 -0.0214301 -0.033117086 0.008997316
0.023644686 0.03611678 0.03272916 -0.016824158 -0.036229126 0.01906931 0.028884482 0.019053167
-0.017687175 0.022374297 0.023736607 -0.0007454056 0.0072912443 0.0072965515 0.021353882 -0.0063947085
-0.019565392 -0.0048340647 0.026613869 0.016304893 -0.042390928 0.00468624 0.020609275 0.022039039
0.012885293 -0.024400366 0.021723766 0.016100956 0.010647748 0.040820852 0.0049150856 0.0014207645
-0.00048755392 0.01912787 0.0101588 -0.016219636 -0.0058163106 0.01399517 -0.017403571 -0.008729728

gcn2.bn.running_mean f4 [128]
00000000: 5f9f 0cbf ef6d 393f 3e59 9b3d 9f3c 9a3e
00000010: 8c47 da3e 22f6 5abd d4ce d53e 1297 9f3d
00000020: a371 983e 23cd 183f 754e 093f d8cc 67be
00000030: 72f7 00bd 34ff 493f 9737 55bf 522c 84bf
00000040: 3f4c b13e f84e 6bbd 407c b13e 8eb8 58bd
00000050: c4d9 553e b6b0 e23e 2085 c9be d291 3cbf
00000060: 7491 31bf 1f8f 193f c6fe d33e 4c5d 313f
00000070: 0ec9 8d3e 2435 483e 604a c13e a762 9bbf
00000080: 86f9 a23e 11ff 013f 288e 593e 4d92 8e3e
00000090: 604f 8b3e 8450 0c3f 2add 023f 9dba 7f3e
000000a0: 46e2 033f 2054 9f3e 98d2 363e a475 dd3e
000000b0: dad0 a3bf f563 7bbe f4ff f23e 9e06 ce3e
000000c0: 1827 193d 8947 033f 5092 ef3e d66f ba3e
000000d0: e4df 96bb 91ea 8fbf 4d50 9fbd 53c5 a0be
000000e0: 919f bc3e 8d28 383f 98d3 fbbd 8dd4 083f
000000f0: 1f12 b4bd 54a2 5f3f 3fde 013f fb5a 82be
00000100: 158e 903e 69d4 b43e 2a41 c83e ccbf f53e
00000110: 41ba 633f ad77 ee3e d587 0e3e 41bf 0b3f
00000120: 350b 153f b93e 113f 4e23 30be c52a a33e
00000130: 9025 f63e 6fb2 b93e 9bca 3dbe 8275 9d3e
00000140: 4932 163f 33e1 a33e d1d0 c13e 8f33 3dbe
00000150: 775c bbbe 7f3c 453f 5312 d33e e844 c73e
00000160: ecbd 183e 3dbe 71bf 61c6 993e 6cd2 d33e
00000170: 764e 1d3c 5c76 dd3e b5f6 023e bd30 77bf
00000180: 173d 623f 71d2 9f3e 765d b5be 320d d73e
00000190: 7f26 01bf c027 c83e 49e5 e6be c86b 583f
000001a0: 26ea 2a3f 10e8 ee3e 7413 ef3e cd85 a63e
000001b0: aef0 ad3d 6f95 bc3e aa06 f63e 40a2 623e
000001c0: 5f64 93bf acb2 1c3f f438 083f 991a 6fbf
000001d0: b92b b93e fcca cc3e 17da 2f3f 5346 323f
000001e0: 7cae f13e 1289 d53e a23b 553f eec7 e03e
000001f0: 5919 223f 5009 a5be c2f1 403f 92a6 0b3f
-0.5493068 0.7243337 0.07585381 0.30124375 0.4263271 -0.053457387 0.4175936 0.07792486
0.29774198 0.59688014 0.5363534 -0.22636735 -0.031485982 0.78905034 -0.8328795 -1.0326025
0.34628484 -0.057448357 0.34665108 -0.05291038 0.20883852 0.44275445 -0.3935938 -0.73660004
-0.6936257 0.5998401 0.41405314 0.69282985 0.27692455 0.19551522 0.37752056 -1.2139481
0.31830996 0.50779825 0.21245635 0.27845994 0.27208996 0.5481036 0.5111872 0.24973531
0.5151714 0.3111887 0.17853773 0.43253815 -1.2798111 -0.2454985 0.47460902 0.40239424
0.0373908 0.5128103 0.46791315 0.3641345 -0.0046043266 -1.1243459 -0.07778988 -0.31400546
0.3684049 0.71936876 -0.12296218 0.53449327 -0.08792519 0.8735707 0.50729746 -0.25460038
0.282334 0.35318306 0.39112216 0.47997892 0.88956076 0.4657568 0.13919003 0.54588705
0.58220226 0.5673633 -0.17200968 0.31868568 0.48075533 0.36268947 -0.18534319 0.30753714
0.5867048 0.3200775 0.37854627 -0.184767 -0.36593983 0.77045435 0.41224918 0.3891976
0.149162 -0.94430906 0.30034164 0.41371477 0.009601226 0.43254364 0.12789424 -0.96558744
0.88374466 0.31215242 -0.35422868 0.42002255 -0.50449365 0.39092827 -0.45096806 0.8453946
0.6676353 0.46661425 0.4669453 0.32523957 0.08493172 0.3683276 0.4805196 0.22132206
-1.1515006 0.6121013 0.53211904 -0.9339996 0.3616617 0.39998615 0.68692154 0.69638556
0.47203434 0.4170614 0.8329412 0.43902534 0.6331993 -0.32233667 0.75368893 0.5455104

gcn2.bn.running_var f4 [128]
00000000: 2d5b a73e f68a 303e 1536 3b3f d694 ad3e
00000010: 7127 ef3e 9fe4 5a3f a191 6c3f 773e da3e
00000020: e4cd 193f f608 b53e 76a4 823e 0890 d93e
00000030: 3701 183f e53a bc3e 8196 093e 5a6a 273f
00000040: 718e 853e dfbf 053f 4033 023f 1bb1 d83e
00000050: fc6d 0a3f 98f0 0e3f 2e90 b73e ebb2 ae3d
00000060: f2c7 e73d 989d 6f3e 8b32 b33e 9753 ca3e
00000070: dda8 a53e 5c8a 3e3e 48db 333f 870e d73e
00000080: e5c6 033f 8752 343f 3e78 2e3f cf15 393f
00000090: 8762 7b3e e877 f33e 3f15 463e cc16 1c3f
000000a0: 180c 5b3e fa61 e63d 9acc ca3e a60a 763e
000000b0: 5bf6 173f 458c 923e 1c7e 153e e644 c63e
000000c0: b914 f83e ff01 b53f dcf3 b93d 2c51 ae3e
000000d0: c644 3c3f 0cfc 493e fe9d cf3e 67f7 ee3e
000000e0: a2a0 023e bae5 e43e 7ab5 573e 169a 593f
000000f0: c5d3 283f d88f 8b3e ceca 7d3e 9ed6 063f
00000100: 80f9 f73d 1507 a13e 2186 b73d b27a 3e3f
00000110: 9ca2 f03e 82e0 d73e e20c c73e 956a 273f
00000120: 6c97 983e 1f4b e73e 904d c83e e156 ad3e
00000130: 993a 973e 93f4 543e eeaf 443f 86a1 423e
00000140: e3e9 0c3f 407e a73d d6a3 033f 0b68 8f3f
00000150: a60b 293d 18f1 903e 670d ee3d 48d6 e83e
00000160: ad6f 1b3f 3a5b 203f aef6 8c3e 9bc7 963e
00000170: c302 313f 0d55 403f 1a6b 6c3e 4cd1 b53e
00000180: 05a7 333f 2027 153f 58b1 383d c495 fe3d
00000190: 41f3 f83e 6860 823e eaf9 143e 2a15 d93e
000001a0: bff9 0b3f baf1 3e3f cc7a 233f a253 e53d
000001b0: 8b59 503e de59 f63e 009a 763e 6c16 8a3d
000001c0: fb4f 893e 24ce 273e fa65 2d3e 67c6 b83e
000001d0: 78fc d23e f101 a23e 4d9f 553f 4798 343f
000001e0: 65a9 183e fa81 023f 4d4b 2e3f 6c37 913e
000001f0: 256b ba3e bca7 043f 90b4 b13e 40cd a53f
0.3268675 0.1724051 0.731294 0.33902615 0.4670978 0.855051 0.9240971 0.42625782
0.6007979 0.353584 0.255161 0.424927 0.59376854 0.36763683 0.13436319 0.65396655
0.26085237 0.522459 0.5085945 0.4232262 0.5407407 0.55835867 0.35852188 0.0853022
0.113174334 0.23399961 0.349995 0.395169 0.32355395 0.18607467 0.7025647 0.4200327
0.51475364 0.70438427 0.68152225 0.722989 0.24549304 0.4755242 0.19344042 0.60972285
0.21391332 0.11249156 0.39609224 0.240275 0.59360284 0.28622642 0.14598888 0.3872444
0.4845331 1.4141234 0.090797156 0.34046304 0.7354244 0.19725055 0.40550226 0.46673128
0.12756589 0.44706517 0.21065322 0.8500074 0.65948135 0.27258182 0.24784395 0.5267123
0.12108135 0.31450716 0.0896113 0.7440597 0.4699906 0.42163473 0.38877016 0.65397006
0.29803026 0.451745 0.39121675 0.33855346 0.29536894 0.20796423 0.7683095 0.19006929
0.5504438 0.08178377 0.5142187 1.1203626 0.041270874 0.2830894 0.1162365 0.45475984
0.6071728 0.626392 0.27531952 0.29449162 0.6914484 0.7512978 0.23087731 0.35511243
0.70176727 0.58262825 0.045091003 0.12430909 0.48623088 0.25464177 0.1454846 0.4239896
0.5467796 0.74587595 0.6385925 0.11197592 0.20346658 0.48115438 0.24082184 0.06742558
0.26818833 0.1638723 0.16933432 0.3608887 0.41208243 0.31642106 0.834462 0.70544857
0.14908369 0.5097958 0.6808365 0.28362596 0.3640987 0.5181844 0.3470807 1.2953262

lstm.weight_ih_l0 f4 [512, 128]
00000000: 737f 883b fba1 543c 068b 25bb 9f5e ac3d
00000010: 2812 903d aff0 48bd 3a77 9abd f7e9 7ebd
00000020: ce46 8a3d d956 08bc d6a2 e4bc d11d 14bd
00000030: 94ad 0a3d d496 563d 3978 163d bfc5 953d
00000040: c06f 923d 5282 28bd 3e37 793c fb83 00bd
00000050: 7f4e e6bc 9979 b93c 1e88 463d 89d7 2bbd
00000060: 6a1c e0bc 337c f7bb f2b2 6e3d 8c6f 2a3c
00000070: d858 823d 3035 9abd f637 533d ca00 af3d
00000080: 69ca 973d 340e 60bd f498 68bd 3c85 fe3b
00000090: 5e95 af3c 193d 763d bab3 953d 1af2 0cbb
000000a0: 0a34 c5bc 8141 413d 70dd 4fbd 16e8 f1bc
000000b0: 73d1 7b3c 76d4 033c 44d5 5c3d 3211 55bb
000000c0: 90e3 ee3b bcd0 333d 276d 1bbc ba7b 9fbb
000000d0: 6127 3f3d 0fff 5d3d 489c 24bc 04a6 64bd
000000e0: 1645 ddbc bdce 833d cf5a 703d d5e9 05bc
000000f0: ffa9 893d db20 023c 565a 873b 042e 9bbc
00000100: 1381 e23b 3b07 ad3b e079 c53c 7e54 7cbd
00000110: 0d41 9b3c 8e30 42bd b17f 39bd efd9 85bd
00000120: e8ba 0dbb 87b5 b53c a89c 3a3c de94 343d
00000130: c0f3 85bc dd29 55bd f736 2d3b cb2e 65bd
00000140: 5896 703c 3713 953c cefc 003d 369e 7bbd
00000150: 991e 933d 0dc3 ab3d de37 11bd 3858 41bd
00000160: f6ea 813c 1c87 9e3c 7a7b 9fba ea1e 12bd
00000170: 3987 273c ea00 02bd 8463 1bbd 0a45 323d
00000180: 7add 293d ae6f 603d 17e4 6f3d 9603 933b
00000190: a96e c03c 25a3 803d e8f9 20bd b90a 8a3d
000001a0: 7821 8a3d d68b 54bc ccf4 b23d bd31 1dbd
000001b0: 9125 1dbd 4313 a63d 7602 353d 8f17 963b
000001c0: f610 5fbd 0b0b 553d 314a b73c 5456 4cbd
000001d0: d084 a33c be2a 873d 78f1 6b3d aa78 18bd
000001e0: a6b1 ea3a de25 33bc 5e20 9e3d dc5d 373d
000001f0: f39a 88bb f146 093c 6a8b 77bd 561b 3a3c
00000200: 5533 603d 8170 2fbd cf23 ae3c f4ff bc3d
00000210: e5a4 623d e3da 7f3d 6586 af3c 7b6b e33a
00000220: a09a eebc ba52 02bc fce5 1e3d 77b9 293d
00000230: e359 7a3d 0400 08bd b869 a63d feff deba
00000240: f307 31bd 537e f43c c3b8 48bd 2ec6 043d
00000250: d242 6d3d 6da2 7f3d 961b c93d bc0e 8f3d
00000260: 68d1 393d 0393 2f3d d5fe 8bbd 4191 94bc
00000270: 78ad 28bd a82f c8ba ee83 d33c 140f cc3d
00000280: 60a1 873d 6771 d5bc d09f 8a3d f98e 923d
00000290: 5704 de3c 0711 32bd 1440 083d 1c1c b53d
000002a0: 17b4 823d 4480 d23d 8fa8 e63d e8d3 babc
000002b0: 4283 a43d 3c5d 77bd 2d4f d6bc 35bc 5a3d
000002c0: bf95 923c 456c a53d c204 b03d 0b1a 48bb
000002d0: a6d1 0b3e 9096 0abd 24f8 763d f2db 9c3d
000002e0: 59c6 ee3d 53b5 d33d ba39 883d 84ac f3bc
000002f0: 5786 9d3d 6897 aa3d d585 b03c 7802 953d
00000300: 02c1 6e3d d60f 953b c9d0 8c3d 9574 0b3c
00000310: 4694 9ebb 48d1 a73c 9b4b c43c 0e4c 49bd
00000320: 2143 24bd 6051 363d 295c cf3c 8688 6f3c
00000330: 3693 a93d 9eba da3d b36c 683d 030c 713d
00000340: 8fa6 993d 728f fbba 8587 b23d c287 1abd
00000350: 987c 5ebb a974 5bbb 45d9 c03d b595 7a3d
00000360: 88e6 8c3d a4fe c13d 5dfb 8ebd 097d 64bd
00000370: ead2 383d 32b7 68bc afba a23d c198 21bd
00000380: 895e be3d fc71 84bd 5a77 ca3d 77f1 ba3d
00000390: 5f61 ef3b 8958 f03d 3dc5 843d bc26 8fbc
000003a0: ad5e 68bc 30ab 943d c43c 49bc b9b0 4d3d
000003b0: 34a6 6c3d f558 513d 612e eeba 9a0b d53d
000003c0: 8c82 4a3d 8529 4e3d 1b8a 103b 3462 a83d
000003d0: f4f9 5b38 a22a d53d 7f1b 5d3d f5a2 d63d
000003e0: 5d80 253d 3a05 823d a5e7 a83d d53c 063d
000003f0: 0552 b93c 83f5 35bd 0e6d bfbc 737a 993d
0.0041655838 0.012978072 -0.0025259866 0.08416485 0.07034713 -0.04905766 -0.07542272 -0.062234845
0.06751786 -0.008321487 -0.027909677 -0.036161248 0.033856943 0.052389935 0.036735747 0.07313108
0.07150221 -0.041139908 0.015210925 -0.031375866 -0.028113602 0.02264099 0.048469655 -0.041953597
-0.027357299 -0.0075526475 0.058276124 0.010402571 0.06364602 -0.07529676 0.05156704 0.085450724
0.074116535 -0.054701045 -0.056786492 0.0077673476 0.021433529 0.06011686 0.07309671 -0.0021506608
-0.024072666 0.04718161 -0.05074829 -0.029529613 0.015369761 0.00804626 0.053914323 -0.003251147
0.007290311 0.043900236 -0.009486473 -0.0048670443 0.046668414 0.05419832 -0.010047026 -0.055822387
-0.027010482 0.064359166 0.05868035 -0.008173426 0.06721877 0.007942404 0.004130642 -0.01894284
0.0069123595 0.005280403 0.024105966 -0.061604016 0.018951917 -0.047409587 -0.04528779 -0.06535708
-0.0021626297 0.022181286 0.011389889 0.044087283 -0.01635158 -0.052041877 0.0026430467 -0.05595283
0.014684282 0.018197639 0.031491093 -0.06143018 0.071835704 0.08386812 -0.03545367 -0.047203273
0.015859108 0.019351535 -0.0012167536 -0.035674013 0.010225111 -0.031739153 -0.037936702 0.043522872
0.041470982 0.054794006 0.058567133 0.0044865115 0.023490267 0.06281117 -0.03930083 0.067403264
0.06744665 -0.012972793 0.087380975 -0.038377512 -0.038365904 0.08109143 0.0441918 0.004580445
-0.054459535 0.052012485 0.022374244 -0.049887016 0.01996079 0.06599949 0.05760333 -0.03722445
0.0017905727 -0.010934321 0.07721017 0.044767246 -0.004168862 0.00837873 -0.06043569 0.011359056
0.054736454 -0.0428319 0.02125731 0.09228507 0.055333037 0.062464606 0.021426389 0.0017350757
-0.029126465 -0.007954294 0.03879355 0.04143664 0.06112088 -0.03320314 0.08125633 -0.0017013547
-0.04322047 0.029845392 -0.049004328 0.03241556 0.057925053 0.06241076 0.09819715 0.06985232
0.04536572 0.04286481 -0.06835715 -0.018135669 -0.041181058 -0.0015272992 0.025819745 0.099638134
0.06622577 -0.026055051 0.06768763 0.07156176 0.027101679 -0.04347327 0.033264235 0.08843252
0.06382006 0.10278371 0.11262619 -0.022806123 0.08032848 -0.06039165 -0.0261608 0.053402144
0.01789367 0.080772914 0.085946575 -0.00305331 0.13654193 -0.033834994 0.06029524 0.07659139
0.116589256 0.10337319 0.066516355 -0.029745348 0.07691639 0.0832966 0.021548191 0.072758615
0.058289535 0.004549007 0.0687576 0.008511682 -0.004839453 0.020485535 0.023961833 -0.049144797
-0.04010308 0.0445112 0.0253125 0.014619952 0.082800314 0.10680126 0.05674429 0.058849346
0.07502472 -0.001919253 0.087172545 -0.037727125 -0.0033948775 -0.0033486283 0.09416441 0.061177928
0.06879908 0.09472397 -0.069815375 -0.055783305 0.04512302 -0.014203833 0.07945763 -0.039452318
0.09295375 -0.06467053 0.09886046 0.09128087 0.0073053087 0.11735637 0.06482933 -0.017474525
-0.014182729 0.07259214 -0.012282554 0.050217364 0.05777569 0.051110227 -0.0018171781 0.104026034
0.049440905 0.050332565 0.0022054974 0.08221856 5.2446456e-05 0.10408522 0.0539813 0.104803
0.04040562 0.06348653 0.08247308 0.032772858 0.022622118 -0.04442359 -0.023367431 0.074940585
