best_model_tcn.pth (torch, 932029 bytes, 12 tensors)

network.0.net.0.weight f4 [128, 150, 3]
0	0x3d3a7473	0.04552121
1	0x3c936539	0.017992603
2	0x3cdc8fed	0.026924098
3	0x3e175b31	0.1478088
4	0x3bf72de8	0.0075433142
5	0x3d7751bf	0.060380694
6	0x3de650e2	0.11245896
7	0xbcc8e7b9	-0.024524556
8	0x3d8aa477	0.067696504
9	0x3e0fb0fb	0.14032356
10	0x3cfa8e06	0.0305853
11	0x3e0183a7	0.12647878
12	0x3e516d17	0.2045177
13	0x3db9f31c	0.090795726
14	0x3da5fe6d	0.081051685
15	0x3df63c99	0.12023277
16	0x3dad74a6	0.084695145
17	0x3cf10ee5	0.029426048
18	0x3dcbf07d	0.09957979
19	0x3da33557	0.07969158
20	0x3d7a973f	0.061179396
21	0x3dadc56a	0.08484919
22	0x3d8cab02	0.06868555
23	0x3d2655aa	0.04060904
24	0x3ca789ba	0.020451415
25	0x3c137afc	0.00900149
26	0x3d573fd8	0.05255112
27	0x3cfc6d3f	0.030813811
28	0xbcf7ead7	-0.030263348
29	0x3c923e39	0.017851936
30	0xbce4dfc8	-0.027938738
31	0xbd827801	-0.06370545
32	0xbd142927	-0.03617206
33	0x3c69a815	0.014261265
34	0xbd77c9fe	-0.06049537
35	0xbd58b9ef	-0.052911695
36	0xbb62fc23	-0.0034635148
37	0xbded4b3c	-0.115866154
38	0xbe0bcba2	-0.13651899
39	0xbe0eb1d9	-0.13935031
40	0xbd861002	-0.06546022
41	0xbd14d7a2	-0.036338456
42	0xbd1b0a69	-0.037851725
43	0xbe12d618	-0.14339483
44	0xbddf0387	-0.10889345
45	0xbceeb216	-0.029137652
46	0xbdb14c67	-0.08657151
47	0xbdd1c5c8	-0.10242802
48	0x3cccfbb1	0.02502236
49	0xbd9a1c52	-0.07524933
50	0xbcdef7e3	-0.027217811
51	0xbc6dac74	-0.014506448
52	0xbe2756d9	-0.16341724
53	0xbda3db12	-0.08000769
54	0xbc271336	-0.010197451
55	0xbd9a8ae9	-0.07546026
56	0xbd36d407	-0.0446358
57	0xbd3609b7	-0.04444286
58	0xbd0e5ba0	-0.03475535
59	0xbdc6e6cc	-0.0971199
60	0xbdd85579	-0.105631776
61	0xbdd3753b	-0.10325094
62	0xbe08154f	-0.13289379
63	0xbddecd29	-0.10878975
64	0xbd689b8b	-0.056788962
65	0xbd261ff3	-0.040557813
66	0xbdaad8b0	-0.08342111
67	0x3b6d7c92	0.003623758
68	0xbd2f1fcf	-0.042754944
69	0xbdafaeed	-0.08578286
70	0xbc267d62	-0.0101617295
71	0x3d96ebbe	0.07369183
72	0xbc5a9aa8	-0.013342537
73	0xbd2ae466	-0.041721724
74	0xba2cde97	-0.0006594448
75	0x3c85c4db	0.01632922
76	0x3d344ca1	0.04401839
77	0x3c1d8d47	0.009616203
78	0x3d8894ca	0.06669004
79	0x3d1ae24c	0.03781347
80	0x3d2e31ef	0.04252809
81	0x3de5106a	0.11184771
82	0x3bb6219b	0.0055582053
83	0x3d19659f	0.03745043
84	0xbe19ea05	-0.15030678
85	0x3c5fac97	0.0136519885
86	0x3c1be579	0.00951516
87	0x3c059e35	0.008155395
88	0xbdd0bc5e	-0.10192178
89	0xbddf719e	-0.10910343
90	0x3ddbc32a	0.10730584
91	0x3c766930	0.015039727
92	0x3d1cba6c	0.038263723
93	0x3e0215c5	0.12703617
94	0x3d2fa1a5	0.042878766
95	0x3cc46f7b	0.02397894
96	0x3e131f13	0.14367323
97	0x3cd443b1	0.025911184
98	0x3cc195bf	0.023630975
99	0x3e271991	0.16318347
100	0x3d9f1f0a	0.07769592
101	0x3d88cdb2	0.06679858
102	0x3e40f976	0.18845162
103	0x3cf385e5	0.029726932
104	0x3d91d4e1	0.071206816
105	0x3e2b670d	0.1673853
106	0x3d87691c	0.06611845
107	0x3de0661c	0.10956976
108	0x3e1b11d4	0.1514352
109	0x3d759245	0.059953947
110	0x3df07177	0.11740392
111	0x3d659927	0.05605426
112	0x3d1e1546	0.038594507
113	0x3b0cfc9e	0.0021512876
114	0x3d8485fd	0.06470869
115	0xbc9c0621	-0.019045891
116	0x3c4e2a55	0.012583335
117	0xbd20bbb1	-0.039241496
118	0xbd8a5535	-0.06754533
119	0x3bef68d6	0.0073061986
120	0xbd8b698f	-0.06807243
121	0xbd8a6e3a	-0.06759305
122	0xbd2ac9c5	-0.04169633
123	0x3ce6bd56	0.028166454
124	0xbd97109d	-0.073762156
125	0xbdad3a64	-0.08458403
126	0x3c972587	0.018450512
127	0xbe069101	-0.13141252
128	0xbdd4cb2b	-0.10390314
129	0xbe111fa8	-0.14172232
130	0xbd9ab4b7	-0.07554
131	0xbdacc62c	-0.08436236
132	0xbd4dc22f	-0.050234016
133	0xbe301ee6	-0.17199287
134	0xbd9b0e99	-0.07571144
135	0xbd06596a	-0.032800116
136	0xbd93b701	-0.072126396
137	0xbd659e92	-0.056059428
138	0xbcdd375e	-0.02700394
139	0xbdb9242d	-0.09040103
140	0xbdbb02cb	-0.09131392
141	0xbcc46aad	-0.023976648
142	0xbe14668a	-0.1449224
143	0xbdbaa542	-0.09113552
144	0xbd94e5a3	-0.07270362
145	0xbd5b2f37	-0.053511824
146	0xbd5aa3bb	-0.0533788
147	0xbd48ea2c	-0.04905145
148	0xbdbe98e8	-0.09306508
149	0xbd9c8eb0	-0.07644403
150	0xbd813a81	-0.06309987
151	0xbde068bc	-0.109574765
152	0xbd5506bb	-0.05200837
153	0xbdfcda8a	-0.123463705
154	0xbdc2495f	-0.09486651
155	0xbdab7a98	-0.08372992
156	0xbdaed730	-0.085371375
157	0xbbe82e42	-0.0070855925
158	0xbd12de1a	-0.035856344
159	0xbdd685fd	-0.10474775
160	0x3cc573b2	0.02410302
161	0x3d4e2cdd	0.050335754
162	0xbc475230	-0.012165591
163	0x3cbc0ec0	0.022956252
164	0x3d346011	0.04403693
165	0x3ca1b11d	0.019737775
166	0xbcd2169b	-0.025645545
167	0x3d3de66b	0.04636232
168	0x3d426024	0.047454968
169	0x3d8fd8ec	0.070237964
170	0x3c6f6f75	0.014613976
171	0x3dd0f79f	0.1020348
172	0x3c96f6aa	0.018428165
173	0x3d3cdd5a	0.046109535
174	0xbe04082b	-0.12893741
175	0x3c176872	0.00924121
176	0x3c951585	0.018198738
177	0xbd4da775	-0.050208528
178	0xbe043537	-0.12910925
179	0xbd8b7b57	-0.068106346
180	0x3e0c78bb	0.1371793
181	0xbcee45a2	-0.029085938
182	0x3d742f8e	0.059615664
183	0x3de83aa5	0.113393106
184	0x3d45458a	0.04816202
185	0x3d7b0153	0.06128056
186	0x3dcdd7ad	0.100509025
187	0x3c984d0d	0.018591428
188	0xbc189ec5	-0.009315197
189	0x3e047f0e	0.12939093
190	0x3d7407e6	0.059577845
191	0x3cfd654d	0.030932093
192	0x3e1c2626	0.15248927
193	0x3d819960	0.06328082
194	0x3de48f80	0.11160183
195	0x3e29bad8	0.16575181
196	0x3c950060	0.018188655
197	0x3dba9f08	0.09112364
198	0x3e2db0f5	0.16962035
199	0x3c9c4688	0.0190766
200	0x3de49406	0.11161046
201	0x3d9a3782	0.075301185
202	0x3cd8b90c	0.026455425
203	0x3d03b221	0.0321523
204	0x3ce7b39b	0.028283885
205	0xbd43e7b1	-0.04782838
206	0x3d1e310a	0.038620986
207	0x3d244f78	0.04011485
208	0xbc238559	-0.009980523
209	0xbca077b9	-0.019588338
210	0xbd2c2c96	-0.042034708
211	0xbd98d4eb	-0.07462486
212	0xbcb7f037	-0.02245341
213	0x3c0bb519	0.008527064
214	0xbdbe137d	-0.09281061
215	0xbd3dea06	-0.04636576
216	0xba770cbd	-0.00094242004
217	0xbe07a11e	-0.13245055
218	0xbd94c4d7	-0.07264107
219	0xbdc98ef5	-0.0984172
220	0xbdcbd38a	-0.09952457
221	0xbdaf180f	-0.08549511
222	0xbc5f9803	-0.013647082
223	0xbdb859c8	-0.090014994
224	0xbe28ddf3	-0.16490917
225	0xbc3bae3a	-0.011455113
226	0xbdaa73ca	-0.08322866
227	0xbdccea75	-0.10005657
228	0x3cc9e76a	0.02464648
229	0xbd5b881a	-0.053596593
230	0xbdd6df8a	-0.104918554
231	0xbcf5d552	-0.030008946
232	0xbe15f4b0	-0.14644122
233	0xbde9b665	-0.11411742
234	0xbd97265f	-0.073803656
235	0xbdaab17a	-0.08334632
236	0xbd2748bd	-0.040840853
237	0xbc97882a	-0.018497545
238	0xbdaf11e0	-0.08548331
239	0xbbb3b103	-0.005483748
240	0xbddda160	-0.108217955
241	0xbd8d5a88	-0.06902033
242	0xbd1fb224	-0.038988248
243	0xbde3a277	-0.11114972
244	0xbd964f0f	-0.07339298
245	0xbdb7eaee	-0.08980356
246	0xbdecedd3	-0.11568799
247	0x3ca29d75	0.019850472
248	0x3cc31b46	0.023816716
249	0xbd90ae3e	-0.07064484
250	0x3be952fc	0.007120488
251	0x3d02abd9	0.031902168
252	0xbd906912	-0.070512906
253	0x3c7f4390	0.015580073
254	0x3cb37291	0.021905215
255	0x3cb02a1b	0.021504452

network.0.net.0.bias f4 [128]
0	0x3d69cf50	0.057082474
1	0xbd7b214b	-0.061311048
2	0xbd5f596a	-0.05452863
3	0xbd8c06d6	-0.06837241
4	0x3beab255	0.007162372
5	0xbca64416	-0.020296138
6	0xbd06ef04	-0.032942787
7	0xbd904c18	-0.07045764
8	0x3d4e6ec5	0.050398607
9	0xbc884bf5	-0.016637782
10	0xbd446548	-0.04794815
11	0xbd8a8ba3	-0.06764915
12	0xbe4265de	-0.18984172
13	0x3df98457	0.12183445
14	0x3da6cc7c	0.08144471
15	0xbc80c98a	-0.015721101
16	0x3d76892f	0.060189422
17	0xbb80e10b	-0.003933077
18	0xbd72313b	-0.05912898
19	0xbd37773f	-0.044791456
20	0xbbbf2c4a	-0.005834137
21	0xbcd6f7db	-0.026241234
22	0x3d64683e	0.055763476
23	0x3c3d2bec	0.011546116
24	0xbcd91139	-0.02649747
25	0x3c8bbb59	0.017057108
26	0xbbae7c4e	-0.005324877
27	0x3dc6b030	0.09701574
28	0x3d7042c8	0.058657438
29	0xbd465aed	-0.048426557
30	0xbdbd0b1e	-0.09230636
31	0x3e21ffe9	0.15820278
32	0x3dfb05d7	0.12256973
33	0xbda6f326	-0.08151846
34	0xbd216da4	-0.039411202
35	0x3e1b1835	0.15145953
36	0xbc89696e	-0.016773906
37	0x3cc09c33	0.023511982
38	0x3d9ee077	0.07757657
39	0xbb673299	-0.0035277961
40	0xbd48cbc7	-0.049022462
41	0x3e10bb78	0.14134014
42	0xbd8c1132	-0.06839217
43	0xbd00706b	-0.03135721
44	0x3e1c8e81	0.15288736
45	0x3cad8c1f	0.021184979
46	0x3e331338	0.174878
47	0x3d97ce95	0.07412449
48	0x3cb7d05a	0.022438217
49	0xbd5057fd	-0.050865162
50	0xbc027fa0	-0.0079649985
51	0xbd59a3cd	-0.05313473
52	0x3d82bb5c	0.06383392
53	0xbcab85dd	-0.020937854
54	0xbd8b34b4	-0.06797162
55	0xbdaf1cd0	-0.085504174
56	0x3dd4b555	0.10386149
57	0xbcab4c44	-0.02091039
58	0x3ca30754	0.019900955
59	0x3e098735	0.13430484
60	0x3db5fb8f	0.088858716
61	0xbca41349	-0.020028727
62	0x3e25d420	0.161942
63	0xbde36158	-0.11102551
64	0xbdc3909d	-0.09549067
65	0xbd5f70cc	-0.05455093
66	0x3cb4231b	0.021989396
67	0x3b92ca1e	0.0044796607
68	0xbdadbd38	-0.08483356
69	0x3e21cda9	0.1580111
70	0xbd42e04f	-0.0475772
71	0x3df65609	0.12028129
72	0x3dbc6cd1	0.092004426
73	0x3dc31e6f	0.09527289
74	0x3dfc76f6	0.123273775
75	0x3d759005	0.0599518
76	0xbd8c842d	-0.06861148
77	0xbd9a052c	-0.07520518
78	0x3dd60e2f	0.10451924
79	0xbcdad994	-0.026715077
80	0x3d47a420	0.048740506
81	0x3e58161e	0.21102187
82	0xbe155a99	-0.14585342
83	0x3d03df12	0.03219516
84	0x3bb6cb57	0.005578439
85	0x3d299bc9	0.041408334
86	0xbb8c6ddc	-0.004285557
87	0x3e618979	0.22025098
88	0xbc758702	-0.014985802
89	0x3da0c1bc	0.07849452
90	0x3dc60873	0.0966958
91	0x3dd7d6d2	0.105390206
92	0xbdc3d42c	-0.09561953
93	0x3da985e5	0.082774915
94	0xbc7e1ede	-0.015510289
95	0xbd47c51c	-0.048771963
96	0x3cd9d677	0.026591523
97	0xbd9015f3	-0.070354365
98	0x3bc888e9	0.0061198366
99	0x3d0d597e	0.034509175
100	0xbcc315ef	-0.02381417
101	0xbd759dcf	-0.05996495
102	0x3bcc4545	0.0062338435
103	0xbd50f9f3	-0.05101962
104	0xbc8496f7	-0.016185267
105	0xbda7b118	-0.08188075
106	0xbd03623c	-0.032076105
107	0x3d7b8d4b	0.061414044
108	0x3dd1cab6	0.10243742
109	0x3d9a4a8d	0.07533751
110	0x3b03e699	0.002012646
111	0x3c59d115	0.013294478
112	0x3cfc96ed	0.030833686
113	0xbbc41f56	-0.005985181
114	0x3becfa19	0.0072319624
115	0x3db0a49e	0.08625148
116	0xbdeac190	-0.114627
117	0xbda4dfd1	-0.08050502
118	0x3d1167b7	0.0354993
119	0x3db55bc7	0.08855396
120	0x3d8350ed	0.0641192
121	0x3dc9625a	0.09833212
122	0xbd8907cb	-0.066909395
123	0xbcd062ed	-0.025437796
124	0x3e038b7b	0.12846176
125	0xbc958144	-0.018250115
126	0xbb816546	-0.0039488403
127	0x3d5bb88c	0.053642794

network.0.net.4.weight f4 [128, 128, 3]
0	0xbc88c661	-0.016696157
1	0x3dbb9584	0.09159377
2	0x3ce383fe	0.0277729
3	0x3d8453c7	0.06461292
4	0x3da6a12a	0.08136208
5	0x3cd4ad3f	0.025961516
6	0xbcaf4b6f	-0.021398274
7	0xbde07c6a	-0.1096123
8	0xbdd9ddfe	-0.10638045
9	0x3df094b8	0.11747116
10	0x3ce799a3	0.028271502
11	0x3d851e01	0.064998634
12	0xbe25b3ad	-0.16181822
13	0xbcda0315	-0.026612798
14	0xbd64e74e	-0.05588465
15	0x3c107a7e	0.008818267
16	0xbd8c5447	-0.06852012
17	0xbbe41a51	-0.006961145
18	0xbd995063	-0.07486036
19	0xbe09ed39	-0.134694
20	0xbdd9c900	-0.10634041
21	0x3e51011e	0.20410582
22	0xbd48b8b4	-0.04900427
23	0xbd7ca739	-0.061682913
24	0xbe675e13	-0.2259448
25	0xbdb7892d	-0.08961711
26	0xbdbb2e1b	-0.09139653
27	0xbc899ba8	-0.016797855
28	0xbcef80bf	-0.029236196
29	0x3d79e0e9	0.061005507
30	0x3df095e7	0.117473416
31	0x3d8ad20d	0.06778345
32	0x3cba3df1	0.022734614
33	0xba416213	-0.000737698
34	0x3dd75ea1	0.10516096
35	0x3c707a6c	0.014677625
36	0x3e17fe86	0.14843187
37	0xbdecb27e	-0.11557482
38	0x3c47a8aa	0.012186209
39	0xbe0ad2da	-0.13556996
40	0x3c8fb0f5	0.017540434
41	0x3dcd7b99	0.1003334
42	0x3d7d9365	0.061908145
43	0x3dc7bc3d	0.097527005
44	0x3d46b572	0.048512883
45	0xbdbb595d	-0.09147904
46	0x3e038ec7	0.12847434
47	0x3d9ee04c	0.07757625
48	0x3d79467d	0.06085824
49	0x3e2576f0	0.16158652
50	0x3dabfeb9	0.08398194
51	0xbc3dba0f	-0.011580004
52	0x3dc7071b	0.09718152
53	0x3d447bd4	0.047969654
54	0xbd10c4ab	-0.035343807
55	0xbc83891d	-0.016056592
56	0x39e4167c	0.000435043
57	0xbd458293	-0.04822023
58	0xbc915a79	-0.017743336
59	0x3d6b3246	0.05742099
60	0xbd1201a9	-0.035646114
61	0xbb85f7e4	-0.0040883888
62	0xbcc51b10	-0.024060756
63	0x3d0f2dd8	0.03495583
64	0x3e66a819	0.22525062
65	0x3d8ce2de	0.06879209
66	0x3cd467a5	0.025928328
67	0x3d8f2df0	0.06991184
68	0x3d85ec06	0.065391585
69	0xbda1b6b0	-0.07896173
70	0xbd10bab2	-0.035334297
71	0xbcf2eb3b	-0.029653182
72	0xbd30047b	-0.042973023
73	0x3e409e81	0.18810464
74	0x3c4a723a	0.012356335
75	0x3dde1ff5	0.10845939
76	0x3dc52f64	0.0962818
77	0x3daa9c3f	0.08330583
78	0xbcfb2032	-0.030655
79	0xbbcae60e	-0.0061919754
80	0xbc26c2ad	-0.01017825
81	0x3cb3768e	0.021907117
82	0x3dadd63e	0.08488129
83	0xbd111950	-0.03542453
84	0xbd1c9b35	-0.038233954
85	0xbd69058c	-0.056890056
86	0xbddd8114	-0.10815635
87	0xbe17b687	-0.14815722
88	0xbe320ea2	-0.17388394
89	0xbe52c2c2	-0.20582107
90	0x3cea6155	0.028610865
91	0xbdbf5523	-0.093424104
92	0xbdc18772	-0.09449662
93	0xbbfa4c59	-0.007638496
94	0x3dae2cdf	0.08504652
95	0xbd9cf211	-0.07663358
96	0xbe25f58a	-0.16206947
97	0x3d6c6125	0.05770983
98	0xbc51d803	-0.012807849
99	0x3dcb3955	0.099230446
100	0x3daac8e8	0.08339101
101	0x3d97095a	0.073748305
102	0x3dbcff59	0.09228391
103	0xbcc721f3	-0.02430818
104	0x3d5645d5	0.05231269
105	0x3d059fa4	0.03262295
106	0x3d9bbcd6	0.07604377
107	0x3ce00de9	0.027350383
108	0x3ddb50fd	0.10708807
109	0xba9ab95b	-0.0011804508
110	0x3e1cbefe	0.15307233
111	0xbd514f9c	-0.051101312
112	0x3df4127c	0.11917588
113	0x3d56311f	0.05229294
114	0x3d4ab7ca	0.04949168
115	0x3e143b76	0.14475808
116	0x3dc9e30b	0.09857758
117	0x3e0a8cc9	0.13530268
118	0x3cb9b23b	0.022667995
119	0xbd8c1cc8	-0.06841427
120	0xbd5ad788	-0.053428203
121	0xbd804756	-0.06263606
122	0xbcc311fd	-0.023812288
123	0xbcdd8dfa	-0.027045239
124	0x3b5550ff	0.0032549498
125	0xbd4c58be	-0.04988932
126	0x3cd4c803	0.02597428
127	0x3d16bfcb	0.036804
128	0xbd822774	-0.06355181
129	0x3d8564a9	0.0651334
130	0x3c4abbc9	0.012373873
131	0xbcd2a55b	-0.025713613
132	0xbc067a08	-0.008207805
133	0x3dc68958	0.09694165
134	0x3df4a982	0.119463935
135	0xbdf793dc	-0.12088749
136	0x3c529bfa	0.0128545705
137	0x3e03baa3	0.12864165
138	0xbdbb5c7e	-0.09148501
139	0x3e0e375f	0.1388831
140	0x3d1eacfc	0.03873919
141	0xbe1b3a7d	-0.1515903
142	0x3cc41e02	0.02394009
143	0x3d0455b0	0.03230828
144	0x3d88a512	0.0667211
145	0x3df20b69	0.118185826
146	0x3d03dc8e	0.03219276
147	0x3df55293	0.119786404
148	0xbcc548b7	-0.024082525
149	0x3e002fae	0.12518188
150	0xbd8b129b	-0.06790658
151	0x3dc768be	0.09736775
152	0x3da24d04	0.07924846
153	0xbe093d0a	-0.13402191
154	0xbd546e28	-0.051862866
155	0x3d8bb575	0.068217196
156	0xbda80141	-0.08203364
157	0x3e0c092d	0.13675375
158	0x3da7d607	0.08195119
159	0x3c804839	0.015659438
160	0xbce98694	-0.028506555
161	0xbd0e155d	-0.034688342
162	0xbe3b9d52	-0.18321732
163	0xbd83b71f	-0.06431412
164	0xbd5eb81f	-0.05437481
165	0x3d209c29	0.039211426
166	0x3e611027	0.21978818
167	0x3e2f37bd	0.17111106
168	0xbdd3621f	-0.103214495
169	0x3d4aa3e2	0.049472697
170	0x3c8d641d	0.017259652
171	0xbe51592d	-0.20444174
172	0x3e3b731f	0.18305634
173	0x3d8f3d86	0.069941565
174	0xbba446f8	-0.005013343
175	0x3dc6575f	0.096846335
176	0xbc46e231	-0.012138889
177	0x3db969ab	0.09053358
178	0x3c0747c3	0.008256855
179	0x3cef04f7	0.029177172
180	0x3da5e3c8	0.081000865
181	0xbc7a8afb	-0.015291925
182	0xbd270462	-0.040775664
183	0x3d6f3c21	0.058406953
184	0xbdf7cc65	-0.12099532
185	0xbe0156df	-0.12630795
186	0xbd6388c6	-0.05555036
187	0x3d9067ac	0.07051024
188	0x3dc832a0	0.09775281
189	0x3d1973c3	0.037463915
190	0xbd3fea37	-0.046854224
191	0x3be3e5a5	0.006954866
192	0xbdb2bbff	-0.08727264
193	0xbcd6cb9f	-0.026220141
194	0x3d0f0ad5	0.03492244
195	0xbdf8fa07	-0.12157064
196	0xbd350625	-0.044195313
197	0xbc022d8d	-0.00794543
198	0x3d0e596d	0.03475325
199	0x3c909fec	0.017654382
200	0x3d90705a	0.07052679
201	0xbd870603	-0.065929435
202	0x3d98927e	0.07449816
203	0x3e292b5e	0.1652045
204	0x3d9683bd	0.07349346
205	0x3e28d830	0.16488719
206	0x3d8f11ca	0.06985815
207	0xbe3575e7	-0.17720757
208	0x3d0c64ef	0.034275945
209	0x3ba8301b	0.0051326877
210	0x3d87ef2c	0.06637415
211	0x3dff4932	0.12465133
212	0x3d88c931	0.06678999
213	0xbe14d516	-0.14534411
214	0x3da54946	0.080706164
215	0x3ceda7e1	0.029010715
216	0x3d90a203	0.07062151
217	0x3d91c50d	0.071176626
218	0x3b0ad040	0.0021181256
219	0xbd998214	-0.074955136
220	0x3d2b60d4	0.04184039
221	0xbd407e52	-0.04699547
222	0xbe565b91	-0.20933367
223	0x3ae7ba83	0.0017679486
224	0xbcce6387	-0.025193943
225	0xbc06e722	-0.008233817
226	0x3d90e83d	0.07075546
227	0x3cd1e82e	0.025623407
228	0xbd0b9633	-0.034078788
229	0xbda602f7	-0.08106034
230	0x3d4f269b	0.050573926
231	0xbdb061cf	-0.086124055
232	0x3da16b7a	0.07881828
233	0x3c0ca436	0.008584073
234	0x3d17bd9c	0.03704606
235	0x3c692f6a	0.014232496
236	0xbc9ea806	-0.01936723
237	0x3bfbbfb9	0.007682767
238	0xbd74ab13	-0.05973346
239	0xbcbae6cd	-0.022815133
240	0x3aea95e9	0.001789746
241	0xbdd8c00e	-0.105835065
242	0xbd103c77	-0.035213914
243	0xbe2d01d7	-0.16895233
244	0x3dbbd587	0.091715865
245	0x3d1aab76	0.037761174
246	0xbc98c3a9	-0.018647986
247	0x3d4d5a8a	0.050135173
248	0xbd038d3c	-0.032117113
249	0x3dc8bb65	0.09801368
250	0x3c373fbc	0.011184629
251	0x3dd7d328	0.10538322
252	0x3ca1d84e	0.019756462
253	0xbd22ced1	-0.039748017
254	0xbb39aa64	-0.002833032
255	0xbd5a5c49	-0.053310666

network.0.net.4.bias f4 [128]
0	0xbd5d8d9d	-0.05409013
1	0xbd9a29ea	-0.07527526
2	0xbceb2469	-0.028703885
3	0xbd0ab8fd	-0.033867825
4	0x3d055e57	0.032560673
5	0xbe1ffacd	-0.15623017
6	0x3e03ffdd	0.12890573
7	0xbcd11a11	-0.025525125
8	0x3d4b374a	0.049613275
9	0xbd5afaa1	-0.053461675
10	0xbd5968f5	-0.05307861
11	0xbbf9b453	-0.0076203733
12	0xbc2fed52	-0.010737734
13	0xba8b8bcc	-0.0010646521
14	0x3cb989c7	0.022648705
15	0x3e0a9242	0.13532355
16	0xbc0f3561	-0.008740754
17	0x3e2a302e	0.16619942
18	0xbd338606	-0.043828987
19	0x3ce76493	0.0282462
20	0xbdbecf93	-0.093169354
21	0x3dc6614e	0.09686528
22	0x3d8f8f3b	0.07009741
23	0xbcf3d230	-0.029763311
24	0xbce7d532	-0.028299902
25	0x3e1b2647	0.1515132
26	0xbda420aa	-0.08014043
27	0x3dda8dcb	0.10671576
28	0xbcdb3084	-0.026756532
29	0x3dbad9dd	0.091235854
30	0xbda1019a	-0.078616336
31	0xbd23dcdf	-0.04000556
32	0x3b8f12c9	0.004366253
33	0xbdb3a79b	-0.087722026
34	0x3e21c01d	0.15795942
35	0xbd30094f	-0.042977627
36	0xbccf9547	-0.025339736
37	0x3db464cb	0.08808287
38	0x3da12744	0.078688174
39	0xbd08400c	-0.033264205
40	0xbb0f4c09	-0.002186539
41	0xbe2ac3cf	-0.16676258
42	0xbcae8e79	-0.02130817
43	0x3b4bd7c7	0.0031103955
44	0xbd654465	-0.05597343
45	0x3da220e3	0.07916429
46	0x3c5ae623	0.013360533
47	0xbcce4f91	-0.025184425
48	0x3dca6efc	0.0988445
49	0x3d1d2ce6	0.038372897
50	0x3d3e49bf	0.04645705
51	0xbbe301ca	-0.0069277035
52	0x3d893e87	0.06701379
53	0xbcc17b43	-0.023618346
54	0xbaf5e34d	-0.0018759758
55	0x3c10638f	0.008812799
56	0x3dd9fe56	0.10644214
57	0xbd8d035c	-0.068854064
58	0x3dfff7ab	0.12498411
59	0x3bab4735	0.0052269944
60	0xbdb3f336	-0.08786623
61	0xbdb666e9	-0.08906347
62	0xbdd073d8	-0.101783454
63	0x3da57f9c	0.0808098
64	0xbd42d70f	-0.047568377
65	0x3d48e941	0.049050573
66	0xbc12a106	-0.008949524
67	0xbdb1de71	-0.086850055
68	0xbd8964d0	-0.067086816
69	0x3d2bcf24	0.04194559
70	0xbe8117a8	-0.2521336
71	0xba6db617	-0.0009067966
72	0xbbdd1dcd	-0.0067479373
73	0xbd4ab74a	-0.049491204
74	0xbc2bb0e1	-0.010479183
75	0xbd0f875a	-0.03504119
76	0x3d40189b	0.046898466
77	0x3a5373af	0.00080662494
78	0xbd1a5c87	-0.037685897
79	0xbbe8c5b4	-0.007103646
80	0xbdb355c3	-0.08756592
81	0x3d7fea45	0.062479276
82	0x3d942e96	0.07235448
83	0xbd0a2052	-0.03372223
84	0x3a7d3a8d	0.0009659909
85	0xbdca5bfd	-0.098808266
86	0xbd6235af	-0.055226978
87	0xbd8f2e6a	-0.06991275
88	0x3d33809d	0.043823827
89	0xbd3be1c2	-0.045869596
90	0xbd6dc376	-0.058047734
91	0xbd844c81	-0.064599045
92	0xbcff7a89	-0.031186359
93	0xbbdbd9e1	-0.006709323
94	0xbd946875	-0.07246486
95	0xbda1b951	-0.078966744
96	0xbd7cce55	-0.06172021
97	0xbd07d92d	-0.0331661
98	0xbd4ef108	-0.050522834
99	0x3d9fcc7f	0.078026764
100	0xbc0a09e7	-0.008425212
101	0xbd81b66e	-0.06333624
102	0x3abbb434	0.0014320672
103	0x3d5bda31	0.05367488
104	0xbdee3894	-0.11631885
105	0x3cccef52	0.02501646
106	0x3da2e386	0.07953553
107	0x3d0bb5e0	0.034108996
108	0xbcb154ff	-0.021646975
109	0x3d1a8531	0.037724677
110	0xbb5639ed	-0.0032688335
111	0xbe05e41d	-0.130753
112	0x3d98aca8	0.074548066
113	0xbd28f86f	-0.04125255
114	0x3d9ffde6	0.07812099
115	0xbe23d9ff	-0.16001128
116	0xbda306d2	-0.07960285
117	0xbd5cbc01	-0.053890232
118	0x3d9f3f52	0.07775749
119	0xbb31dbbc	-0.0027139029
120	0xbdc44db7	-0.095851354
121	0xbda023aa	-0.078193024
122	0x3db3ed63	0.08785512
123	0xbd1ad800	-0.03780365
124	0xbdab5ac9	-0.08366925
125	0xbd7d1f46	-0.061797403
126	0xbdb8cd6e	-0.090235576
127	0x3d10245b	0.03519092

network.0.downsample.weight f4 [128, 150, 1]
0	0x3d8808b1	0.06642283
1	0x3e20b706	0.15694818
2	0x3df757b4	0.12077275
3	0xbb4f5e6a	-0.0031641969
4	0x3dda282d	0.10652194
5	0x3dec1b52	0.115286484
6	0x3cfc5b39	0.030805217
7	0x3bb935f9	0.005652186
8	0xbe672197	-0.22571407
9	0xbe143a31	-0.14475323
10	0x3d41f2f6	0.047350846
11	0xbc0b7e46	-0.008513993
12	0xbda51e22	-0.08062388
13	0xbe58ad8e	-0.21159956
14	0xbec8f6f9	-0.39250925
15	0x3d976830	0.07392919
16	0xbcbe766a	-0.023249824
17	0xbce80651	-0.028323324
18	0x3d3d7cf1	0.04626173
19	0xbcdb02cc	-0.026734732
20	0xbcf23752	-0.029567394
21	0xbddbe28a	-0.10736568
22	0xbdf44b54	-0.1192843
23	0xbe34d224	-0.17658287
24	0xbdd43c90	-0.10363114
25	0x3e166f8e	0.14690992
26	0x3e1a9ef2	0.15099695
27	0x3e2c1d53	0.16808061
28	0xbe1a8d1e	-0.15092894
29	0xbef38cc4	-0.47568333
30	0xbc724fcf	-0.014789536
31	0x3cc092c5	0.023507485
32	0x3cea536a	0.028604228
33	0x3c417aa2	0.011809023
34	0x3e01766c	0.1264283
35	0x3dca2d87	0.09871965
36	0x3da592f1	0.080846675
37	0xbd296a48	-0.041361123
38	0xbe75f50c	-0.24019259
39	0xbe6b8eef	-0.23003744
40	0x3deac736	0.11463778
41	0xbd6d6e38	-0.05796644
42	0xbe15872e	-0.14602348
43	0xbe6bdfe7	-0.2303463
44	0xbed5bf98	-0.41747737
45	0xbd211329	-0.039324913
46	0x3dd22214	0.10260406
47	0xbd3bb4d3	-0.045826744
48	0x3d443323	0.04790033
49	0x3d830121	0.063967
50	0x3d394dd9	0.045240257
51	0xbdc3288c	-0.09529218
52	0xbd9245d5	-0.07142226
53	0xbe8a7599	-0.27042845
54	0xbe4896ba	-0.19588748
55	0x3e7ce052	0.24694946
56	0x3e8a0bc7	0.2696211
57	0x3da0553e	0.07828759
58	0xbe57a5e3	-0.21059375
59	0xbee746a3	-0.4517108
60	0x3d69da6a	0.05709306
61	0x3d302bf4	0.043010667
62	0x3e0bcc00	0.13652039
63	0x3e172e12	0.14763668
64	0x3e5537fa	0.20822135
65	0x3de227ff	0.11042785
66	0x3dc8d836	0.09806864
67	0xbcfa948e	-0.030588415
68	0xbe8865af	-0.26640078
69	0xbe37c340	-0.17945576
70	0x3dcad9b6	0.09904806
71	0x3db76a19	0.089557834
72	0xbc9641d5	-0.018341938
73	0xbe4f477e	-0.20242116
74	0xbe9f55c3	-0.31120118
75	0x3d99d1fc	0.075107545
76	0x3cd76bbf	0.026296495
77	0xbca52d2b	-0.02016314
78	0xbc8572fa	-0.016290177
79	0x3dad7010	0.0846864
80	0x3ce71183	0.028206592
81	0xbe0d17d7	-0.13778625
82	0xbe633936	-0.22189793
83	0xbe156972	-0.14591005
84	0xbe5b82e9	-0.21436657
85	0x3e7d5de9	0.24742855
86	0x3e842438	0.25808883
87	0x3e343955	0.17599995
88	0xbdf6a5fa	-0.12043376
89	0xbec6facf	-0.38863227
90	0xba12942d	-0.0005591538
91	0x3cc040b7	0.023468358
92	0x3d309d4d	0.043118764
93	0x3e03a876	0.12857231
94	0x3dd086da	0.10181971
95	0x3e1046b2	0.14089468
96	0x3e2d57db	0.16928045
97	0x3cb7e854	0.02244965
98	0xbe31a5e5	-0.1734844
99	0xbe271c61	-0.1631942
100	0x3d13606b	0.035980623
101	0xbd2b3286	-0.04179623
102	0xbd048617	-0.03235444
103	0xbde377f8	-0.111068666
104	0xbe894fd5	-0.2681872
105	0xbca34027	-0.019928051
106	0xbc17800d	-0.009246838
107	0x3c4524b4	0.0120326765
108	0xbd54264d	-0.05179434
109	0x3e088cf4	0.1333502
110	0xbd59498c	-0.053048655
111	0xbd049454	-0.03236802
112	0xbe505269	-0.20343937
113	0xbe9e0581	-0.30863574
114	0xbe51fc76	-0.20506462
115	0x3e873d56	0.26413983
116	0x3e874285	0.26417938
117	0x3d6eb48a	0.058277644
118	0xbe1d52ba	-0.15363589
119	0xbee8f0f6	-0.4549634
120	0x3d92e65c	0.07172844
121	0x3e288b57	0.16459404
122	0x3e336c11	0.17521693
123	0x3e340873	0.17581348
124	0x3e892935	0.2678925
125	0x3dce1569	0.100626774
126	0xbb116574	-0.0022185715
127	0xbdd544ca	-0.10413511
128	0xbe4ea133	-0.2017868
129	0xbe4615c3	-0.19344239
130	0x3d89949a	0.067177966
131	0x3d6a23ca	0.057163037
132	0xbe32fce9	-0.1747929
133	0xbe7588d2	-0.23977974
134	0xbec3e96f	-0.38264033
135	0xbbaacb5b	-0.00521223
136	0x3ded45c0	0.115855694
137	0x3c6a9bcb	0.0143193705
138	0x3ca60773	0.020267224
139	0x395848e0	0.00020626513
140	0x3cab87e3	0.02093882
141	0xbdc81bbe	-0.097709164
142	0xbe726ae9	-0.23673595
143	0xbe86229c	-0.2619828
144	0xbe09fa84	-0.1347447
145	0x3d8721d3	0.06598248
146	0x3e677094	0.22601539
147	0x3d26bb2b	0.04070584
148	0xbe44dfd3	-0.19226007
149	0xbef6d06d	-0.4820589
150	0x3e8f647a	0.28006345
151	0x3ea6f9e8	0.32612538
152	0x3d363fbe	0.044494383
153	0xbd0fe493	-0.035130095
154	0xbd8b9673	-0.06815805
155	0xbdaa0828	-0.08302337
156	0xbd031f44	-0.03201224
157	0xbd365f55	-0.04452451
158	0xbd8885de	-0.06666158
159	0xbd88384b	-0.06651362
160	0xbe4127b5	-0.18862803
161	0xbded1fd8	-0.11578339
162	0x3df6b726	0.120466515
163	0x3dd41587	0.103556685
164	0x3cb356bd	0.021891946
165	0xbca2ecb6	-0.019888263
166	0xbe0d639b	-0.13807528
167	0xbe3dba5f	-0.18528126
168	0xbe5a1f7c	-0.21301073
169	0xbe27a911	-0.16373087
170	0xbe0d6393	-0.13807516
171	0xbe1be773	-0.1522501
172	0xbe3b9290	-0.18317628
173	0x3c0cb658	0.008588396
174	0xbdc62302	-0.09674646
175	0xbb3a59e6	-0.0028434931
176	0x3c0e1084	0.00867093
177	0x3e2a002b	0.16601627
178	0x3e3651d1	0.17804648
179	0xbcd21d72	-0.025648806
180	0x3ed1e284	0.4099313
181	0x3e789064	0.2427383
182	0x3e3290a0	0.17437983
183	0xbd21060a	-0.0393124
184	0x3d017d23	0.03161348
185	0x3d221ca2	0.039578088
186	0x3c21a3d7	0.009865723
187	0x3c2283d3	0.009919125
188	0x3d816cb7	0.06319564
189	0xbc0bed71	-0.008540497
190	0xbdb731a4	-0.08945015
191	0xbe529f3b	-0.20568554
192	0x3d3a22a3	0.04544319
193	0x3e5de68e	0.21669981
194	0x3e145c94	0.14488441
195	0xbdf8afce	-0.12142907
196	0xbdda0636	-0.10645716
197	0xbdd3a942	-0.10335018
198	0xbe87bb9b	-0.2651032
199	0xbdb1c25b	-0.086796485
200	0xbe2ef22a	-0.17084566
201	0xbd884848	-0.066544116
202	0xbe265459	-0.16243114
203	0xbdb1b431	-0.08676947
204	0x3cd66b4a	0.026174206
205	0xbcb977de	-0.022640165
206	0x3da51dba	0.080623105
207	0x3d2e8013	0.04260261
208	0x3e4c60c1	0.19958784
209	0x3dcee24c	0.101017565
210	0x3ed1dc61	0.40988448
211	0x3e88257e	0.26591104
212	0x3e058e60	0.13042593
213	0x3b97d101	0.0046330695
214	0xbd0df2f8	-0.03465554
215	0x3bb1d74b	0.0054272762
216	0x3d2d0bd1	0.042247597
217	0x3c4d77ef	0.012540801
218	0xbd4c1d83	-0.049832832
219	0xbc73640d	-0.014855397
220	0xbe0866ed	-0.13320513
221	0xbdc08a2b	-0.094013534
222	0x3da43217	0.080173664
223	0x3e58b5ae	0.21163055
224	0x3d835359	0.06412382
225	0xbd86de3b	-0.06585356
226	0xbcabd0be	-0.02097356
227	0xbe3b0d02	-0.18266681
228	0xbe7dd631	-0.24788739
229	0xbde91abc	-0.11382052
230	0xbe46caa3	-0.19413237
231	0xbe4ad5bf	-0.198081
232	0xbde17b92	-0.11009897
233	0xbe0b4be8	-0.13603175
234	0x3d28ff16	0.041258894
235	0x3d0f5d07	0.035000827
236	0xbd354252	-0.0442527
237	0x3db314df	0.08744215
238	0x3dea7ad0	0.11449206
239	0x3d953acd	0.07286606
240	0x3ec6a2d3	0.387961
241	0x3e595a2e	0.21225807
242	0x3e1b11b7	0.15143476
243	0x3cefc101	0.029266836
244	0x3d7f304a	0.06230191
245	0xbbcc9e93	-0.0062444895
246	0xbcdc8989	-0.02692105
247	0xbd4df21f	-0.050279733
248	0x3d84986d	0.064743854
249	0x3d76d8dd	0.06026541
250	0xbde8e044	-0.113709
251	0xbdbb9d1a	-0.09160824
252	0x3dd524cd	0.1040741
253	0x3e3ef162	0.18646768
254	0x3e262e78	0.16228664
255	0x3b0e924e	0.0021754685

network.0.downsample.bias f4 [128]
0	0x3ef6d751	0.48211148
1	0xbaa24caa	-0.0012382467
2	0x3a121137	0.0005572023
3	0xbdedfc31	-0.11620367
4	0x3e843e6f	0.25828883
5	0xbe67f110	-0.22650552
6	0x3ebe8601	0.37211612
7	0xbec5499d	-0.38532725
8	0x3d47dad2	0.048792668
9	0xbe90b05f	-0.2825956
10	0x3e59bc0f	0.21263145
11	0x3ddf9896	0.10917775
12	0x3d0531f1	0.03251833
13	0xbd2e976f	-0.042624887
14	0x3eafe309	0.34352902
15	0x3e7ae947	0.2450305
16	0x3cc45d8b	0.023970386
17	0x3e46e625	0.1942373
18	0xbba2bd95	-0.0049664476
19	0x3e5e2a0d	0.21695729
20	0xbeccf613	-0.4003149
21	0x3e31a92e	0.17349693
22	0x3e7c989a	0.24667588
23	0x3ce78910	0.028263599
24	0x3eece27b	0.4626654
25	0x3e422021	0.18957569
26	0xbd427e82	-0.04748393
27	0x3ea0713f	0.313364
28	0x3e3dc490	0.18532014
29	0xbd2653bb	-0.040607195
30	0xbe26409a	-0.16235581
31	0xbcfd3976	-0.030911189
32	0x3e713563	0.23555522
33	0xbeb62192	-0.35572487
34	0x3e463c8a	0.19359031
35	0xbd9d61a1	-0.07684637
36	0xbe81a32f	-0.25319812
37	0xbcfab72f	-0.030604927
38	0x3e069638	0.13143241
39	0x3ddc677a	0.10761924
40	0xbd84593d	-0.06462333
41	0xbd65977c	-0.05605267
42	0xbcc1594c	-0.02360215
43	0xbe479cc8	-0.19493401
44	0xbc4649aa	-0.012102524
45	0x3ca15fdc	0.01969903
46	0x3e25b42b	0.1618201
47	0xbe188fd8	-0.14898622
48	0x3e2c2baf	0.16813539
49	0x3f6b5e0c	0.9194038
50	0x3b905bf0	0.004405491
51	0x3a2c8f35	0.0006582619
52	0x3f26e785	0.6519702
53	0xbe425cf1	-0.18980767
54	0x3e20a310	0.15687203
55	0x3e1ddbe3	0.15415911
56	0x3e659d8d	0.22423382
57	0x3dc7d458	0.09757298
58	0x3e70acf6	0.2350348
59	0x3f0563b2	0.5210525
60	0x3da3d678	0.07999891
61	0xbe22a36a	-0.1588265
62	0xbe07d5b9	-0.13265122
63	0xbd933828	-0.07188445
64	0xbeb0d9bb	-0.34541115
65	0x3d0018b3	0.031273555
66	0x3e7ba2c6	0.24573812
67	0xbe3f4679	-0.18679227
68	0x3c541b71	0.012945996
69	0xbdb92d3c	-0.09041831
70	0xbea40aae	-0.32039398
71	0xbe8e87b0	-0.27837896
72	0x3d8eb428	0.06967956
73	0xbde07ff9	-0.10961909
74	0x3e1d1b34	0.15342408
75	0x3de5ac2d	0.112144805
76	0xbc4fd048	-0.012683935
77	0xbd68265a	-0.0566772
78	0x3d757245	0.05992343
79	0x3de5ec25	0.112266816
80	0xbe148acd	-0.14506073
81	0x3db180be	0.08667134
82	0x3ef4c3f0	0.47805738
83	0x3e48b378	0.19599712
84	0x3e191e34	0.14952928
85	0xbd4c75fb	-0.049917202
86	0xbdf36d19	-0.11886043
87	0xbde5e2ac	-0.11224875
88	0x3b93a3eb	0.0045056245
89	0xbe58ca16	-0.2117084
90	0xbda0b374	-0.07846728
91	0xbc447092	-0.0119897295
92	0xbd24db31	-0.0402481
93	0x3e0130a1	0.12616207
94	0xbe6700aa	-0.22558847
95	0xbd321f2a	-0.04348675
96	0x3f058ce6	0.5216812
97	0x3d817f46	0.063231036
98	0x3c712b4b	0.0147197945
99	0x3d83349d	0.064065196
100	0x3e99e3ca	0.30056602
101	0xbea6ddd1	-0.32591107
102	0xbe7bc528	-0.24586928
103	0x3e0d759e	0.13814399
104	0xbd7facdf	-0.062420722
105	0x3e770bdb	0.24125616
106	0xbdf53c5e	-0.11974405
107	0x3e4de160	0.20105505
108	0xbe4d9166	-0.20074996
109	0x3e0a9050	0.13531613
110	0x3e594624	0.21218163
111	0xbe20c355	-0.15699513
112	0x3eb40edc	0.35167587
113	0x3dd3d82e	0.103439674
114	0xbebeb743	-0.37249193
115	0x3e4f3b75	0.20237525
116	0xbec2acf0	-0.38022566
117	0x3f43d4e9	0.7649675
118	0x3e96034f	0.292994
119	0xbcbc97a0	-0.02302152
120	0xbe0aa46d	-0.13539286
121	0xbcd52cf3	-0.02602241
122	0x3e603aaa	0.21897379
123	0xbe14538a	-0.14484993
124	0xbd5e9e7b	-0.054350358
125	0xbe995fd2	-0.29955918
126	0xbd85705b	-0.06515571
127	0xbe123bf3	-0.14280681

network.1.net.0.weight f4 [128, 128, 3]
0	0xbe3afabd	-0.18259712
1	0x3d74f89f	0.059807416
2	0x3df31083	0.11868384
3	0x3dd3a09d	0.10333369
4	0x3cf74ee2	0.030188981
5	0x3d03f662	0.03221739
6	0xbadbce18	-0.0016769795
7	0xbdeba0a9	-0.11505253
8	0x3dffcc30	0.124901175
9	0x3d1b5c82	0.03793002
10	0xbb811461	-0.003939197
11	0xbc9a3093	-0.01882199
12	0x3d0c5e9d	0.034269918
13	0x3d6f5f59	0.05844054
14	0x3e1b570a	0.15169922
15	0x3d15191e	0.036400907
16	0x3dc9cf7c	0.09854028
17	0xbd894694	-0.06702915
18	0x3d65464c	0.055975243
19	0x3e078023	0.13232474
20	0xbc0d4ebf	-0.008624732
21	0xbb0af04b	-0.0021200355
22	0xbcb5aa0f	-0.022175817
23	0xbdf7e776	-0.121046945
24	0x3b813b12	0.0039438093
25	0x3d22998b	0.03969721
26	0x3dd9f8b6	0.10643141
27	0xbd9c8579	-0.076426454
28	0xbda9db97	-0.082938366
29	0x3ccd8f44	0.025092728
30	0x3dac7e86	0.0842257
31	0xbc7caf4b	-0.0154226525
32	0xbd9ad8fd	-0.075609185
33	0xbe0f83af	-0.14015077
34	0xbd9f1e35	-0.077694334
35	0xbd4d81a5	-0.050172467
36	0xbdbca6fe	-0.09211539
37	0x3e13d142	0.14435294
38	0xbb77b281	-0.0037795606
39	0xbde34966	-0.11097984
40	0xbdd54496	-0.10413472
41	0x3d2100f8	0.039307564
42	0xbe07d47a	-0.13264647
43	0x3d9dd327	0.0770629
44	0x3df153ac	0.11783537
45	0x3cfbe74c	0.03074994
46	0x3d6170ca	0.055039205
47	0xbc080f8b	-0.008304487
48	0xbd44529d	-0.04793035
49	0x3bc553ed	0.0060219676
50	0xbb9ecfd2	-0.0048465515
51	0xbdbfdbec	-0.09368119
52	0xbdeeb724	-0.11656025
53	0x3a08b686	0.00052151864
54	0x3d80d97f	0.06291484
55	0xbc7b5d35	-0.0153420465
56	0xbd8f6b86	-0.0700293
57	0xbdc04180	-0.09387493
58	0xbcfcf438	-0.030878171
59	0xbd211908	-0.039330512
60	0xbbd9ecd5	-0.006650547
61	0xbda51633	-0.08060875
62	0xbe3729c2	-0.17887023
63	0xbd59fcd6	-0.05321964
64	0x3d342127	0.04397693
65	0xbce7d0f4	-0.028297879
66	0xbce94ae9	-0.028478103
67	0xbb184070	-0.0023231767
68	0xbdb8d472	-0.09024896
69	0x3da89750	0.082319856
70	0xbd7840c9	-0.06060866
71	0xbd3bd545	-0.045857687
72	0xbd32345f	-0.043506976
73	0xbda43d42	-0.080194965
74	0x3dd25c81	0.1027155
75	0xbc2f4dfe	-0.010699747
76	0xbe0cc004	-0.13745123
77	0xbd2abb0c	-0.041682288
78	0xbdd039ab	-0.10167249
79	0x3c9fdf60	0.019515693
80	0x3da7ccd0	0.08193362
81	0x3e10617d	0.14099689
82	0xbd3e8a0b	-0.046518367
83	0x3c89ec07	0.01683618
84	0xbcdccbde	-0.02695268
85	0xbb9dd7ca	-0.004816984
86	0x3d5c89e0	0.053842425
87	0xbe05475c	-0.13015503
88	0xbd11544e	-0.03548079
89	0x3d984a93	0.07436099
90	0x3cf8c357	0.030366583
91	0x3ba79daf	0.005115233
92	0xbb90fb08	-0.0044244565
93	0xbd4f2538	-0.050572604
94	0xbd2f7ebf	-0.042845484
95	0x3df3b259	0.118992515
96	0xbe58c4d3	-0.21168832
97	0x3c6420ab	0.013923804
98	0x3dd00ae5	0.10158328
99	0xbd9d11af	-0.076693885
100	0xbe44f6af	-0.19234727
101	0xbd92226f	-0.07135474
102	0xbcb98b18	-0.022649333
103	0x3d598ae0	0.053110957
104	0x3de684e1	0.112558134
105	0xbe19eaf2	-0.15031031
106	0xbe198d72	-0.14995363
107	0xbe2c731b	-0.16840784
108	0xbe1b90df	-0.15191983
109	0xbde66a58	-0.11250752
110	0xbd5d26f6	-0.053992234
111	0xbdc962fc	-0.09833333
112	0x3db2446b	0.08704456
113	0x3d83002f	0.063965194
114	0xbc8214ed	-0.015879119
115	0x3d76b2a8	0.060228974
116	0x3d5d3220	0.05400288
117	0x3d5aef48	0.053450853
118	0xbb2a6b77	-0.0026003995
119	0x3d230743	0.039801847
120	0x3d7c3ead	0.06158321
121	0x3cac64d3	0.02104417
122	0xbd74ddce	-0.059781842
123	0xbe54ca83	-0.20780377
124	0xbd5aa8e0	-0.053383708
125	0x3dcfd362	0.1014774
126	0xbd2cc959	-0.042184208
127	0xbca41c9a	-0.02003317
128	0x3e0e6e28	0.13909209
129	0xbcc95e25	-0.024581024
130	0xbd6aa6dd	-0.05728804
131	0x3d2e4b94	0.042552546
132	0xbda3734b	-0.07980975
133	0x3d814591	0.06312097
134	0x3dc91942	0.09819271
135	0xbd2d0d2a	-0.042248882
136	0xbd8dc50e	-0.06922351
137	0x3dadc3bf	0.08484601
138	0xbd4e6697	-0.050390806
139	0x3dab345f	0.08359598
140	0x3dee9c56	0.116509125
141	0x3bcaad22	0.00618519
142	0x3c644f9e	0.013934998
143	0xbbe7f8b8	-0.00707921
144	0x3d80bdc6	0.062861964
145	0xbdae5524	-0.08512333
146	0xbe2982d8	-0.16553819
147	0xbde5bd24	-0.11217716
148	0x3e57f156	0.21088156
149	0x3e072068	0.13195956
150	0x3dd68af8	0.10475725
151	0xbc28ad52	-0.010295229
152	0x3d3a890f	0.045540866
153	0xbcba8936	-0.022770505
154	0x3b53cdbf	0.003231868
155	0x3dbcb7a9	0.09214718
156	0x3c8d7a69	0.017270284
157	0xbe0de79f	-0.13857888
158	0xbcb87851	-0.022518309
159	0xbdff2d6b	-0.12459835
160	0xbd81d2cd	-0.06339035
161	0x3ca69c83	0.020338302
162	0x3d9a8737	0.075453214
163	0xbda2e44b	-0.079537
164	0x3db886ac	0.090100616
165	0xbd87f410	-0.06638348
166	0x3daa55c9	0.083171435
167	0x3de38e37	0.1111111
168	0xbc064373	-0.008194792
169	0xbe1f4763	-0.15554576
170	0x3d6fe352	0.0585664
171	0xbe46ce0e	-0.19414541
172	0xbbd89aa0	-0.0066102296
173	0xbcbe024d	-0.023194456
174	0xbd2a01d1	-0.04150564
175	0x3dca86fa	0.09889026
176	0x3da73893	0.081650876
177	0xbd4262a7	-0.047457363
178	0xbd4ffe7f	-0.050779816
179	0x3d8dffb4	0.06933537
180	0x3de3fe7d	0.11132524
181	0x3ce3c781	0.027805092
182	0x3c10860c	0.008821022
183	0xbdd98a12	-0.10622038
184	0xbde25493	-0.110512875
185	0x3d470dfe	0.04859733
186	0xbdcb96bf	-0.09940862
187	0x3c1584e7	0.009125925
188	0x3c5af52f	0.01336412
189	0xbcad5690	-0.02115944
190	0xbc81b725	-0.0158344
191	0xbc60c484	-0.013718728
192	0x3d2d0ba6	0.042247437
193	0xbc253338	-0.010083012
194	0xbce2f26f	-0.027703492
195	0xbdde05bd	-0.10840938
196	0xbd383edb	-0.04498182
197	0x3cb3e8e4	0.021961637
198	0xbc8d4edd	-0.017249519
199	0x3d930419	0.07178516
200	0x3e218e74	0.15776998
201	0xbcf1c166	-0.029511165
202	0xbd87173d	-0.06596229
203	0xbd5f18be	-0.054466955
204	0xbdfca02f	-0.1233524
205	0x3d3d449a	0.046208
206	0x3daec0f1	0.085328944
207	0xbc9ceb6f	-0.019155232
208	0xbe16f52e	-0.14741966
209	0xbd5c2446	-0.05374553
210	0x3d97413d	0.0738549
211	0xbdb4fb23	-0.08836963
212	0xbe32c461	-0.17457725
213	0xbd3b3fe6	-0.045715235
214	0xbd8c817e	-0.06860636
215	0xbdd301df	-0.10303091
216	0xbda06438	-0.07831615
217	0x3d7347c2	0.059394605
218	0x3e11bb91	0.14231707
219	0x3d49d944	0.049279466
220	0xbd521d66	-0.051297568
221	0x3c65cc33	0.014025736
222	0xbdbb077b	-0.09132286
223	0x3d547ebb	0.051878672
224	0x3d88feff	0.06689262
225	0xbe1836a5	-0.14864595
226	0x3d233791	0.039847914
227	0xbd37d9d1	-0.04488546
228	0x3e01bc73	0.12669544
229	0x3c835d8b	0.016035816
230	0xbcc38be2	-0.023870412
231	0x3cade555	0.021227518
232	0xbd476b78	-0.048686475
233	0x3c414fd0	0.011798814
234	0xbd026682	-0.03183604
235	0x3ca7fde2	0.020506803
236	0x3c24a76d	0.010049683
237	0x3d330e22	0.04371465
238	0x3cf9375e	0.030421909
239	0xbc87c008	-0.01657106
240	0xbd883bb0	-0.066520095
241	0xbe15b313	-0.14619093
242	0xbd1a3c7d	-0.037655342
243	0x3ceaf5ea	0.028681714
244	0xbbec4710	-0.0072106197
245	0x3bd771a1	0.006574825
246	0x3d4a2c70	0.049358785
247	0xbd1fa9c8	-0.038980275
248	0xbda7a691	-0.08186067
249	0xbb90a844	-0.00441459
250	0xbd6a0c99	-0.05714092
251	0xbc83e88e	-0.016102102
252	0x3b7e0dd7	0.0038765573
253	0xbda58862	-0.080826536
254	0x3ddd31a1	0.108004816
255	0xbb01fa33	-0.0019832968

network.1.net.0.bias f4 [128]
0	0x3de3c71b	0.11121961
1	0xbc4258f5	-0.011862029
2	0x3e09aba5	0.13444383
3	0x3db4230e	0.08795749
4	0xbd7fde8d	-0.0624681
5	0xbd5332cd	-0.05156212
6	0xbdae2194	-0.08502498
7	0xbc707b54	-0.014677841
8	0x3d901db4	0.070369154
9	0xbd81b94c	-0.06334171
10	0xbc0781fc	-0.008270737
11	0xbcd0675d	-0.025439912
12	0xbd239d56	-0.03994497
13	0x3d0116b1	0.03151578
14	0x3d5c2db2	0.053754516
15	0xbca1099a	-0.019657899
16	0x3d1d91e1	0.0384692
17	0x3deb020e	0.11475001
18	0xbd291ab7	-0.041285243
19	0xbd2bb6c0	-0.04192233
20	0x3c254ad0	0.0100886375
21	0x3b858cd4	0.004075626
22	0xbb52f639	-0.0032190217
23	0xbdb33850	-0.08750975
24	0x3c4c750c	0.012479078
25	0xbcd2c662	-0.025729362
26	0x3d7cb060	0.06169164
27	0xbdc4a910	-0.096025586
28	0x3dac96ab	0.08427175
29	0x3d6b4c32	0.057445712
30	0xbde89361	-0.11356235
31	0x3dd2688a	0.102738455
32	0xbde01b4d	-0.10942707
33	0x3d74dc87	0.059780624
34	0xbce902a1	-0.028443636
35	0x3cc530a1	0.02407104
36	0xbcb0d6d1	-0.021586807
37	0x3c71c1cb	0.0147556765
38	0x3dc7ce8e	0.09756194
39	0xbd5d3980	-0.054009914
40	0x3c7a67de	0.015283553
41	0x3d8e9581	0.06962109
42	0x3d61c7ec	0.0551223
43	0xbe1bf600	-0.1523056
44	0x3ce62abb	0.028096547
45	0xbc9e8e66	-0.01935501
46	0x3c6edfd7	0.014579735
47	0xbbf580e2	-0.0074921707
48	0xbccdfb4e	-0.025144245
49	0x3cbacb38	0.02280198
50	0x3d31eecf	0.043440636
51	0x3df9e57f	0.12201976
52	0x3e0a68a0	0.13516474
53	0x3d82e914	0.063921124
54	0x3e29333e	0.16523454
55	0xbd979d27	-0.07403021
56	0x3c3d0d48	0.011538811
57	0xbcdde62e	-0.027087297
58	0x3d51cdc9	0.051221643
59	0x3dba6013	0.09100356
60	0xbd42a76d	-0.04752295
61	0xbd1b2b12	-0.037882872
62	0x3cc1e347	0.023667945
63	0xbcd8bbc6	-0.026456725
64	0x3d21da64	0.039514914
65	0xbbba4e6c	-0.005685618
66	0xbde069f6	-0.109577104
67	0x3c37a38c	0.011208426
68	0xbdc13a70	-0.09434974
69	0x3d8d654f	0.06904089
70	0x3cc89681	0.024485828
71	0xbbd00071	-0.006347709
72	0x3cd350b0	0.02579531
73	0xbd12f1c5	-0.0358751
74	0x3d57fead	0.052733112
75	0x3da23447	0.07920127
76	0xbc2206fe	-0.009889362
77	0x3d99c419	0.07508106
78	0x3da08746	0.07838301
79	0x3d78c436	0.060733996
80	0x3dcbc0cb	0.09948882
81	0xbd026285	-0.031832237
82	0x3cabcdf3	0.020972228
83	0xbdb5fa35	-0.08885614
84	0x3c196b35	0.009363939
85	0xbdb88ff2	-0.090118304
86	0x3d0d1203	0.034441005
87	0xbd061e00	-0.032743454
88	0x3d9b7cac	0.07592139
89	0x3d70f4df	0.058827277
90	0xbaf88423	-0.0018960278
91	0xbcb84717	-0.022494836
92	0xbdaf629b	-0.085637294
93	0x3dfdebfc	0.12398526
94	0x3db37171	0.087618716
95	0x3d4a0d2f	0.04932898
96	0xbd411b28	-0.04714504
97	0xbc0c2cf9	-0.008555644
98	0xbd8c09da	-0.068378165
99	0x3c53c23b	0.012924726
100	0x3c600a21	0.01367429
101	0xbcb3d4d6	-0.021952074
102	0xbbfbe681	-0.0076873903
103	0x3d86d217	0.0658304
104	0xbd987d47	-0.0744577
105	0xbce75ff5	-0.028243998
106	0xbddf7206	-0.1091042
107	0xbdd5c8bc	-0.10438678
108	0xbd9c9fa5	-0.07647637
109	0xbcf0eb31	-0.029409023
110	0x3b4e746e	0.0031502503
111	0x3c99b136	0.018761259
112	0x3d828070	0.06372154
113	0x3cbd63cf	0.023118882
114	0xbc72763e	-0.014798699
115	0xbdc3ba05	-0.09556965
116	0x3d69bc6e	0.057064466
117	0xbe104af2	-0.1409109
118	0x3d9467d8	0.07246369
119	0x3d983779	0.074324556
120	0x3d71db3b	0.059046965
121	0xbd20d844	-0.039268747
122	0x3c400b55	0.011721452
123	0x3da31702	0.07963373
124	0x3bb1e946	0.0054294197
125	0x3c9a36f8	0.01882504
126	0xbbb3796d	-0.0054771216
127	0x3d23fe4d	0.040037442

network.1.net.4.weight f4 [128, 128, 3]
0	0x3c99d274	0.01877711
1	0xbabca6ad	-0.0014392935
2	0xbe40ecbd	-0.18840308
3	0xbd161150	-0.036637604
4	0x3df38952	0.11891426
5	0xbd8abcab	-0.06774267
6	0xbd290d0e	-0.041272216
7	0xbd9139a4	-0.07091072
8	0x3ca81026	0.020515513
9	0x3db2aebe	0.08724736
10	0x3c6c3c0c	0.014418613
11	0xbd983427	-0.07431822
12	0x3cdad716	0.02671389
13	0x3cc7e95d	0.024403268
14	0x3dceba7c	0.10094163
15	0x3cf2d4bc	0.029642455
16	0x3d25a84b	0.0404437
17	0x3ce9aee5	0.028525779
18	0xbd2435f2	-0.04009051
19	0x3cb95f76	0.022628527
20	0xbc581614	-0.013188858
21	0x3d16dee5	0.036833663
22	0xbc6ad85b	-0.01433381
23	0x3d8c1eae	0.06841789
24	0xbc85efcd	-0.016349697
25	0x3bc3c59f	0.005974486
26	0xbde7411f	-0.11291718
27	0xbd9fe7a5	-0.078078546
28	0xbb222569	-0.0024741536
29	0xbd24e8bd	-0.04026102
30	0xbab2d474	-0.0013643638
31	0x3a053058	0.0005080751
32	0x3d0c920d	0.034318972
33	0xbb99fb98	-0.0046991818
34	0x3d0a24c8	0.033726484
35	0xbd7145da	-0.058904506
36	0x3d152be7	0.03641882
37	0xbca1de46	-0.019759309
38	0x3d1f47d6	0.038886867
39	0xbe01f0aa	-0.12689462
40	0xbcca21cf	-0.024674324
41	0xbe079dd6	-0.13243803
42	0xbda54d32	-0.080713645
43	0xbc202130	-0.0097735375
44	0x3bb92c18	0.0056510083
45	0xbe34d363	-0.17658763
46	0xbd8a1131	-0.0674156
47	0xbe1fb131	-0.15594937
48	0x3da0c155	0.07849375
49	0xbda691d2	-0.08133282
50	0xbe38febf	-0.18065928
51	0xbd88c0d3	-0.06677403
52	0xbdd54993	-0.10414424
53	0xbd8b1f98	-0.067931354
54	0x3d572a6d	0.052530695
55	0x3c68d3fd	0.014210698
56	0xbd392c3a	-0.045208193
57	0xbd153653	-0.03642876
58	0xbccbc60b	-0.024874708
59	0x3d787a99	0.060663793
60	0x3b6d81b7	0.0036240646
61	0xbc70f42a	-0.014706651
62	0xbcfe3109	-0.031029241
63	0xbc87e05d	-0.016586477
64	0xbdf35be3	-0.118827604
65	0xbdbcb523	-0.092142366
66	0xbdc425ff	-0.0957756
67	0xbd1bc91e	-0.038033597
68	0xbd38f218	-0.045152754
69	0x3afea85b	0.0019428836
70	0xbb8131cb	-0.0039427034
71	0xbd5371d4	-0.051622227
72	0x3dec65e5	0.11542872
73	0xbb260a33	-0.002533567
74	0x3b61ee2a	0.0034474232
75	0xbde336cd	-0.11094437
76	0xbc158ff5	-0.00912856
77	0xbe16d341	-0.14729024
78	0xbe2b0f05	-0.16704948
79	0x3c820385	0.015870819
80	0x3d3c60a0	0.045990586
81	0x3c839b44	0.016065247
82	0x3d7b2b3a	0.06132052
83	0x3e383204	0.1798783
84	0x3d595c9c	0.053066835
85	0x3d8cadb7	0.06869071
86	0xbd1a0627	-0.037603524
87	0x3dc37721	0.095442064
88	0x3e110458	0.14161813
89	0x3d86a92e	0.06575237
90	0x3d2d8913	0.042367052
91	0x3d5291bf	0.051408526
92	0xbd0589c4	-0.032602087
93	0xbb5e3d19	-0.0033910929
94	0xbe173e19	-0.14769782
95	0xbd5f8deb	-0.054578703
96	0x3c6087d8	0.013704263
97	0xbe101ea8	-0.14074194
98	0xbdba849c	-0.091073245
99	0x3d4b2656	0.049597107
100	0xbd97fdfe	-0.07421492
101	0x3bdf44df	0.00681363
102	0x3ce9ae7f	0.028525589
103	0x3d8ae716	0.067823574
104	0xbd0e3fe9	-0.03472892
105	0xbe5dc862	-0.21658471
106	0x3de5fa33	0.11229362
107	0x3db5fd43	0.088861965
108	0xbae94ec3	-0.0017799962
109	0x3d237b69	0.039912615
110	0xbad65743	-0.001635291
111	0x3bff24a6	0.0077863513
112	0xbd4c2b76	-0.049846135
113	0x3c32d762	0.010915609
114	0x3cbc525b	0.022988489
115	0xbde7fd14	-0.11327568
116	0xbd0c5ad8	-0.034266323
117	0xbdb39dbc	-0.0877032
118	0xbd8f3c95	-0.06993977
119	0x3d724888	0.059151202
120	0xbd26fc71	-0.04076809
121	0xbdb2ab9d	-0.08724139
122	0xbc729dc7	-0.014808125
123	0xbd8449e9	-0.0645941
124	0x3da7c633	0.081921004
125	0xbcc3a55a	-0.023882557
126	0x3dac93b4	0.0842661
127	0xbd9594ee	-0.07303797
128	0x3baa0f55	0.005189816
129	0xbe0db1f9	-0.13837422
130	0x3d03d6dd	0.03218733
131	0xbd2b7bd2	-0.04186613
132	0x3d56da52	0.0524543
133	0x3b29d0c2	0.0025911783
134	0xbd3e63bc	-0.046481833
135	0x3d453e9b	0.04815541
136	0xbe6fd532	-0.23421171
137	0x3babd140	0.0052434504
138	0xbcd20f28	-0.025641993
139	0xbc988e84	-0.018622644
140	0x3c66f9a8	0.014097609
141	0xbced8d2c	-0.02899798
142	0xbd5cb967	-0.05388775
143	0xbe082623	-0.13295798
144	0xbd64e2cc	-0.055880353
145	0xbdaed1c7	-0.085361056
146	0xbdfd7f46	-0.12377791
147	0xbd3ddbcd	-0.046352196
148	0x3d02f487	0.03197148
149	0xbd702ee3	-0.058638465
150	0x3e6e9523	0.23299079
151	0xbdd68d5f	-0.10476183
152	0xbe4a499b	-0.19754641
153	0xbdead196	-0.114657566
154	0x3db093e8	0.08621961
155	0x3d3eac4b	0.04655103
156	0xbd85d6c1	-0.06535102
157	0x3d17a957	0.03702673
158	0xbbc5320a	-0.006017928
159	0xbc977936	-0.018490415
160	0xbd2a64b6	-0.04159995
161	0xbcacf0cf	-0.02111092
162	0xbd208a8d	-0.039194632
163	0x3d49191a	0.049096204
164	0xbcdde2ac	-0.027085625
165	0xbd98791c	-0.07444975
166	0x3d926d65	0.071497716
167	0x3d570449	0.05249432
168	0xbdb3a3e4	-0.08771494
169	0x3d09c65d	0.03363644
170	0xbccaaad7	-0.024739666
171	0xbe076732	-0.1322296
172	0xbd4573e3	-0.04820622
173	0x3d9cb78e	0.07652198
174	0xbdf2c09b	-0.11853143
175	0xbcf73152	-0.030174885
176	0xbe4a0106	-0.19726953
177	0x394202a2	0.00018502263
178	0xbcc80dbe	-0.024420615
179	0x3d058a8f	0.032602843
180	0x3da67eb1	0.08129633
181	0x3d7b3499	0.061329458
182	0x3cf05125	0.029335568
183	0xbcf8ca57	-0.03036992
184	0xbddf1cf3	-0.108941935
185	0xbd5aea60	-0.053446174
186	0xbd5a4d38	-0.053296298
187	0xbd027591	-0.0318504
188	0xbc0f9530	-0.008763596
189	0xbd1d08b7	-0.03833839
190	0xbd3b0cea	-0.045666613
191	0xbd37a48b	-0.044834655
192	0x3e7ccecc	0.24688262
193	0xbd0ff382	-0.035144337
194	0xbe60a491	-0.21937777
195	0xbc8c80d7	-0.01715128
196	0xbdca9d14	-0.098932415
197	0xbd8feee2	-0.07027985
198	0xbe0c1be5	-0.13682516
199	0x3c695fe2	0.014244052
200	0xbdafa217	-0.08575838
201	0xbc3c1e26	-0.011481797
202	0x3db01fd9	0.085998245
203	0x3d8cf96b	0.0688351
204	0x3d3007d7	0.042976227
205	0xbdcdff79	-0.10058493
206	0xbd066bf7	-0.032817807
207	0xbe3fedaf	-0.18743013
208	0x3d6db8b4	0.058037475
209	0xbc000c87	-0.007815487
210	0xbe1b00f4	-0.15137082
211	0x3bbf14f1	0.005831354
212	0xbd8dc3eb	-0.06922134
213	0x3d33e96e	0.043923788
214	0xbc48ee2d	-0.012263817
215	0x3dd9b5a9	0.10630352
216	0xbe02bf85	-0.12768371
217	0xbd2de921	-0.042458657
218	0xbd852419	-0.06501026
219	0x3d1db747	0.038504865
220	0xbd80b7b6	-0.0628504
221	0xbe0ea84c	-0.13931388
222	0xbd20acfd	-0.039227474
223	0xbd677165	-0.056504626
224	0xbdbe4d2a	-0.092920616
225	0x3e2e198b	0.17001931
226	0xbd1eaef9	-0.038741086
227	0xbd88ea27	-0.06685286
228	0xbdc5f491	-0.09665788
229	0xbd0d7f7d	-0.03454541
230	0xbd5d5c0e	-0.05404287
231	0x3da0f44d	0.07859097
232	0xbe0e9527	-0.13924085
233	0xbbaa9ea0	-0.005206898
234	0x3e0de6b0	0.13857532
235	0x3ce3568c	0.02775123
236	0x3e26f18d	0.16303082
237	0xbda14ecd	-0.07876358
238	0x3d466ca3	0.048443448
239	0xbdb5244b	-0.08844813
240	0x3c1ea131	0.009681986
241	0xbcec5d66	-0.02885313
242	0xbdd689ff	-0.104755394
243	0x3d5fe47d	0.054661263
244	0x3c04fe9f	0.008117347
245	0xbd55f887	-0.052238967
246	0x3cddd5f2	0.027079556
247	0xbd3a1864	-0.045433417
248	0xbe0459d8	-0.12924898
249	0x3badc612	0.005303153
250	0xbd7e63ee	-0.06210702
251	0x3c0cd4b0	0.0085956305
252	0xbd51ab55	-0.051188786
253	0xbdf2d311	-0.11856664
254	0xbd8255c0	-0.06364012
255	0xbdd165e1	-0.1022451
