outputs/models/best_hgc_lstm.pth (torch, 839494 bytes, 24 tensors)

gcn_layers.0.fc.weight f4 [64, 2]
000000 8a b1 46 be f5 17 b9 bd 93 53 92 3e 88 56 19 bf
       -0.19403663 -0.090377726 0.28579387 -0.5989766
000010 52 01 2f 3f 9c 5b 62 3e 54 a6 2d 3e 8d db 9d be
       0.6836139 0.22105259 0.1695798 -0.30831566
000020 c2 ef fc 3e 23 92 88 be dd bb 14 bd 63 0a 83 be
       0.4940167 -0.26673993 -0.036311973 -0.25593862
000030 28 04 f4 3e f7 1e 1e 3e 33 b7 b7 be 8d e7 a7 3e
       0.4765942 0.154415 -0.35881957 0.32793847
000040 0f 10 61 3e f1 e0 b3 be 20 87 28 bf 52 35 08 3e
       0.21978782 -0.35132554 -0.65831184 0.1330159
000050 95 04 11 3f 1e 9f c9 bd da 19 f8 be 76 52 16 3e
       0.56647617 -0.09844802 -0.48457223 0.14679894
000060 69 66 13 3f 12 de b6 3e 5c 2b 1b 3e 8f aa a8 3e
       0.5757814 0.357163 0.15153259 0.32942626
000070 8c 47 b2 3e 4b c1 e4 be 55 36 f6 3e 0c 92 4f 3e
       0.3482021 -0.4467872 0.48088327 0.20270556
000080 5c 06 c0 3e f4 ce e6 3e 6c 40 41 be db b8 72 bd
       0.37504852 0.45079768 -0.18872231 -0.059258323
000090 40 ba af be ea 77 46 3d ee 7c 33 3e 16 9f 4d 3d
       -0.34321785 0.048454203 0.17528126 0.050200544
0000a0 42 c6 29 be 0c dc 11 bf 15 13 99 3e 4d 74 ff 3e
       -0.16579536 -0.5697639 0.2989737 0.49893418
0000b0 83 7a 8e be 5d 89 a9 be 75 71 a6 3e 2d 0c d1 3e
       -0.27827844 -0.33112612 0.32508436 0.40829602
0000c0 9c 04 5e 3e 45 3c 8e be 79 f4 2c be 36 7b f1 bd
       0.21681446 -0.27780357 -0.16890134 -0.11791079
0000d0 bd 46 f1 be 84 bf 0f 3f 27 e5 d0 3e ac 0f 0b bf
       -0.47124282 0.56151605 0.4079983 -0.5432079
0000e0 0f d5 8c be a7 7f 76 3d 9b dd 2b 3d 23 5f a4 3e
       -0.275063 0.060180333 0.041959386 0.32103834
0000f0 e3 a5 ee be 64 9a d7 3e 71 7b f7 3e d9 ab 24 3c
       -0.46610937 0.42109978 0.48336366 0.010050737
000100 4a 9b 97 be 3e 2d 04 3f ae 8d 8a be 71 1a 29 be
       -0.29610664 0.51631534 -0.27061218 -0.16513993
000110 3a d0 eb 3e 9a 8d 9a 3e 9a 14 d5 be e1 b7 98 3d
       0.46057302 0.30186158 -0.4161728 0.07456947
000120 1b 2e 19 be 3b 4e 4a 3e 21 0d 0c bf 5a ad d6 3e
       -0.14958994 0.19756405 -0.54707533 0.41929132
000130 71 b6 ea be ae 32 b5 be 15 f6 24 be fe 7e c8 bd
       -0.45842317 -0.35390228 -0.16109498 -0.09789847
000140 06 c6 b5 be 2f 8e 37 3d d1 72 cd 3d 39 ae c1 be
       -0.35502642 0.04481333 0.10031665 -0.37828234
000150 50 86 a8 3d bd 25 85 be a3 d2 30 3f 8e d5 13 bf
       0.08228743 -0.26005355 0.69071406 -0.57747734
000160 84 3c e6 3b c9 56 6b be a5 40 f3 3c 4f f3 5c be
       0.007026257 -0.22982325 0.02969391 -0.2157719
000170 f0 2c 75 be e7 c6 7c be 73 4e b8 be 9b 4d 02 be
       -0.23942924 -0.2468525 -0.35997352 -0.12724917
000180 77 0b bf 3e 66 65 56 3d 4d a2 33 3f ec 8d dc 3e
       0.37313434 0.052342795 0.70169526 0.43077028
000190 5c c0 05 3f 3f 78 29 3e e5 10 c8 be 49 0c 0f 3f
       0.5224664 0.16549776 -0.3907539 0.5587812
0001a0 c0 06 eb be e6 19 56 3e e6 b7 95 3e 95 f0 87 be
       -0.45903587 0.20908317 0.29241866 -0.26550737
0001b0 b8 a9 cf be 69 17 81 be 2d 82 ab 3e ec 45 af 3e
       -0.40559173 -0.25213173 0.33497754 0.34233034
0001c0 24 33 8c be 81 f0 34 3e 3d 08 89 be 31 75 e4 3e
       -0.27382767 0.1766987 -0.26764098 0.4462066
0001d0 a9 3a 8c be 65 56 88 be 5e 4f 22 3f 33 60 c1 be
       -0.27388504 -0.26628414 0.63402355 -0.37768707
0001e0 3d 7b 5e be 10 e0 05 bf d3 48 00 3f 3c a3 7b 3e
       -0.21726699 -0.5229502 0.5011112 0.24573988
0001f0 6d bf c9 be b7 59 a2 be c2 8c 7d bd c4 2c 48 3e
       -0.3940386 -0.31709072 -0.061901815 0.19548327

gcn_layers.0.fc.bias f4 [64]
000000 cc 9c ea b5 4f 4c 50 b5 20 98 d7 b4 62 0b 38 b6
       -1.7479992e-06 -7.759708e-07 -4.0157556e-07 -2.7424762e-06
000010 b1 25 df b7 b3 40 01 b5 28 3d a5 36 7d 24 ed b5
       -2.6601223e-05 -4.8150395e-07 4.9245027e-06 -1.7668496e-06
000020 11 e6 0d b6 73 99 d1 36 30 4f 5d 37 af c7 aa 36
       -2.1144554e-06 6.246549e-06 1.3191064e-05 5.089641e-06
000030 59 21 84 b3 4e a6 36 35 52 ab 16 b7 55 d0 e4 b5
       -6.152795e-08 6.804229e-07 -8.980585e-06 -1.7047956e-06
000040 57 bb 16 36 e5 69 41 b7 cd 4f 33 34 bc dd 2e 37
       2.2460788e-06 -1.1528352e-05 1.6699705e-07 1.0422835e-05
000050 77 1f fb b5 eb 45 27 36 79 6b 18 b6 76 fd 17 b6
       -1.8710115e-06 2.4925637e-06 -2.2712322e-06 -2.2648287e-06
000060 ff b6 b2 b5 f4 e0 a3 b6 29 b4 e7 b5 7e 82 a3 b6
       -1.3315292e-06 -4.8839665e-06 -1.7263275e-06 -4.87297e-06
000070 39 36 9c b7 39 cb d2 b5 1d 7a 55 b6 0c c5 e8 37
       -1.8621899e-05 -1.5705365e-06 -3.1810553e-06 2.7748312e-05
000080 9f ca 4e b5 ba d8 1c b7 26 0b a4 36 9f c7 01 b8
       -7.703583e-07 -9.348785e-06 4.8888787e-06 -3.094191e-05
000090 98 ff e4 b6 9a 91 9d 36 14 41 91 b5 4a 12 a0 b5
       -6.8246845e-06 4.695915e-06 -1.0822282e-06 -1.1926252e-06
0000a0 60 50 05 37 17 ca 58 37 00 15 23 b7 fb 05 2e b7
       7.9461315e-06 1.2921656e-05 -9.7204465e-06 -1.0372601e-05
0000b0 e0 62 5f b6 5a b4 ce b7 f5 ac 8a b5 2c 1b 5b 35
       -3.3287142e-06 -2.4641096e-05 -1.0332138e-06 8.16234e-07
0000c0 8f 27 4f b7 a8 ca 33 36 d1 57 9b 36 8c eb 3b 36
       -1.2347372e-05 2.679104e-06 4.629583e-06 2.8002278e-06
0000d0 93 ab b6 36 15 78 15 b7 2e 5e ad b6 18 fd e2 b5
       5.4439965e-06 -8.909051e-06 -5.1667657e-06 -1.6911972e-06
0000e0 af c7 ef 37 fd 69 3a 36 ff ad a7 b4 67 68 35 36
       2.8584005e-05 2.7777853e-06 -3.1232773e-07 2.7031872e-06
0000f0 68 9d 61 34 42 5d d9 b6 c5 9c b3 36 6e e3 a3 b6
       2.1012022e-07 -6.4779606e-06 5.352866e-06 -4.884255e-06

gcn_layers.0.bn.weight f4 [64]
000000 ce 79 47 3f b9 ca 55 3f fe 38 61 3f bf 68 64 3f
       0.77920234 0.83512455 0.8797759 0.8922233
000010 6b a2 84 3f 79 57 40 3f 5c 38 70 3f ec 9b 4f 3f
       1.0362066 0.7513347 0.93836 0.8109729
000020 25 10 46 3f 03 0b 6f 3f 05 90 6a 3f 41 6f 72 3f
       0.77368385 0.9337618 0.91626006 0.9470101
000030 0f 92 57 3f 55 08 32 3f b5 1b 67 3f 50 96 44 3f
       0.8420724 0.69543964 0.9027665 0.7679186
000040 20 b5 4c 3f 7e 6e 52 3f cc c1 6f 3f bd bd 7e 3f
       0.79963875 0.8219985 0.93655086 0.9950827
000050 fc fa 5b 3f a9 4c 3e 3f eb 5b 59 3f 92 d1 46 3f
       0.85929847 0.74335724 0.8490588 0.7766353
000060 e7 fa 62 3f d1 58 3f 3f 7e 60 46 3f 67 77 64 3f
       0.88664097 0.747449 0.77490985 0.89244694
000070 f7 52 5e 3f bf 56 58 3f 79 16 53 3f 57 13 88 3f
       0.86845344 0.84507364 0.82456166 1.0630902
000080 9a b0 5c 3f 14 92 45 3f c5 69 55 3f f6 ef 75 3f
       0.8620697 0.7717602 0.83364516 0.96069276
000090 2b b7 54 3f 38 48 50 3f 34 b9 63 3f 7a 83 5b 3f
       0.8309199 0.813602 0.8895447 0.8574749
0000a0 be ac 5f 3f ed e6 74 3f 28 8e 61 3f dd f9 7d 3f
       0.8737296 0.95664865 0.8810754 0.99209386
0000b0 d1 db 71 3f 7e 24 59 3f a7 f9 53 3f 47 97 5a 3f
       0.9447604 0.8482131 0.82802814 0.8538708
0000c0 5c a1 73 3f 0c fb 49 3f 51 1d 72 3f ab ab 57 3f
       0.9516809 0.7889869 0.94575983 0.8424632
0000d0 8c cf 5f 3f 8e af 79 3f 84 5a 42 3f 76 37 5c 3f
       0.87426066 0.975335 0.75919366 0.86022127
0000e0 f1 0c 6e 3f 9d fe 54 3f c9 b4 51 3f 46 ef 89 3f
       0.92988497 0.8320101 0.8191648 1.0776145
0000f0 9b 26 4e 3f 79 7d 6d 3f 87 3b 48 3f 29 7c 50 3f
       0.8052766 0.9276958 0.7821583 0.81439453

gcn_layers.0.bn.bias f4 [64]
000000 b4 36 87 bc 65 bf 20 3d 09 52 5f 3b 6f 3e 1c 3e
       -0.016505577 0.039245028 0.0034075996 0.15258192
000010 f8 13 6f 3d 14 c6 f4 bd 5b d8 33 3e c7 6e 6c 3e
       0.058368653 -0.11951843 0.17563002 0.23089133
000020 78 51 bd 3d ce e4 5f 3e 36 67 e9 bd 88 2f 20 3d
       0.092440546 0.21864626 -0.11396639 0.03910783
000030 0f 76 d0 3d d7 59 7a bd 7a 53 6e 3d 3c ae 2c be
       0.10178768 -0.061120834 0.05818508 -0.1686334
000040 58 e7 e5 bd e8 ec 83 be c5 4a 85 3d 32 ce 00 3e
       -0.11225766 -0.25766683 0.06508402 0.12578657
000050 f4 b7 59 3b 16 d5 b1 be c2 42 7c bd c1 58 c5 3d
       0.0033221217 -0.34732884 -0.061587103 0.09636069
000060 92 a6 68 3e 16 f7 48 bd a1 ec a9 3d 29 9c 02 3c
       0.22719792 -0.049063765 0.082970865 0.007971802
000070 85 ce 08 be 9a 8f 63 be db 1d 94 be ea 09 09 be
       -0.13360031 -0.22222748 -0.28929028 -0.13382688
000080 85 6a 12 3d 51 de 60 be ce 36 aa bd 56 75 04 3e
       0.035746116 -0.21959807 -0.083112344 0.12935385
000090 b5 b1 9a 3d 17 2c 42 3d 67 7e 74 be 08 89 6a be
       0.07553426 0.04740533 -0.23876344 -0.22903836
0000a0 1a 6c 11 bd 38 3c 19 3d a0 d4 bd 3d fd ce 2a 3e
       -0.035503484 0.037410945 0.092690706 0.16680522
0000b0 a7 db a9 3a cc 21 cd bd a1 ff 87 3c bd 47 89 be
       0.0012959138 -0.10016212 0.016601386 -0.26812544
0000c0 d3 bd 3c 3e a3 dd e8 3d f2 47 96 bd e1 bd 4e 3d
       0.18431787 0.11370399 -0.07337941 0.05047405
0000d0 e1 77 10 3e 2e 5b e7 bc 76 d4 88 bd 71 22 f8 bc
       0.1410823 -0.02824172 -0.06681149 -0.03028986
0000e0 99 f7 f9 3d 2e 43 24 bd d6 f6 b0 bc 8b 1b 80 3c
       0.12205429 -0.04010313 -0.021602076 0.015638134
0000f0 18 47 de bd 90 a3 2a 3e e0 32 1d be 5f 69 90 3b
       -0.10853404 0.16663957 -0.15351439 0.0044070925

gcn_layers.0.bn.running_mean f4 [64]
000000 c7 e7 ed bd 16 2e 36 be 28 ca b9 3e 25 30 aa bd
       -0.11616474 -0.17791018 0.36287045 -0.08309964
000010 c5 40 71 3d 9a f8 0a be 32 9a 81 3e 4f 97 ad 3c
       0.05889966 -0.13571396 0.25312954 0.021190314
000020 60 8b ad bd 05 f5 3c be a7 68 2a 3e 11 7b e6 bd
       -0.08473849 -0.18452843 0.16641484 -0.11253942
000030 c4 3a c6 3e c5 4d 5b 3e 1e b0 a7 bd 45 38 8e 3e
       0.3871671 0.21416385 -0.081878886 0.27777305
000040 c3 61 b6 3e f6 62 cb bd 1b 7d d9 bd 77 3c b8 3d
       0.3562146 -0.09930985 -0.10619565 0.08995908
000050 f4 13 ab be 5a 77 b3 3e c1 7f 86 be 8d 5e a2 3e
       -0.3341366 0.35051996 -0.26269343 0.31712762
000060 2b 09 50 bd 07 6a f5 bd f3 c9 b8 3d a6 ad d7 bd
       -0.050789993 -0.11983114 0.09022894 -0.10531168
000070 77 89 99 bd 22 f2 2c 3e e5 da ce 3c 5a 5e 3f 3e
       -0.074969225 0.16889241 0.025250861 0.18688336
000080 a3 e0 09 3e 59 00 39 be dc 83 a2 3e c7 47 f8 bd
       0.13464598 -0.18066539 0.31741226 -0.121230654
000090 3a e2 1a 3d 8d 39 c9 bb 4c cd ae be 99 d9 db bd
       0.037813403 -0.006140894 -0.34141004 -0.10734863
0000a0 46 13 e6 bd f1 f0 11 be 57 63 be bd 12 4b 79 bc
       -0.11234145 -0.14252068 -0.09296291 -0.015215652
0000b0 a0 dc da bd ec e4 bb bd 3b de 54 be 82 f5 48 be
       -0.10686612 -0.09174523 -0.20787899 -0.19624904
0000c0 a0 71 29 3e 7e 7a f0 3e 14 27 8d 3e 78 2e f4 3d
       0.16547251 0.46968454 0.27568877 0.11922926
0000d0 3c 07 96 bd 94 0c 87 bc bb c3 8b be 6a 2b 94 3e
       -0.073255986 -0.01648549 -0.27297768 0.28939372
0000e0 db d3 9a bc 29 38 e5 3d d7 a4 6b be 29 9b 70 3d
       -0.018899849 0.11192352 -0.230121 0.058741722
0000f0 cb 91 a9 be 22 a0 9c 3e aa 64 99 be 8f 1b 8f 3d
       -0.33119044 0.30590922 -0.29959613 0.06987678

gcn_layers.0.bn.running_var f4 [64]
000000 72 4d a5 3b ae a7 1a 3d e7 8f 41 3d 55 ac 1c 3c
       0.0050446326 0.037757568 0.047256377 0.0095625715
000010 27 aa f4 3b 04 be 31 3c 87 69 bc 3c 09 03 11 3c
       0.007466573 0.010848526 0.022999538 0.008850821
000020 ce d9 42 3c 8f 14 62 3c a2 00 30 3c 76 d4 d6 3b
       0.011892749 0.013798847 0.010742338 0.006556089
000030 1b be 6f 3d 71 c9 bb 3c da 27 92 3c 5c 51 e9 3c
       0.058530908 0.022923203 0.017841268 0.028481178
000040 f7 93 66 3d f5 6e 67 3b b9 be 89 3b 38 66 3c 3b
       0.056293454 0.0035313938 0.004203644 0.002874745
000050 2e 0a 77 3d ae de 6e 3d 6b 40 fa 3c bd 6c 38 3d
       0.060312442 0.058317833 0.030548295 0.045025576
000060 a0 e9 e1 3b 52 86 bb 3b 6f 74 e1 3c af b3 da 3c
       0.0068943053 0.0057227993 0.02752134 0.026697008
000070 8b b8 19 3b 89 ae 8a 3c 59 ef 6e 3c 57 0b 44 3c
       0.0023455943 0.016928928 0.014583432 0.011965594
000080 f8 b2 d8 3c 24 39 50 3c 52 a7 22 3d e9 2f bc 3b
       0.026452526 0.012708936 0.03971035 0.005743016
000090 02 b3 66 3b a5 fe 6e 3c bc d6 41 3d 92 ec 92 3b
       0.0035201912 0.014587079 0.047323927 0.004483768
0000a0 78 e4 97 3b e7 9f 8e 3c 2c f0 01 3c 94 48 e0 3c
       0.00463539 0.017410232 0.007930797 0.027378358
0000b0 85 cf fa 3b 26 2a cc 3b c9 25 98 3c ed 5f 64 3c
       0.007654133 0.0062306104 0.018572705 0.013938886
0000c0 29 5e 1a 3c 0a 1b b0 3d 26 0b df 3c a7 21 ed 3c
       0.009421864 0.08598907 0.027226996 0.02894671
0000d0 46 79 bf 3b 7b 11 be 3b cd 6d ee 3c 3a 30 13 3d
       0.0058433143 0.0058004237 0.029105091 0.035934664
0000e0 2d 79 36 3b 57 64 9f 3c 55 40 b8 3c 97 9c 5d 3c
       0.0027843222 0.019457025 0.022491613 0.013526103
0000f0 dc c6 64 3d 25 55 10 3d 57 6d 16 3d 13 e0 92 3b
       0.05585371 0.03523745 0.03672537 0.004482278

gcn_layers.1.fc.weight f4 [64, 64]
000000 dd 80 25 bc 3f 22 43 bd be 47 02 be da c3 f4 bd
       -0.010101524 -0.04764008 -0.1272268 -0.11951418
000010 f9 48 e7 bc 9a 4d 87 bb a4 af fe bb 51 64 c1 bd
       -0.028233038 -0.004129124 -0.007772403 -0.09442962
000020 b4 e7 af bd be 11 60 bd 90 0b da bb 6c d5 af bd
       -0.08589116 -0.05470442 -0.0066542104 -0.08585629
000030 4a 98 fd 3c fd 69 b6 bd b1 fd ec bd d0 4f 61 3c
       0.030956406 -0.089069344 -0.11571825 0.013751939
000040 c1 a5 6e bd 25 dd 5d bd d3 79 be bd 2c 11 e4 bd
       -0.058263544 -0.054165978 -0.0930058 -0.11136088
000050 06 09 5e bc b1 60 90 bd d9 41 7d 3d 04 f9 a1 bd
       -0.013551956 -0.070496924 0.061830375 -0.07908824
000060 a0 0f 8a 3d fd 22 dd 3c f9 77 f1 bc 98 3d 95 3d
       0.067412615 0.026994223 -0.029476153 0.07287139
000070 7e 7e a0 3c f9 84 d7 bb aa fe ff 3d 26 95 08 3d
       0.019591566 -0.006577131 0.12499745 0.033345364
000080 39 59 a9 bc c6 d6 a1 bd ba d4 13 be fe ba 2f 3d
       -0.020672427 -0.07902293 -0.14436617 0.04290294
000090 ad 30 be bd cf ee 99 3d ee a4 d0 bd 96 8f 35 3d
       -0.09286628 0.07516252 -0.10187708 0.044326387
0000a0 68 aa 25 bd 4e 47 0d bd 73 2d 02 bd 76 79 0c 3e
       -0.040445715 -0.03449183 -0.031781625 0.13718209
0000b0 c7 01 e0 bd f9 df db bd f1 56 e6 bd f8 a3 a5 bd
       -0.10937839 -0.10736079 -0.112470515 -0.08087915
0000c0 5d 73 c2 bc 48 01 e6 3c a4 0e fb bc 78 6e 0d be
       -0.02373665 0.028076783 -0.03064663 -0.13811672
0000d0 6d 20 9a bd 79 d5 a9 3c 90 fa 20 3c 79 19 14 bb
       -0.07525716 0.020731675 0.009825364 -0.002259819
0000e0 64 5e bb 3b 28 2a fc bd a8 fa fc bd 3e a4 bf 3d
       0.0057180393 -0.12312728 -0.123524964 0.093574986
0000f0 0c 2f 93 bd cb 87 e3 bd 15 fe 4b bd 58 be 83 39
       -0.07186708 -0.11109885 -0.04980286 0.00025128084
000100 d7 c9 4e bd 67 5e f8 3b 4a b4 d8 bd 7e 65 03 be
       -0.05048546 0.007579613 -0.105812624 -0.12831685
000110 02 73 1d be 24 69 97 3d 67 38 9f 3c 38 c5 1f 3d
       -0.15375903 0.07393101 0.019436074 0.03900644
000120 ca 37 4c bd 96 26 c7 bd ce ca a1 bd 29 af 85 3c
       -0.049857892 -0.097241566 -0.0790001 0.016318874
000130 ed 19 b5 bd 4b 1f ba 3d 45 7e ff bd 02 05 e0 bd
       -0.088428356 0.09088 -0.12475256 -0.10938455
000140 ce 3a f3 bd aa 70 82 bd 2d 95 65 bd e6 39 83 3d
       -0.118764505 -0.06369145 -0.05605047 0.064075276
000150 00 04 10 3d 46 77 07 3d 2c 40 c6 bd 8e 55 af 3d
       0.035160065 0.033072732 -0.096802086 0.0856124
000160 52 af 6b be 88 e7 02 3d d5 cc c1 3d 53 1e 00 3c
       -0.23016098 0.031959087 0.09462897 0.00781973
000170 8d ee 06 be d9 5b 98 bd 0b 96 cd bc e1 02 bf bc
       -0.13176937 -0.074393936 -0.02509596 -0.023316802
000180 82 a2 98 3c 55 74 bc bc 82 3a 7e 3c bf 14 30 3b
       0.018632177 -0.02300469 0.015516879 0.0026867834
000190 aa 1b 5a 3c 89 0b ed 3c 25 97 86 3d 69 4f 68 b9
       0.01331226 0.028936164 0.06571797 -0.00022154827
0001a0 6b 2f b2 bd 5e f0 25 3d 3b 32 1f bd 2c 32 90 be
       -0.087004505 0.040512435 -0.038866263 -0.28163278
0001b0 66 02 98 bd dd 32 88 3d ab 7c 93 bd 8a 9c 77 bd
       -0.074223325 0.066503264 -0.07201513 -0.06045202
0001c0 cd b4 82 bd 67 6a 20 bd 38 5a 7a bb f9 64 55 bb
       -0.06382141 -0.039163973 -0.0038200747 -0.0032561405
0001d0 4f a5 96 3c 34 5e 3d be 07 1b 8b bd 99 3a 04 bd
       0.018389372 -0.18492967 -0.067922644 -0.032282446
0001e0 36 33 01 3d 5a f0 93 bc 39 b3 c0 bd 1b b2 32 be
       0.03154298 -0.018058944 -0.09409184 -0.17450754
0001f0 d7 d3 89 3d f6 fc 48 bd 5a e9 c1 bd b3 af 9b 3d
       0.06729858 -0.049069367 -0.094683364 0.07601871
000200 05 81 84 3d 25 dc 83 3d f2 62 37 3d fd 34 28 3c
       0.06469921 0.064384736 0.044772096 0.01026654
000210 d6 98 9d 39 f4 7f 4c 3d 20 09 df 3d 0a a4 78 3d
       0.00030059245 0.049926713 0.10890412 0.060703315
000220 fd 7b 2f bc 7c b5 97 3d 1b 88 a1 3b f0 0e 51 3d
       -0.010710713 0.07407662 0.004929555 0.051039636
000230 2d e5 95 3d f1 66 8c bd 59 54 52 bd 1e b3 cb bc
       0.073191024 -0.06855572 -0.05134997 -0.024865683
000240 11 1e 00 3c 33 85 84 3d 1b ff fb 3c 0b 4f 80 3d
       0.007819668 0.06470718 0.030761292 0.06265076
000250 d1 e6 7c 3d 41 3c e6 bc a9 4d 7b 3d 2e 23 2c 3d
       0.06174356 -0.028104903 0.06135336 0.042025737
000260 55 88 66 3d 77 40 43 3d 33 b0 ea 3b 16 94 22 3c
       0.05628236 0.0476689 0.007162118 0.009923002
000270 4a b3 cc 3d d3 74 47 3d f1 47 6a 3c d0 03 92 3d
       0.09995134 0.048695397 0.014299379 0.071296334
000280 94 1d 89 bc ce d5 62 3d 9e e2 87 bd a3 5f 60 3b
       -0.016737737 0.05537968 -0.06635021 0.0034236691
000290 a3 11 65 3d 2e bd 1c 3d 26 25 6d 3d 01 41 6f 3d
       0.055925023 0.038266353 0.057896756 0.058411602
0002a0 53 fc a5 3d bd 01 a1 3d d4 53 bd 3c d6 01 34 bd
       0.08104768 0.0786166 0.023111261 -0.043947063
0002b0 58 75 5a 3c 48 e6 5a 3d 7b e7 45 b9 f9 0e 55 3d
       0.013333641 0.05344227 -0.00018873617 0.052016232
0002c0 66 cc 92 3b ac 20 52 3d 5c 81 d2 bb be db 58 bd
       0.0044799326 0.05130069 -0.0064241122 -0.052943937
0002d0 ee 5f 85 bd dc c2 2f 3d f9 81 6d 3d 4e f1 cb bc
       -0.06512438 0.04291044 0.05798528 -0.024895336
0002e0 7e c5 7b bd 72 f8 cd bc f6 d4 93 3d fb 33 80 bd
       -0.06146764 -0.025142882 0.072183535 -0.062599145
0002f0 c4 0c 44 3d b7 81 3b bd 85 bb 4d 3c f4 0a 0a bd
       0.047863737 -0.045778003 0.012556915 -0.033701852
000300 9c 59 ec bc f0 27 8c bd 20 10 f8 bc 6c da e2 3d
       -0.028851323 -0.06843555 -0.030281126 0.11076817
000310 0e 57 02 3e b6 0f 1c 3b 59 00 b1 bd 87 65 32 bd
       0.12728521 0.0023813075 -0.086426444 -0.043553855
000320 c0 f2 47 bd c8 c2 33 be 6b db 2b bd 4a ae 82 bd
       -0.04881549 -0.17554772 -0.0419573 -0.06380899
000330 79 28 10 be d8 81 57 bd 7f 43 2c 3e 0c 25 ac bc
       -0.14077939 -0.052614063 0.16822623 -0.02101376
000340 b9 6b af bd 88 6a dc 3b a2 57 17 be 33 e0 26 be
       -0.08565468 0.0067265667 -0.14779523 -0.16296463
000350 0a a7 d8 3b 94 95 d9 3d 8a 98 85 3d e6 d1 ed bc
       0.0066117095 0.10624233 0.06523235 -0.029030751
000360 54 17 c8 3d fa 3a 0a bd 68 df b7 3d fe a3 05 3e
       0.097700745 -0.03374765 0.08978158 0.1305084
000370 ff c5 34 bb 4e 50 ce bc d1 d7 a2 bc 35 e6 1d bd
       -0.0027583835 -0.025184777 -0.0198783 -0.03854962
000380 86 1c 0f bb 72 fe f6 3c 34 91 63 bd bf 07 4d bc
       -0.002183707 0.030150626 -0.0555584 -0.012514054
000390 48 88 ef 3d ca 7c 5f 3d 6e 73 5f bd 91 1b d1 bd
       0.116959155 0.054562367 -0.05455344 -0.10210336
0003a0 f8 d8 b8 bc 6d b1 c5 3d 1c ed 6d bd 5e 8a a2 3d
       -0.022564396 0.09652982 -0.058087453 0.07936548
0003b0 e6 8e b7 bd e8 ac 0a be 54 f9 c0 bd bc 37 45 bd
       -0.089628026 -0.13542521 -0.094225556 -0.048148856
0003c0 04 78 40 bd 24 31 ef bd 48 dd ec bd b3 24 cc 3d
       -0.046989456 -0.11679295 -0.115656435 0.09967937
0003d0 01 94 d3 bd fc c5 f7 3d 34 88 c9 3b a2 72 d2 bd
       -0.10330964 0.120983094 0.00615027 -0.10275771
0003e0 1f 9d 8e bd 04 fc 79 3c 6c 94 5e bc 42 10 85 bc
       -0.06963562 0.015257839 -0.013585191 -0.016243104
0003f0 34 a0 14 bd 1a 8f f3 bd 4e be 86 bd 5a 4b c1 3c
       -0.036285594 -0.11892529 -0.065792665 0.0235955

gcn_layers.1.fc.bias f4 [64]
000000 f2 7f 24 b6 70 b5 11 b5 ba 7f ff b5 58 bd 04 b6
       -2.4512378e-06 -5.4280736e-07 -1.9036154e-06 -1.9779745e-06
000010 48 95 68 b6 61 da c0 b4 45 29 19 36 c2 3e 98 b4
       -3.4657587e-06 -3.5921678e-07 2.2822799e-06 -2.835787e-07
000020 24 33 be b5 9c 60 84 35 20 a5 0a b5 83 8d 20 b5
       -1.4170987e-06 9.862883e-07 -5.1649295e-07 -5.981057e-07
000030 39 1b b2 b5 cb da ee b6 b3 5e 02 b5 e9 d7 75 b5
       -1.3269956e-06 -7.1184236e-06 -4.856658e-07 -9.1583803e-07
000040 9c e7 9f 35 25 0b de b6 84 49 2e b4 dc ca 19 b6
       1.191383e-06 -6.617413e-06 -1.6231758e-07 -2.2916856e-06
000050 65 41 23 b6 91 88 53 35 33 94 41 b4 8a 8c 83 b4
       -2.4326957e-06 7.8802356e-07 -1.802844e-07 -2.4502907e-07
000060 0b 77 50 36 8e ce 11 36 86 c9 1e 36 cf 3a 87 b5
       3.1063707e-06 2.1726914e-06 2.3661137e-06 -1.0075399e-06
000070 33 73 9d 34 2f 65 b7 b5 5b ae 9e 35 51 e8 b2 b6
       2.9327347e-07 -1.3664011e-06 1.1822661e-06 -5.3318586e-06
000080 24 6c 08 36 17 c9 21 35 a4 8e 67 b6 0c d6 e6 34
       2.0328525e-06 6.02698e-07 -3.450471e-06 4.2996578e-07
000090 52 b9 6e 36 3f 5e a8 35 83 e6 38 36 c3 97 44 b4
       3.5572634e-06 1.2544405e-06 2.7552312e-06 -1.8309133e-07
0000a0 cd e7 50 35 3b 21 e6 b5 4b 4b 36 33 10 de 05 b5
       7.782335e-07 -1.7146007e-06 4.2443656e-08 -4.9869504e-07
0000b0 ea 62 d8 34 bc 11 04 36 01 bb 9e 35 2d f4 2e b6
       4.0305105e-07 1.9679856e-06 1.1826343e-06 -2.607015e-06
0000c0 27 35 42 b6 6b b2 d5 34 f7 ad 92 b6 fb bd 08 b5
       -2.8939191e-06 3.9804158e-07 -4.3713912e-06 -5.0940406e-07
0000d0 84 21 6c 36 f1 77 e6 35 99 e7 6a 36 54 13 82 36
       3.518625e-06 1.7171243e-06 3.5003525e-06 3.876552e-06
0000e0 1f fc d4 35 6e 49 93 b4 50 6d cd 35 b6 8b a0 b4
       1.5868608e-06 -2.743431e-07 1.5305504e-06 -2.9903975e-07
0000f0 49 5b 2a 36 d8 8c 7d b5 4a 65 56 36 56 49 a8 34
       2.538511e-06 -9.44548e-07 3.1947443e-06 3.1345797e-07

gcn_layers.1.bn.weight f4 [64]
000000 0f 30 86 3f f7 64 a1 3f a1 a9 84 3f 92 8b 9b 3f
       1.0483416 1.2608937 1.0364267 1.2151968
000010 1f 95 87 3f 1e 2a 9b 3f bf ec b5 3f f5 f4 9e 3f
       1.0592383 1.2122228 1.4212874 1.2418505
000020 da 79 96 3f 03 06 91 3f c7 60 89 3f 85 c4 94 3f
       1.1755936 1.132996 1.0732659 1.1622473
000030 3f 19 8e 3f 70 ca aa 3f 7a ec 88 3f b0 89 8a 3f
       1.1101454 1.3343029 1.0697167 1.0823269
000040 ee 41 84 3f 65 f6 98 3f 09 c7 93 3f f9 ef 81 3f
       1.033262 1.1950194 1.1545116 1.0151359
000050 2a cd 96 3f d4 a1 8c 3f f7 f0 a2 3f 26 c7 91 3f
       1.1781361 1.0986886 1.2729787 1.13889
000060 7a 9e 9c 3f 5a bf 87 3f 1f 76 8b 3f 09 8e 9c 3f
       1.2235863 1.0605271 1.0895423 1.2230846
000070 dc 8e a7 3f 42 4d 90 3f 75 89 8c 3f 48 5b 8f 3f
       1.3090472 1.1273577 1.0979449 1.1199732
000080 1c 20 86 3f 54 6a 83 3f 56 97 89 3f 44 2a 9d 3f
       1.0478549 1.0266824 1.0749309 1.2278523
000090 c5 65 93 3f 5e 31 88 3f d4 45 9c 3f 53 3e bc 3f
       1.1515433 1.0640066 1.220881 1.470652
0000a0 4c 23 a1 3f 9c 0e 9f 3f fb 2c 87 3f 4a 10 8d 3f
       1.2588897 1.2426333 1.0560602 1.1020596
0000b0 aa d2 a6 3f 41 55 9c 3f 2c 9d 9f 3f cd 6c b8 3f
       1.303304 1.2213517 1.246984 1.4408203
0000c0 97 69 89 3f 7a 2d 99 3f b7 27 8f 3f 98 f1 8b 3f
       1.0735348 1.1967003 1.1183995 1.0933104
0000d0 fc 14 9b 3f 81 e6 94 3f 2c 54 91 3f 19 2e 8b 3f
       1.2115779 1.1632844 1.1353812 1.0873443
0000e0 c1 ec 9c 3f 96 0b ac 3f 2c fc 94 3f 05 16 aa 3f
       1.2259752 1.3441036 1.1639457 1.328797
0000f0 8f 39 93 3f 80 5b 88 3f 91 28 8c 3f e8 b5 82 3f
       1.150194 1.0652924 1.094988 1.0211763

gcn_layers.1.bn.bias f4 [64]
000000 66 43 52 3d 1d 6d 19 3e c8 47 91 3d 1d 93 18 3d
       0.051333807 0.1498303 0.07093769 0.037249673
000010 44 e7 04 3e 4d c0 b9 bc 61 b4 30 3e 11 35 81 3e
       0.12978846 -0.022674704 0.17256309 0.252358
000020 f8 a0 64 3c a7 45 07 3e 42 0f 41 bc 2f 0c d2 3d
       0.013954394 0.13210164 -0.011783423 0.1025623
000030 b0 4b e9 3d 50 97 20 3d 05 89 08 3e f9 75 0b 3e
       0.11391389 0.039206803 0.13333519 0.13619222
000040 7b 5e 04 3e 05 34 fd 3c ac bb 50 3d 0f d6 93 3d
       0.12926666 0.030908594 0.050960228 0.07218563
000050 5c 86 3a 3d 1d 8a d7 3d aa ab 01 3e be 27 aa 3d
       0.04553829 0.1052439 0.12663141 0.083083615
000060 45 cf 16 3e 26 6a c1 3d e8 9f 0b 3e d6 c2 c4 bc
       0.14727505 0.09444074 0.13635218 -0.024018686
000070 12 6d 32 3e 3e bb 00 3c ce f4 31 3e a1 17 04 3d
       0.1742442 0.007857142 0.17378542 0.032249097
000080 d2 4f 19 3e ac 47 c1 3d 90 03 d8 3d 95 b3 64 3e
       0.14971855 0.094374985 0.105475545 0.2233413
000090 a0 10 7f 3d ae d0 9c 3d 71 d0 04 3a ae c9 42 3e
       0.062271714 0.0765699 0.00050664606 0.19022247
0000a0 08 9f fd 3d 9c d5 6e 3d 31 32 e8 3d 25 b2 18 3b
       0.123838484 0.058309183 0.11337698 0.0023299542
0000b0 35 62 63 3e 73 30 a5 3c 87 29 a6 3d 72 1f 4e 3e
       0.22205432 0.020164704 0.081133895 0.20129183
0000c0 2a 00 df 3d e7 5b 83 bc f4 e2 6d 3d b2 e1 be 3d
       0.10888703 -0.016035033 0.058077767 0.09320392
0000d0 d7 d0 c9 3d fa 16 c5 3d 40 0d e1 bb c0 c9 c4 3c
       0.09854286 0.09623523 -0.0068680346 0.024021983
0000e0 33 7d 22 3e e1 83 a6 3d 2e 3e 16 3e ef 11 32 3e
       0.15868072 0.08130623 0.14672157 0.17389654
0000f0 c5 ab a8 3d 3d 78 18 3d a5 ab 14 3e 22 3d fa 3d
       0.082358874 0.037224043 0.14518602 0.122186914

gcn_layers.1.bn.running_mean f4 [64]
000000 e6 5d 48 bf 9e f2 63 bf 98 d1 02 3f 93 06 f8 be
       -0.7826828 -0.8904208 0.51101065 -0.48442516
000010 22 43 d7 3e f6 78 8c bf 15 cb 60 3f 1f 18 99 be
       0.42043406 -1.0974414 0.8780988 -0.29901215
000020 25 69 33 bf 0b 6c 10 bf 01 19 22 be a7 75 35 3f
       -0.7008231 -0.5641486 -0.1582985 0.7088265
000030 ed 5b 40 bf 94 a6 8f be 3c 8f 4c 3f 2f 8e f8 3e
       -0.7514027 -0.28056777 0.7990606 0.48545977
000040 ba 71 b3 3e f5 ab 91 3f 85 42 aa bd cf cf ed 3e
       0.35047704 1.1380602 -0.08313469 0.46447608
000050 ea 76 3f 3e 23 c8 e1 3e 4f d0 19 3f 5e 58 28 bf
       0.18697706 0.44098005 0.6008348 -0.6575984
000060 21 5f e9 be 51 46 04 3f 30 90 d3 3e 12 8e 8d bf
       -0.4558039 0.51669794 0.41320944 -1.1058981
000070 38 9e 61 3f 12 4a 3e 3f ee af b7 3e 39 a2 85 bf
       0.8813205 0.7433177 0.3587641 -1.0440131
000080 b2 05 c1 bd 4a 2e 05 3f aa 74 15 3f a8 23 bf be
       -0.094249144 0.52023757 0.5838114 -0.3733189
000090 bb 5c 71 bf d2 cd 0b bf 6b cd 50 bf d4 27 35 3f
       -0.9428212 -0.5461093 -0.8156344 0.707639
0000a0 e4 cb 22 3f a0 0c 99 3f 5e a8 76 3f 37 89 31 be
       0.6359236 1.1956978 0.9635066 -0.173375
0000b0 c2 7d 2e bf b4 d1 33 be 01 33 48 bf 2b 5a 84 3f
       -0.6816064 -0.17560464 -0.78202826 1.0340017
0000c0 a1 1e 01 3f dd 8a 2b 3f 75 ef aa 3e 67 87 93 bf
       0.5043736 0.67008764 0.33385816 -1.1525697
0000d0 1d 3c 49 bf 25 6c 8c bf f2 b7 2d 3e 8f ec 19 3f
       -0.7860735 -1.0970503 0.16964701 0.60126585
0000e0 8f d1 5d bf fa b3 0c 3f ca b0 2d bf 11 a4 18 3f
       -0.86647886 0.5496212 -0.67847884 0.59625345
0000f0 a2 f3 84 3f 8d 17 58 bf ed 31 54 3f ae 4a e4 3e
       1.0386851 -0.84410936 0.8288868 0.44588226

gcn_layers.1.bn.running_var f4 [64]
000000 cc ac a1 3e a6 76 0a 3f 13 00 8d 3e 65 5a ba 3e
       0.31577146 0.54087293 0.2753912 0.3639709
000010 e2 6c b0 3e 62 aa 23 3e 25 56 09 3f d8 5f f3 3e
       0.3445807 0.15982965 0.5364707 0.4753406
000020 3d ad 51 3e fc 88 f7 3d 3f 73 5f 3e e7 14 ef 3e
       0.20476241 0.120866746 0.21821307 0.46695635
000030 d1 d2 50 3e 97 24 e4 3d 7d 25 d6 3e ee c7 a0 3e
       0.2039292 0.111397915 0.41825476 0.31402534
000040 7c 7a 40 3e f0 28 52 3e 4e 1c d5 3e 7b 1f 7c 3e
       0.18796724 0.20523429 0.41623157 0.24621384
000050 e2 4c 0e 3d 05 69 ba 3e dc c9 cf 3e a6 73 0f 3f
       0.03474129 0.3640825 0.40583694 0.5603584
000060 c8 e5 3b 3e b2 bd 85 3e 32 31 51 3e 32 26 2b 3e
       0.18349373 0.2612129 0.20428923 0.16713789
000070 03 30 31 3f 1e 95 34 3e df 2c 43 3e cd df 72 3e
       0.69213885 0.17635009 0.19060086 0.23718186
000080 1e 42 32 3f 40 95 9b 3e fd ad 9a 3e 38 80 15 3f
       0.69632137 0.30387306 0.30210868 0.5839877
000090 48 6c 51 3e bc f6 93 3e d3 24 33 3e d5 fb c5 3e
       0.20451462 0.2889918 0.17494516 0.38668695
0000a0 e7 b6 a1 3e 90 0f cf 3e 3a 45 f1 3e 90 62 78 3e
       0.31584856 0.4044156 0.47123128 0.24256349
0000b0 ff b3 1b 3f 37 16 39 3e df 21 e0 3e 93 32 0d 3f
       0.6082153 0.1807488 0.43775842 0.55155295
0000c0 ed 44 8d 3e a7 d3 01 3e 56 75 0a 3e 0b 92 cf 3e
       0.2759165 0.12678395 0.13521323 0.4054111
0000d0 ea 8a d7 3d e6 d1 5f 3e 5a fa 1b 3e a7 01 18 3e
       0.10524543 0.21857414 0.1523222 0.1484438
0000e0 90 33 c8 3e 05 7a 1b 3e 9b 52 de 3e 1e 05 14 3f
       0.3910184 0.15183266 0.43422398 0.5782031
0000f0 df 7e 91 3e 5b 33 e2 3e 8a 66 04 3f 83 13 82 3e
       0.28417107 0.44179806 0.5171896 0.2540551

joint_attention.attention.weight f4 [1, 64]
000000 69 4b 33 3d 71 00 b6 bd e5 a0 34 3e 41 9d b1 bd
       0.04377309 -0.08886803 0.17639501 -0.08672572
000010 81 fb 9b bd 8b a4 95 3d b3 cd c3 bd 48 f9 c3 bd
       -0.0761633 0.07306775 -0.095607184 -0.09569031
000020 65 3c d5 bd 54 94 31 bc 33 9b 1f bd b0 2d 1a 3d
       -0.1041191 -0.010838587 -0.03896637 0.037641227
000030 22 4c 35 3d 13 70 ab bb 05 e6 3a 3e 8e d5 4a 3e
       0.04426206 -0.005231866 0.18251808 0.19808027
000040 0e ca 5d 3d 04 56 eb 3c 7c b3 d3 bd cd 09 4f 3e
       0.054147772 0.028727539 -0.10336968 0.20218582
000050 13 e5 4b bd 17 29 7b 3e 12 ba 2e bd 64 b3 e4 bd
       -0.04977901 0.24527393 -0.04265792 -0.111670285
000060 2a 10 22 bd e9 b8 5b 3e 3e 14 26 3e f1 23 29 3c
       -0.039566197 0.21457256 0.1621866 0.0103235105
000070 55 a2 91 bd f3 02 e7 bd c1 19 9c 3d 94 ad 9a 3d
       -0.071110405 -0.112798594 0.076221 0.07552639
000080 e8 66 f0 bd df f5 88 3d 77 a3 62 3e ec 3b 21 be
       -0.11738378 0.06687521 0.2213267 -0.15745515
000090 d4 5b 44 bd 91 29 3f 3d b4 72 e4 3a 6e 0c 9d bd
       -0.047939137 0.0466705 0.0017429204 -0.076683864
0000a0 ba c3 a1 bd 80 5d ec 3c af 2a 7a 3e 93 05 85 bd
       -0.0789866 0.028853178 0.24430345 -0.06495204
0000b0 38 db 11 be a1 fd 01 be ad 73 eb bd 2c f7 83 bd
       -0.14243782 -0.12694408 -0.11496673 -0.06443629
0000c0 e2 3e 4a 3e 5b ca b0 bc 6c f9 e8 bc 31 cd 84 bd
       0.1975055 -0.021580866 -0.028439246 -0.0648445
0000d0 bc 40 b8 bb 5b c2 3c 3c 3c d9 06 be a3 c0 9f 3d
       -0.0056229513 0.011520947 -0.13168806 0.078004144
0000e0 cf 43 ac bd 2f 47 a6 3c 23 81 dc bd f6 f9 da bd
       -0.08411371 0.020297615 -0.107668184 -0.106922075
0000f0 36 db 5a bc 63 0d d1 bd 5f a0 48 3e 3d e3 9b 3d
       -0.013357928 -0.102076314 0.19592427 0.07611702

lstm.weight_ih_l0 f4 [512, 64]
000000 eb c3 42 3d 7f fd b0 bd 5f 65 65 bd 48 5a 04 3e
       0.047550123 -0.086421005 -0.056004878 0.12925065
000010 cf e4 37 bd 7d 17 72 bc 63 5c c1 3c 38 90 39 bd
       -0.044895943 -0.014776108 0.023603624 -0.045303553
000020 66 38 c7 3d d0 70 81 3c e0 ac 0b 3e f3 de 72 3c
       0.09727554 0.015800864 0.13640165 0.014823663
000030 c3 64 d4 3b 73 65 fc 3c 67 ec 91 bd d5 d5 99 bc
       0.0064817383 0.030810094 -0.07125168 -0.01877872
000040 fd 1b 6f bd b2 1d d8 3b 79 4b 02 3e 22 7b cf bb
       -0.0583763 0.006595337 0.12724103 -0.0063318172
000050 47 20 16 bd bb a1 70 bc 55 f8 a4 3c fc b7 9a 3d
       -0.036651876 -0.014686997 0.020137945 0.075546235
000060 9b be d2 bd 5d 3e ff bc e0 fd 08 bd ee 9c a3 bd
       -0.10290261 -0.031157667 -0.03344524 -0.07988916
000070 60 56 b5 3c 2e e1 34 3d d4 30 af bd dc 39 81 bd
       0.022135913 0.04416006 -0.08554235 -0.06309864
000080 f0 0f 00 bc e8 7b 50 3b 07 fb b5 bc 22 a0 44 bd
       -0.0078163 0.0031812135 -0.022214426 -0.048004277
000090 81 fb d3 3d cc 6b 63 3d a4 ae 9e bd 64 30 8d 3c
       0.10350705 0.055522725 -0.07748154 0.017234989
0000a0 6a 16 84 3c 15 95 62 3c e2 27 9d bc ec 4e 09 3e
       0.01612397 0.013829489 -0.019184057 0.13409013
0000b0 e2 96 80 bd b8 6f 1d 3e ed 5e e7 3d 22 77 89 3c
       -0.062787786 0.15374649 0.112974025 0.01678044
0000c0 0f 4d f5 bc ad e9 8b 3c bc 23 00 3e d4 4d 7b bb
       -0.029943971 0.017079199 0.12513632 -0.003834595
0000d0 c5 83 4b bd c0 b8 2b bb c0 73 0e 3e 0e a9 83 3c
       -0.049686212 -0.002620265 0.13911343 0.016071822
0000e0 c8 ff 6a bd e2 df 2b 3d b2 06 a2 3d 27 fb 9a 3c
       -0.05737284 0.04196156 0.07911433 0.018918587
0000f0 f4 38 97 3d 2e ed 9d 3d fd b5 11 bb 45 0f f4 bc
       0.0738391 0.07711254 -0.0022233718 -0.029792437
000100 b4 43 81 3d f9 06 ca 3c 8b af a5 3a fa d6 2a 3d
       0.063117415 0.024661528 0.0012640817 0.041708924
000110 c7 9d 9c 3c 87 18 5c 3d 60 49 7f 3c 8f 3d 45 3d
       0.019118203 0.05373433 0.015581459 0.04815441
000120 3e 9d 84 3d 74 33 90 3d cf e6 f0 3c b0 9b 7b 3c
       0.06475304 0.07041064 0.029406933 0.015356943
000130 0a 70 a9 3d 3c ee 3a 3c 89 df ed bc fe 26 3e bd
       0.08273323 0.011409339 -0.029037254 -0.046423905
000140 2b 64 84 bc 8b f4 77 bc 2f 37 ae 3c c9 8f 3b 3c
       -0.016161045 -0.015133987 0.021266548 0.011447855
000150 46 86 94 bc 6b 0e a2 3c 18 b7 b2 3c 43 3a 31 3d
       -0.018130433 0.019782266 0.021815822 0.043268453
000160 e1 63 72 3d 7f 4e d0 bc 0c ef af bc 2a 40 82 3d
       0.059177283 -0.025428055 -0.021476291 0.063598946
000170 22 43 98 3c 90 e4 b1 bc 17 81 93 bc 23 55 4c 3c
       0.018586699 -0.021715432 -0.01800589 0.01247147
000180 2e db f1 3c fd 88 cb 3c d7 60 af 3c 48 e8 d8 3c
       0.029523458 0.024845595 0.021408482 0.026477948
000190 04 c3 c4 3d dc 9a 42 3d f2 50 77 3c f0 93 34 3c
       0.09607509 0.047510967 0.015094982 0.011021599
0001a0 c6 36 a9 3c 63 77 50 3c 8c 67 43 3b 1a f3 a3 3c
       0.020656 0.0127237765 0.0029816357 0.02001338
0001b0 c5 e9 c0 3c ed d8 fe 3c 8a 9d 65 3d 1c 89 14 3c
       0.02354897 0.031109298 0.056058444 0.009065893
0001c0 dc 37 12 3c 6e 49 55 bd 0f 95 ad 3d f8 cb 9b 3d
       0.008924451 -0.05207198 0.08475696 0.07607263
0001d0 56 f2 cb 3d d6 88 bf 3d af 4b 56 3d dd 9d 63 3c
       0.09958331 0.09352271 0.05231827 0.013892618
0001e0 ce 41 13 3d 21 d5 29 3d 5d a3 51 3d c2 95 d3 3c
       0.035951428 0.04146302 0.051181186 0.025828246
0001f0 61 01 3d bb f2 ae 5e 3d bf ee 16 3c 36 dc f2 3c
       -0.0028839933 0.05436606 0.009212195 0.02964602
000200 40 ed a7 bb 20 c0 7d 3d c9 ad 3e 3a 9f f9 cf bb
       -0.005124718 0.061950803 0.0007273821 -0.006346896
000210 1d f9 fd 3c bc fc f4 3c 30 5a e2 3c 33 03 6d 3d
       0.031002576 0.02990567 0.027630895 0.05786438
000220 f4 04 50 3c ea e6 0c 3c 09 de 15 3c 6c 6c c8 3c
       0.012696493 0.008599976 0.009147176 0.024465762
000230 2d 4f 94 3b 8e b5 68 bc 97 f9 4a bc 0b 3a be bb
       0.00452604 -0.014203442 -0.012388608 -0.005805259
000240 8c b1 0a 3d d1 a4 bc bc 5f 63 05 bc ed e8 2f 3c
       0.03386073 -0.02302781 -0.008141368 0.010736686
000250 d7 39 16 bd 25 cd cc 3c d6 f7 07 3d 1a d0 5a bc
       -0.036676254 0.025000164 0.03319534 -0.013355279
000260 6f 53 42 3d f8 97 31 3c 36 f2 18 3d 54 5d 48 3d
       0.04744285 0.010839455 0.037340365 0.04891713
000270 f2 8b a6 3c 45 19 ff bc a8 59 41 3c f9 46 3c 3d
       0.020330403 -0.03113998 0.011801161 0.045966122
000280 9f c4 17 3d 1c 73 03 3d 54 ce 04 3d 78 64 82 3d
       0.037052747 0.0320922 0.032423332 0.06366819
000290 90 d8 27 3d 17 ca ee bb 14 fb 23 3d fd 90 e9 3c
       0.040978014 -0.0072872746 0.04003437 0.028511519
0002a0 9f 82 03 3d 51 80 c8 3b f7 a8 db 3c c0 ee 39 3a
       0.03210699 0.006118812 0.026813967 0.00070927665
0002b0 85 a4 97 3d d2 2c 53 3c 14 57 ea 3a b2 e8 c2 3c
       0.074044265 0.012889104 0.0017878735 0.023792598
0002c0 25 74 94 3c e4 39 63 bd 0e ab 40 3d c2 37 a5 3c
       0.018121788 -0.05547513 0.04703813 0.020168189
0002d0 3c a0 c4 3c b4 0e a0 3c 78 c1 8e 3c 12 05 a6 bb
       0.024002187 0.019538261 0.017426237 -0.0050665224
0002e0 1a db 8e 3d b0 9d 01 3d 5d 8e 8b bc f2 1c 1a 3d
       0.06975384 0.031644523 -0.017035658 0.03762526
0002f0 8c 6b 6d bc 65 43 71 3c d5 5b 9c 3c 74 05 fe bb
       -0.014490973 0.014725541 0.019086758 -0.007752115
000300 c1 dc 0c bd f1 d7 c5 3c c5 dd 90 3d 17 59 15 bc
       -0.034390215 0.02415082 0.07073549 -0.009115479
000310 ca 07 44 3d b8 c0 a7 3d fc bc b8 3c f5 b9 3c 3d
       0.04785899 0.08191055 0.022551052 0.04607578
000320 c0 93 b6 3d c1 ac 04 bd 69 36 91 3c 79 dc bb 3c
       0.089149 -0.032391313 0.01772614 0.022932278
000330 45 07 73 bc ad 1d e0 3c f4 e9 38 3d 4c 58 76 3c
       -0.014833276 0.0273579 0.04514499 0.0150357
000340 f6 f1 82 3d 25 58 a2 3c 4a 64 2b bc db 39 08 3d
       0.06393807 0.019817421 -0.0104609225 0.0332583
000350 22 a6 2b bd a5 08 97 3d 6d 4f 6c 3c 6b eb 01 3d
       -0.041906483 0.07374696 0.014423233 0.031718653
000360 a8 67 13 3d e6 4d 6f 3d c5 cc ac 3d 39 bd 18 3d
       0.035987526 0.0584239 0.08437494 0.03728983
000370 3c 81 ee 3c 3f 8e 1a 3b 14 96 ba 3d 8e df ae 3d
       0.029114358 0.002358332 0.091106564 0.085387334
000380 74 98 cc 3b ef dd 8c 3d 1e e4 1c 3d 77 fa cb 3c
       0.0062437598 0.06878268 0.038303487 0.024899704
000390 bb de af 3d 39 48 80 3c 60 50 0b 3d 51 fc b1 3c
       0.08587404 0.015659438 0.0340122 0.02172676
0003a0 55 a4 60 3c c7 57 88 3d a9 32 2c 3d e4 70 17 b9
       0.013711055 0.06657367 0.0420405 -0.00014442537
0003b0 04 04 33 3d f5 c4 36 3d b7 f5 c7 3c 2a 17 7b 3c
       0.043705 0.044621427 0.024409158 0.015325347
0003c0 ea 8f 99 3c 88 8b 99 3c 34 66 98 3d 03 e0 ea 3c
       0.018745381 0.018743291 0.07441369 0.02867127
0003d0 6c e2 a1 3d 40 d8 27 3c 44 10 e7 3c 2f 94 10 3c
       0.07904515 0.010244429 0.028205998 0.008824392
0003e0 79 e3 a1 3c f0 42 74 3c f1 25 e0 bc e9 00 13 3d
       0.019761788 0.014908537 -0.027361842 0.03588954
0003f0 ba a2 c5 bc 26 80 1f 3b 19 ca 70 3d d2 fb 85 3c
       -0.024125446 0.0024337857 0.058786485 0.016355429

lstm.weight_hh_l0 f4 [512, 128]
000000 96 cc e6 3a 25 e7 52 bd 3a 84 cb bc 37 19 57 bd
       0.0017608579 -0.051489968 -0.024843324 -0.05251428
000010 33 ed 11 3d 9c fc 72 3d 2b c3 77 bb 05 ff 70 bb
       0.0356266 0.05932294 -0.0037805538 -0.0036773097
000020 6a e4 9b 3c fc e4 a6 bb 0d 87 6c 3d ad a9 44 3d
       0.019029815 -0.005093215 0.057745982 0.048013378
000030 c9 15 53 3d aa d7 69 3c ed 02 b1 3b 25 a9 7b 3b
       0.051534448 0.01427261 0.00540196 0.0038400379
000040 a3 5d 59 bd dd c3 a0 bd 98 35 3f bc da 11 ac 3c
       -0.053067815 -0.07849858 -0.011670493 0.021004606
000050 67 f9 90 3d 2a ae aa 3d b8 e5 24 3d 24 33 5d bc
       0.0707882 0.083340004 0.04025814 -0.013500962
000060 63 42 fe bc 0d 4e f4 bc 12 e7 b7 3c dc 8d 96 bd
       -0.031037515 -0.029822374 0.02244905 -0.07351276
000070 25 29 00 3d 10 40 02 3c 9c 53 c3 bc 70 d9 61 3c
       0.03128924 0.007949844 -0.023843579 0.013784751
000080 70 19 41 bd 6c aa d7 bc 60 fb 74 bd 3d f4 48 3d
       -0.0471434 -0.02632638 -0.059810042 0.04906105
000090 d3 46 13 bd 8a 0b 79 3d 1e 75 c4 3c e9 3c 90 bd
       -0.035956215 0.06080202 0.023981627 -0.07042868
0000a0 77 93 9f bd 87 03 39 3d a1 d6 9d 3d 8d f5 82 3c
       -0.077917986 0.04516938 0.07706953 0.015986228
0000b0 24 78 bb 3c cf 29 97 3c b0 13 ff bb c2 0c af bd
       0.022884436 0.018452553 -0.0077843294 -0.08547355
0000c0 d5 70 94 bb 81 19 1f bd 84 43 2f 3d 51 c2 46 bd
       -0.004530052 -0.03884268 0.042788997 -0.04852516
0000d0 43 34 7e 3d ba 20 3e 3d 3a b1 ad bb e2 8c 50 bc
       0.06206156 0.04641793 -0.005300668 -0.012728902
0000e0 32 c2 48 3d 6c ad 38 3d dc 0e db bc 1b 7d 19 bc
       0.049013324 0.045087263 -0.026740484 -0.009368206
0000f0 b0 79 81 3c 9d 51 40 3d b1 7e 3e 3a 8d e1 0c 3d
       0.015805095 0.046952832 0.00072668033 0.03439479
000100 c6 01 4a bc dd a9 3c 3d dd 9d 3b 3d 2c 2b 42 3c
       -0.012329524 0.04606043 0.045804847 0.011851113
000110 8f a6 90 bb 26 61 9f 3c 88 0c 95 3c cc 35 1c bd
       -0.0044143866 0.019455504 0.018194452 -0.038137242
000120 48 12 20 bd d0 b6 a1 3c b8 c7 9d 3c 51 12 1d bd
       -0.039079934 0.019740492 0.019260272 -0.038347546
000130 99 d2 34 bd 63 dc 21 3d 2e d7 1e bc 80 c2 95 bc
       -0.044146154 0.039516818 -0.0096948575 -0.018281221
000140 ff 80 9e bd f8 ab 33 bd 75 af 39 bd f0 a0 1e bc
       -0.07739448 -0.043865174 -0.045333344 -0.009681925
000150 cc 2c c5 3c 29 db 07 3d 8d 20 91 bd e2 ff 0a bd
       0.024069212 0.03316799 -0.07086287 -0.033935435
000160 99 41 0a 3d b4 de 20 bd a6 c7 07 bd a5 f2 c1 bc
       0.033753965 -0.039274886 -0.033149384 -0.023675272
000170 95 7a 84 3d 07 65 ed 3c 47 8e 19 3d 14 81 00 3d
       0.06468693 0.028978838 0.037489202 0.0313731
000180 fd 98 67 3c 10 a0 8b 3d 1d 42 8c 3d 46 bc 28 bd
       0.014135596 0.06817639 0.068485476 -0.041195177
000190 29 4a 2a bc 11 df 9c 3d 94 1d 80 3c 89 73 4f bd
       -0.010393658 0.07659734 0.015639104 -0.050647292
0001a0 07 a8 57 bd 8e 3f ba 3a 39 45 05 bd f8 bd ab 3c
       -0.052650478 0.0014209615 -0.03253672 0.020964608
0001b0 b1 0e 45 bc 5b 04 16 3d 3d c6 d4 bc 01 6a 8b 3c
       -0.0120274285 0.036625247 -0.025973434 0.01701832
0001c0 29 cc ad bc 0a ae 8b bd 79 e9 6b 3d de 80 ce bd
       -0.021215515 -0.06820305 0.057595704 -0.10083173
0001d0 ed 38 8c 3d 22 0b 83 3b f9 4d 96 bd 05 1a 75 bc
       0.06846795 0.00399913 -0.07339091 -0.014959817
0001e0 e2 27 ea bc f4 8d ae 3c ff d3 01 bd e7 74 e0 bc
       -0.02858347 0.021307923 -0.031696316 -0.027399493
0001f0 d7 77 ab bd c9 1d 3b b9 40 bb 72 bc 84 f0 63 3c
       -0.08372467 -0.00017844806 -0.014815152 0.013912324
000200 a7 31 b7 3c 04 b4 d4 bb 46 b5 92 bc f0 60 f7 3c
       0.022362543 -0.006491186 -0.017908704 0.03019759
000210 4f 73 95 3b 23 f8 61 3d 56 56 f1 3b c6 41 17 3d
       0.004560865 0.055168282 0.0073650284 0.03692796
000220 a2 fa fa 3c 29 57 8a 3c 46 ce 24 3c 87 f6 0f 3c
       0.03063709 0.016887264 0.010058945 0.008786804
000230 eb d2 4f 3d d1 bd 4d 3c 44 7a ea 39 b6 4c b1 3b
       0.050738256 0.012557463 0.00044723053 0.005410756
000240 53 06 60 bc db 3a 7e bc 72 8d 99 3c c0 93 8e 3c
       -0.013673383 -0.015516962 0.018744204 0.017404437
000250 f7 84 98 3c de 13 3d 3d 01 77 c7 3c 47 01 92 3c
       0.01861809 0.046161525 0.024348738 0.017822875
000260 10 14 4f 3c 32 dc 2b bd f6 e4 b7 3c 77 9c d1 bc
       0.012639061 -0.04195804 0.022448044 -0.025587304
000270 93 4a 95 bb 54 77 32 bc 05 08 04 bd 51 d1 db 3b
       -0.004556009 -0.010892708 -0.03223421 0.006708302
000280 ce e0 76 bc 20 b2 c0 bb 31 3b 1d bc d3 10 a5 bc
       -0.015068246 -0.005880609 -0.009596632 -0.020149624
000290 40 91 8b bc ca f9 79 3b fc bb 6a 3c 60 f1 3a bd
       -0.017037034 0.003814327 0.0143270455 -0.04564035
0002a0 e8 95 b5 bc ea 8e 9a bd 09 84 22 3c 1f 2a 04 bd
       -0.022166207 -0.0754679 0.009919175 -0.032266732
0002b0 7b 47 82 bc e5 72 d3 bb 2f f3 57 3c 58 18 1f bc
       -0.015903225 -0.0064529055 0.013180538 -0.009710394
0002c0 e9 cf 85 bb e8 02 2d bd f0 b4 a7 3c 7b a0 36 3b
       -0.0040836227 -0.0422391 0.02047202 0.002786665
0002d0 d7 24 aa 3c 7f 4b 0f 3d e3 4f 01 bc d5 2d 10 bd
       0.02076952 0.034984108 -0.007892582 -0.03519996
0002e0 be 1a 9a 3c 4c 6f e6 bc f9 95 b2 bc ad d8 cd 3b
       0.01881158 -0.028129242 -0.021800028 0.0062819333
0002f0 2a db 46 bc 29 56 93 3c b3 f2 65 3c 81 68 d7 bb
       -0.012137214 0.01798542 0.014034915 -0.006573737
000300 d4 81 1e bb 25 f4 6c 3c fb ec 3b bc 33 c4 7a 3c
       -0.002418627 0.0144625055 -0.011470075 0.015305567
000310 f2 4f 49 bc a9 b5 ca bb 36 11 d6 3b 21 14 2e bd
       -0.012287127 -0.0061862064 0.0065328134 -0.042499665
000320 b0 55 33 bd d2 38 eb bb 7b 50 2c 3d 37 6d 02 bd
       -0.04378289 -0.0071784044 0.04206894 -0.031842437
000330 ba a8 c5 bb e7 52 0e bb 04 ec 4f 3c 4f 01 a8 bc
       -0.0060320767 -0.0021716894 0.012690548 -0.020508436
000340 22 d6 79 bd b4 40 e5 bc 4f 3d 64 3c 32 0b 6f bc
       -0.06099523 -0.027984954 0.013930633 -0.0145900715
000350 a7 0d 1b 3d c3 22 87 3c aa 6a f9 bb 79 7b 0c bb
       0.037854817 0.016496068 -0.0076115923 -0.00214359
000360 d1 41 8b 3c 8b bb 27 bc 82 27 10 3c 98 1e 01 3b
       0.016999157 -0.010237585 0.008798482 0.0019702073
000370 19 d5 a9 3c fc a5 8d 3c 26 da a5 bc ce eb 59 3b
       0.020731496 0.017291062 -0.020245623 0.0033252123
000380 1e bd 13 3d 9c 9c bc 3c 60 ee d3 3c ee 52 0d bd
       0.036069028 0.023023896 0.025870502 -0.034502916
000390 34 66 03 bc 6a 69 68 bc 18 45 e6 bb 91 2b 20 bd
       -0.008019973 -0.014185289 -0.0070272796 -0.03910405
0003a0 93 d4 1e bd 77 f8 81 bc 4e b9 53 bc 07 27 68 3c
       -0.038776945 -0.015865548 -0.012922598 0.014169461
0003b0 fb b5 a8 3c 1e a7 02 3c ee bd c4 bc 4e e6 cf 3c
       0.020594588 0.007974414 -0.024016347 0.025378373
0003c0 a9 33 8a bc 91 16 e3 3b f9 89 6f 3c f0 3d d1 bc
       -0.016870337 0.0069301804 0.014620298 -0.02554223
0003d0 63 73 4d 3d 12 e0 5a bc bd 6e 43 bb f5 51 3a bc
       0.05015887 -0.013359087 -0.0029820644 -0.011372079
0003e0 b5 72 c5 bb d4 11 6e 3c 09 a5 d9 bc 72 02 ec bc
       -0.006025637 0.014530618 -0.026567953 -0.02880976
0003f0 df ac 42 bb 43 75 c5 bc 7b 36 a1 bc 6c be 0a 3c
       -0.002970509 -0.024103766 -0.019679299 0.008468252
