outputs/models/best_hgc_lstm_11.pth (torch, 839494 bytes, 24 tensors)

gcn_layers.0.fc.weight f4 [64, 2]
0	0xbe0eea5b	-0.13956587
1	0x3f0dbb77	0.55364174
2	0xbc155271	-0.009113894
3	0x3e409ab7	0.18809019
4	0x3de5753c	0.11204001
5	0x3ed5f96e	0.41791862
6	0xb9d8e27f	-0.00041367483
7	0xbe5d2ecd	-0.21599884
8	0x3eba8dc0	0.36436272
9	0xbea9a1af	-0.33131167
10	0xbcd990cd	-0.026558304
11	0x3ea15d3a	0.3151644
12	0xbdf79fe3	-0.12091043
13	0x3edbc454	0.42923224
14	0x3bffdae5	0.0078080767
15	0xbe5064a2	-0.20350888
16	0x3f1418f5	0.5785058
17	0x3df161fc	0.11786267
18	0x3ea27764	0.31731713
19	0x3db6a78d	0.089186765
20	0xbe7fed13	-0.2499278
21	0xbf00e05c	-0.50342345
22	0xbee9f427	-0.45694086
23	0x3df169ce	0.11787759
24	0xbd3940a7	-0.045227673
25	0x3e9ef58f	0.3104672
26	0xbeeda531	-0.46415094
27	0xbf116738	-0.56798124
28	0xbe94f1f3	-0.29090843
29	0xbe766199	-0.24060668
30	0x3f23434d	0.6377457
31	0x3e91a25e	0.2844419
32	0xbed9d601	-0.42546085
33	0x3d5fb4f9	0.05461595
34	0xbe5befb8	-0.21478164
35	0xbba01d64	-0.004886316
36	0xbeb1e9a3	-0.34748563
37	0x3d699d13	0.057034563
38	0x3e0d8644	0.1382075
39	0xbf07788b	-0.5291831
40	0x3f0b5c0b	0.5443732
41	0x3ee8accd	0.45444337
42	0xbecc2e0a	-0.39878875
43	0xbf07d7fa	-0.5306393
44	0x3ef0f010	0.47058153
45	0x3eb73397	0.35781547
46	0xbed2f8a3	-0.4120532
47	0x3e155278	0.1458224
48	0xbee9ef17	-0.45690224
49	0x3e35ec2a	0.1776587
50	0x3e6ad9a8	0.22934592
51	0xbea2d905	-0.31806198
52	0xbdaa070f	-0.083021276
53	0xbf0039ee	-0.50088394
54	0x3c27546c	0.010212999
55	0xbea5987f	-0.32342908
56	0x3f2b341f	0.66876405
57	0x3e735777	0.23763834
58	0xbd4c3214	-0.049852446
59	0xbe8b697d	-0.2722892
60	0x3c85a204	0.016312607
61	0x3e7fa356	0.24964651
62	0x3ec45e77	0.3835332
63	0x3d8a9839	0.067673154
64	0x3e45e5a4	0.19325882
65	0x3d58b561	0.05290735
66	0xbef07db8	-0.46970916
67	0x3efdc528	0.4956448
68	0xbdd7a85a	-0.105301574
69	0xbf1647aa	-0.587031
70	0xbd253e78	-0.040342778
71	0xbed93eb6	-0.42430657
72	0x3ebd7835	0.37005773
73	0x3ecf495c	0.40485656
74	0x3e378f34	0.17925721
75	0xbedae96a	-0.42756206
76	0xbea9c50b	-0.33158144
77	0x3d7468b8	0.05967018
78	0xbb7e6705	-0.0038818729
79	0x3e431bde	0.19053599
80	0xbcbd5d37	-0.023115737
81	0x3e7d011f	0.24707459
82	0x3df8cb32	0.121481314
83	0x3dedb203	0.11606219
84	0xbead5448	-0.33853364
85	0xbeda043f	-0.42581365
86	0xbd4ce1eb	-0.05002014
87	0xbee698b8	-0.4503839
88	0xbec66aa7	-0.38753244
89	0x3ea94642	0.33061415
90	0x3b3da997	0.0028940195
91	0x3e61588b	0.22006433
92	0x3e9ed850	0.31024408
93	0x3b9812a0	0.004640892
94	0x3d83557c	0.06412789
95	0xbef71bbe	-0.48263353
96	0x3eac64c1	0.3367062
97	0x3a7f554d	0.0009740189
98	0xbd336861	-0.043800715
99	0x3e6f1265	0.2334686
100	0xbf0e6f9c	-0.5563905
101	0x3e029029	0.12750305
102	0x3f01b21c	0.506624
103	0xbf106da4	-0.564173
104	0xbecf24e3	-0.4045783
105	0x3e25a824	0.16177422
106	0xbd30ab67	-0.043132212
107	0xbedcb363	-0.4310561
108	0xbe5d4bc5	-0.21610935
109	0x3b944403	0.004524709
110	0x3c49854c	0.012299847
111	0x3e9e2eb8	0.3089502
112	0x3ea02222	0.3127604
113	0x3daecc5e	0.08535074
114	0xbe4a805b	-0.19775526
115	0x3e35921b	0.17731516
116	0x3f191c5d	0.59808904
117	0xbf1820ef	-0.5942525
118	0xbeda40e3	-0.4262763
119	0xbf087840	-0.53308487
120	0xbe90a178	-0.2824819
121	0xbe96391b	-0.29340443
122	0x3eb290d8	0.34876132
123	0xbee3ab9f	-0.44466874
124	0x3ed9f73a	0.4257143
125	0xbe9a1c8f	-0.30099913
126	0x3e214a01	0.15750886
127	0x3e3bdda6	0.18346271

gcn_layers.0.fc.bias f4 [64]
0	0x3660dfb4	3.3508813e-06
1	0xb629ddd8	-2.5312092e-06
2	0xb74a1273	-1.2044434e-05
3	0x37752f22	1.4614112e-05
4	0x378a0072	1.645109e-05
5	0xb5a62d5c	-1.2381165e-06
6	0x35633919	8.464718e-07
7	0xb69f4b7e	-4.7473577e-06
8	0x35b96d65	1.3815412e-06
9	0x379c0d84	1.8602943e-05
10	0x37223283	9.667713e-06
11	0xb6cb00a0	-6.049944e-06
12	0x37679008	1.3802208e-05
13	0x36b851a4	5.4931315e-06
14	0x379ce413	1.8702855e-05
15	0xb6a90bfa	-5.0379867e-06
16	0x36f84dad	7.4000186e-06
17	0x35da83cf	1.6280627e-06
18	0x33bc16f2	8.758606e-08
19	0xb5d3d27f	-1.5781987e-06
20	0x368c1a3c	4.175379e-06
21	0xb72ba182	-1.0229998e-05
22	0xb5be9f8d	-1.4202539e-06
23	0x356f9c1a	8.9261596e-07
24	0xb48b81f7	-2.598533e-07
25	0x364fab3a	3.094507e-06
26	0xb7256f7b	-9.8607225e-06
27	0xb6dfeb0f	-6.6732823e-06
28	0x354747e6	7.4237903e-07
29	0x3693fb07	4.410165e-06
30	0x3727c4ab	9.999766e-06
31	0xb67b45fc	-3.744265e-06
32	0xb70738bb	-8.059836e-06
33	0x359bf2e2	1.1619088e-06
34	0x36825055	3.883654e-06
35	0xb67e00d2	-3.7849427e-06
36	0x3796862a	1.7943868e-05
37	0x369a954e	4.606939e-06
38	0xb6ce48c1	-6.147748e-06
39	0xb67318c9	-3.6224249e-06
40	0x36c63399	5.9068666e-06
41	0xb734a8f3	-1.0768173e-05
42	0x370894ae	8.140849e-06
43	0xb36d4bc6	-5.5249778e-08
44	0xb5e63894	-1.7152802e-06
45	0x36804258	3.8224207e-06
46	0x3726c0b0	9.939235e-06
47	0xb63c8183	-2.8089569e-06
48	0xb7db4b00	-2.6141759e-05
49	0xb76f23d9	-1.42538565e-05
50	0xb642550a	-2.8957752e-06
51	0x37ad007c	2.0623433e-05
52	0xb7644353	-1.3605534e-05
53	0xb61b21b8	-2.3116427e-06
54	0xb64e42fd	-3.0735384e-06
55	0x35dba7e6	1.6365636e-06
56	0xb6c9bbff	-6.0121524e-06
57	0x3643b769	2.9164023e-06
58	0x36009b27	1.9163797e-06
59	0x37245639	9.795237e-06
60	0xb3a4b85d	-7.6703806e-08
61	0x36c57c91	5.885559e-06
62	0x3495fae0	2.7935948e-07
63	0xb83f2f36	-4.5581917e-05

gcn_layers.0.bn.weight f4 [64]
0	0x3f69ddf6	0.9135431
1	0x3f79930d	0.97490007
2	0x3f5de20d	0.8667305
3	0x3f5ff0db	0.8747689
4	0x3f57ab01	0.84245306
5	0x3f7e3fcf	0.99316114
6	0x3f4e805b	0.80664605
7	0x3f760b9c	0.96111465
8	0x3f7ad0b4	0.97974706
9	0x3f74c4b9	0.95612675
10	0x3f5f7e1a	0.8730179
11	0x3f65ae5d	0.8971918
12	0x3f573f70	0.8408117
13	0x3f3b888a	0.7325522
14	0x3f43ad10	0.7643595
15	0x3f54c26c	0.83109164
16	0x3f6105bf	0.8789939
17	0x3f39aa45	0.72525436
18	0x3f334b8f	0.7003717
19	0x3f6db3da	0.92852557
20	0x3f43a1f0	0.7641897
21	0x3f3e4728	0.74327326
22	0x3f314d0e	0.692582
23	0x3f43d64c	0.76498866
24	0x3f415b65	0.7553008
25	0x3f3590ac	0.70923877
26	0x3f435bd6	0.76312006
27	0x3f7e9674	0.99448323
28	0x3f6f1473	0.9339058
29	0x3f44412b	0.7666194
30	0x3f4d8458	0.80280066
31	0x3f69421d	0.91116506
32	0x3f599447	0.8499188
33	0x3f6496c7	0.8929257
34	0x3f43488e	0.76282585
35	0x3f60d377	0.8782267
36	0x3f528e98	0.8224883
37	0x3f577ae3	0.84171885
38	0x3f5f864a	0.87314284
39	0x3f5793fa	0.8421017
40	0x3f5de580	0.86678314
41	0x3f5939e3	0.84853953
42	0x3f5281d3	0.82229346
43	0x3f714aa0	0.94254494
44	0x3f354fff	0.7082519
45	0x3f633b3a	0.8876225
46	0x3f42a251	0.76028925
47	0x3f483a55	0.7821401
48	0x3f4aff8b	0.7929618
49	0x3f63d641	0.889988
50	0x3f68c17a	0.9092022
51	0x3f651cdd	0.89497167
52	0x3f5c09c0	0.8595238
53	0x3f560718	0.83604574
54	0x3f30e9c6	0.6910671
55	0x3f6f997e	0.93593585
56	0x3f66d551	0.90169245
57	0x3f5542ac	0.8330486
58	0x3f69b7cd	0.9129608
59	0x3f43209f	0.7622165
60	0x3f41feef	0.7577962
61	0x3f3d84a5	0.74030524
62	0x3f227403	0.6345827
63	0x3f609dc7	0.8774075

gcn_layers.0.bn.bias f4 [64]
0	0x3d912df8	0.07088846
1	0xbccbe110	-0.024887592
2	0xbd062d4c	-0.032758042
3	0xbd90c4a7	-0.070687585
4	0x3e719c5f	0.23594807
5	0x3e5871e3	0.21137194
6	0xbe90e013	-0.28295955
7	0xbddcab7b	-0.10774895
8	0xbe359274	-0.17731649
9	0x3cbf623d	0.023362273
10	0x3e9ec5a3	0.3101016
11	0xbc15126d	-0.009098631
12	0x3aaf95ae	0.0013396048
13	0x3e0a86bd	0.13527961
14	0xbdcf307d	-0.1011667
15	0x3ea49555	0.3214518
16	0xbdc51d0e	-0.09624682
17	0xbebd6ab3	-0.36995468
18	0xbe92dacd	-0.28682557
19	0x3e42e50a	0.19032684
20	0xbdde6370	-0.1085881
21	0x3dde1e3e	0.10845612
22	0xbcbed53c	-0.023295037
23	0x3e8b987e	0.2726478
24	0xbe0100fa	-0.12598029
25	0xbd6651d0	-0.056230366
26	0x3e7369a8	0.23770773
27	0xbeae795f	-0.34076974
28	0x3e59bc9a	0.21263352
29	0x3d1913d0	0.03737241
30	0xbe93f0bc	-0.28894603
31	0xbe6dece7	-0.23234902
32	0xbe2cc09b	-0.16870348
33	0xbd891355	-0.066931404
34	0xbe6d305a	-0.23162976
35	0xbe141847	-0.14462386
36	0x3d7af2bb	0.061266642
37	0x3e75805e	0.2397475
38	0x3d61e355	0.05514844
39	0x3dd6f8ec	0.10496697
40	0xbb171dc7	-0.002305852
41	0xbe664c5c	-0.22490066
42	0x3da7cda2	0.08193518
43	0xbe2fc294	-0.1716407
44	0x3da6e7b2	0.08149661
45	0x3e6244ca	0.22096553
46	0xbea960b8	-0.33081603
47	0xbd90461a	-0.07044621
48	0xbe75e089	-0.24011435
49	0xbcff0ede	-0.031135019
50	0xbde3d5e2	-0.11124779
51	0x3dbd30ba	0.092378095
52	0x3cc8f654	0.02453152
53	0xbb705145	-0.0036669534
54	0xbe4ecf89	-0.20196356
55	0x3dc5708f	0.096406095
56	0xbe2d4933	-0.16922455
57	0xbe826402	-0.25466925
58	0x3d8e15a3	0.069377206
59	0x3e7ed9e0	0.248878
60	0x3e2a34fa	0.16621771
61	0xbddee605	-0.108837165
62	0xbae31023	-0.0017323535
63	0xbe277f09	-0.16357054

gcn_layers.0.bn.running_mean f4 [64]
0	0x3e5443a4	0.20728928
1	0x3db748c0	0.08949423
2	0x3e871c0a	0.2638858
3	0xbddd4c46	-0.10805564
4	0x3c6e6409	0.014550217
5	0x3e13b919	0.14426078
6	0x3e1e3691	0.15450503
7	0xbdc88550	-0.09791052
8	0x3eb07b7c	0.3446921
9	0x3e4e24a6	0.20131168
10	0xbebfd239	-0.37465075
11	0xbe2af890	-0.16696382
12	0x3e07cbf1	0.13261391
13	0xbf03422a	-0.51272833
14	0xbe87103d	-0.26379576
15	0x3eea032d	0.45705548
16	0xbe3b464d	-0.18288536
17	0xbdde91e2	-0.10867669
18	0xbe12b439	-0.14326562
19	0xbe488c88	-0.19584858
20	0x3efdd267	0.49574587
21	0xbeec7386	-0.46181887
22	0x3ed2779c	0.4110688
23	0xbe05e9f3	-0.13077526
24	0xbe0c6716	-0.13711199
25	0xbd39ed77	-0.04539248
26	0xbe94f9bc	-0.29096782
27	0xbe203810	-0.15646386
28	0x3ee5e892	0.44904
29	0xbe2455d2	-0.16048363
30	0x3e07d65e	0.13265368
31	0x3e64ab28	0.22330916
32	0x3df9a4b8	0.12189621
33	0x3c7887e5	0.0151691185
34	0xbeb09b69	-0.3449357
35	0xbe6d30b5	-0.23163112
36	0x3ec50b79	0.38485315
37	0xbdff91c7	-0.12478977
38	0xbe093712	-0.13399914
39	0x3dbf2b5b	0.09334441
40	0x3de54115	0.11194054
41	0x3df1866b	0.11793216
42	0xbec26a3d	-0.37971678
43	0xbe7f66e3	-0.24941592
44	0xbcd749a6	-0.026280235
45	0x3de3ecf4	0.111291796
46	0x3e1f7bed	0.15574618
47	0xbe564412	-0.20924404
48	0x3e2b12b9	0.16706361
49	0x3dc25322	0.094885126
50	0xbe5873cf	-0.21137927
51	0xbd000114	-0.03125103
52	0xbdf41414	-0.11917892
53	0xbe721510	-0.23640847
54	0xbdd659e4	-0.10466364
55	0x3e2424b7	0.1602963
56	0x3e49ddd0	0.19713521
57	0xbc13b0de	-0.009014336
58	0xba8b8c5c	-0.0010646689
59	0xbef404d2	-0.47659928
60	0xbe9269bc	-0.28596294
61	0xbd4b0c9a	-0.049572565
62	0x3d75de63	0.060026538
63	0x3e2d6663	0.16933589

gcn_layers.0.bn.running_var f4 [64]
0	0x3d4b4908	0.049630195
1	0x3bb78880	0.005600989
2	0x3ce7ff83	0.02832008
3	0x3bf18be2	0.0073714117
4	0x3cd2d0d6	0.025734346
5	0x3c80eb2c	0.015737139
6	0x3cf5fba6	0.030027222
7	0x3bd6c6a3	0.006554441
8	0x3cbe744d	0.023248816
9	0x3bf8a195	0.0075876215
10	0x3d33af82	0.04386855
11	0x3c7bb58b	0.015363107
12	0x3c7b8d49	0.015353509
13	0x3d83e225	0.06439618
14	0x3c6cbbec	0.014449101
15	0x3d1cfc05	0.038326282
16	0x3c429d29	0.01187829
17	0x3b3ef3fa	0.002913712
18	0x3c052bf6	0.008128157
19	0x3d3a16d2	0.04543192
20	0x3d51875b	0.051154476
21	0x3d5ebafb	0.054377537
22	0x3d0ba1bf	0.0340898
23	0x3c668772	0.014070379
24	0x3c94c0f9	0.018158423
25	0x3c9e2166	0.019303035
26	0x3d23caa9	0.039988194
27	0x3c8770f1	0.016533347
28	0x3d17adfa	0.03703115
29	0x3c421aea	0.011847237
30	0x3c216746	0.009851282
31	0x3c237248	0.009975977
32	0x3b36d7ce	0.0027899626
33	0x3d58051b	0.052739244
34	0x3d6182bf	0.05505633
35	0x3ce980c9	0.028503792
36	0x3d0cff17	0.03442296
37	0x3cfd2447	0.030901087
38	0x3bf581d1	0.007492282
39	0x3bbc4c44	0.0057463963
40	0x3c1e8fbc	0.009677824
41	0x3b47e38c	0.0030500619
42	0x3d128c47	0.03577831
43	0x3d03a804	0.032142654
44	0x3cdb41e7	0.026764823
45	0x3bfa7f50	0.0076445714
46	0x3bc6e949	0.00607029
47	0x3d17c0ee	0.037049226
48	0x3bea4fc4	0.007150622
49	0x3c0f077f	0.008729815
50	0x3cb4fcc7	0.02209319
51	0x3d88315e	0.06650041
52	0x3c6cf2d5	0.014462193
53	0x3cf0f4b0	0.029413551
54	0x3b4179c5	0.0029522043
55	0x3c76ee88	0.015071519
56	0x3bef4066	0.007301378
57	0x3bf3e3cf	0.0074429284
58	0x3da0895f	0.078387015
59	0x3d66396b	0.0562071
60	0x3c9838c8	0.018581763
61	0x3d1f6ba4	0.038921013
62	0x3cd313e5	0.025766322
63	0x3be0ba0b	0.0068581156

gcn_layers.1.fc.weight f4 [64, 64]
0	0x3e04554b	0.12923162
1	0x3e04e981	0.129797
2	0x3e217e81	0.15770914
3	0x3d9bb2c8	0.07602459
4	0x3d56285b	0.05228458
5	0x3df0bc65	0.117546834
6	0x3e3ba27e	0.18323705
7	0x3d9f3bb6	0.07775061
8	0xbcc3e645	-0.023913512
9	0x3d91a15c	0.07110855
10	0x3d8c9a48	0.06865364
11	0x3d79daeb	0.060999792
12	0x3dacd428	0.08438903
13	0xbd5a44e8	-0.05328837
14	0x3d084808	0.03327182
15	0x3d1b978d	0.037986327
16	0x3c3f66f5	0.011682262
17	0x3d93327d	0.07187364
18	0x3d2f23f4	0.042758897
19	0x3ddc2d59	0.10750837
20	0x3dd7cf8a	0.10537632
21	0xbd2cc407	-0.042179134
22	0x3c0bb2a9	0.008526483
23	0x3dc32ac8	0.09529644
24	0xbc971101	-0.018440725
25	0x3d6d4deb	0.057935636
26	0xbd4744ea	-0.048649706
27	0x3cc8f34b	0.024530074
28	0x3dc8b52f	0.09800183
29	0x3decd425	0.11563901
30	0x3e1113f9	0.14167775
31	0xbd5e2107	-0.054230716
32	0x3d31998b	0.04335932
33	0x3e268656	0.16262183
34	0xbd053013	-0.03251655
35	0x3d09ebaa	0.033672012
36	0x3e32d08b	0.17462365
37	0x3de28c70	0.110619426
38	0x3c1fc888	0.0097524
39	0x3dc707ad	0.09718261
40	0x3de68155	0.11255137
41	0x3d93318c	0.07187185
42	0xbd7f8ea2	-0.062391885
43	0x3d13eea7	0.03611627
44	0x3dcea515	0.10090081
45	0x3d03b384	0.03215362
46	0xbd811375	-0.06302539
47	0xbd3dfa3a	-0.046381213
48	0xbbfac517	-0.0076528895
49	0x3d9c82e8	0.07642156
50	0x3be0cea8	0.006860573
51	0xbd0cd500	-0.03438282
52	0xbcc402e9	-0.023927169
53	0xbd0462a4	-0.032320634
54	0xbd7acee1	-0.06123245
55	0xbb8fecf1	-0.0043922593
56	0xbd94c11b	-0.072633944
57	0x3c239a31	0.009985493
58	0xbc7a0ea5	-0.015262281
59	0x3ce27dcf	0.02764788
60	0x3d962f01	0.07333184
61	0xbd241850	-0.04006225
62	0x3d8a735e	0.06760286
63	0x3dcdfa6e	0.10057531
64	0xbdcb8522	-0.099375024
65	0xbde92675	-0.11384288
66	0xbdafd283	-0.08585074
67	0x3c08e3ed	0.008355123
68	0x3dd99116	0.10623376
69	0xbe027d73	-0.12743168
70	0xbcf0bfd7	-0.029388351
71	0x3d5258fa	0.051354386
72	0x3d12371c	0.035697088
73	0xbdd2f49c	-0.10300562
74	0x3d7a3f19	0.06109533
75	0x3d7cb0a0	0.06169188
76	0xbdd4dcb1	-0.10393656
77	0x3cc1cd5d	0.023657495
78	0xbc4d3a5a	-0.012526119
79	0xbda42b49	-0.080160685
80	0xbd9d2fc8	-0.07675129
81	0x3d6f7439	0.058460448
82	0xbb28c742	-0.0025753533
83	0xbcdf2723	-0.027240342
84	0xbda92eba	-0.082608655
85	0xbdadf04f	-0.08493101
86	0xbd9f7e8e	-0.0778781
87	0xbd37b38e	-0.04484897
88	0xbdedc6bc	-0.11610171
89	0xbd38cf0c	-0.04511933
90	0x3de2da1a	0.11076756
91	0x3d48f393	0.049060415
92	0xbd5ae815	-0.053443987
93	0x3d37d4fa	0.044880845
94	0xbd4146b9	-0.047186587
95	0xbcf2b88a	-0.02962901
96	0x3d4fa79a	0.050696947
97	0xbd20a8f3	-0.039223623
98	0x3d38b12f	0.04509085
99	0x3d43d60a	0.047811545
100	0xbdebdb18	-0.11516398
101	0xbce8082f	-0.028324215
102	0xbdb0190c	-0.08598527
103	0xbe041215	-0.12897523
104	0xbd87e701	-0.066358574
105	0xbd9952cf	-0.074864976
106	0x3d6026b5	0.054724414
107	0x3cd349dc	0.025792055
108	0xbdfd240a	-0.123603895
109	0xbe0bf20f	-0.13666557
110	0x3c9f6d2f	0.019461242
111	0x3db4967a	0.088177636
112	0xbd2eb03a	-0.04264853
113	0xbd98c5db	-0.07459613
114	0xbb1703b9	-0.002304299
115	0xbd55d62a	-0.052206196
116	0xbb58cf14	-0.0033082413
117	0x3c2a7ccf	0.010405733
118	0x3d2e7f4e	0.042601876
119	0xbde54089	-0.1119395
120	0xbd4f7d38	-0.050656527
121	0xbd5395e5	-0.051656622
122	0xbd38f19b	-0.045152288
123	0xbd9d59ee	-0.07683168
124	0x3cb1d7ed	0.021709407
125	0xbd4d6589	-0.05014566
126	0x3d976aa3	0.07393386
127	0xbd640bf8	-0.055675477
128	0xbc4820c2	-0.012214841
129	0xbe38d9de	-0.1805186
130	0xbc89f478	-0.016840205
131	0xbd7f8eb2	-0.062391944
132	0x3da45db4	0.08025685
133	0xbd9a8f5d	-0.075468756
134	0xbe087700	-0.13326645
135	0xbe24635b	-0.16053526
136	0xbdbc83f8	-0.092048585
137	0x3d12d60e	0.03584867
138	0xbdaea216	-0.08527009
139	0xbdc384a9	-0.09546787
140	0xbdfe8c67	-0.12429123
141	0xbdb77435	-0.089577116
142	0x3c28f32e	0.010311885
143	0xbdc34875	-0.095353045
144	0xbd4a9863	-0.049461734
145	0xbc4cfdb7	-0.012511662
146	0x3c7dae83	0.015483501
147	0xbda4626b	-0.08026584
148	0x3c8d2360	0.017228782
149	0xbcfba7fa	-0.030719746
150	0xbdd2ecf0	-0.102990985
151	0x3c195212	0.009357946
152	0xbd945930	-0.07243574
153	0xbdb07d56	-0.08617656
154	0x3d500f70	0.050795972
155	0xbd244423	-0.040104043
156	0xbca1ca15	-0.01974968
157	0xbd3b5b10	-0.04574114
158	0xbdef4840	-0.116837025
159	0xbc3be288	-0.0114675835
160	0x3d31244d	0.04324751
161	0xbe2cda09	-0.16880049
162	0xbc18ab62	-0.009318205
163	0xbd437be5	-0.047725577
164	0xbe3693ca	-0.17829815
165	0xbe0130e6	-0.1261631
166	0x3d4845cf	0.0488947
167	0x3c97a562	0.018511478
168	0xbddaf7bc	-0.10691783
169	0x3ccae7d2	0.024768744
170	0xbd78c4e9	-0.060734663
171	0xbd4e4a03	-0.05036355
172	0xbd778471	-0.06042904
173	0x3d200957	0.039071407
174	0xbd8b47d4	-0.068008095
175	0xbde41c1f	-0.11138176
176	0xbc86e818	-0.016468093
177	0xbce0e165	-0.027451226
178	0x3d3c003c	0.04589866
179	0xbdf0a0d4	-0.117494255
180	0xbdde43a0	-0.10852742
181	0x3bbf4e8b	0.0058382205
182	0x3cd113a3	0.025522059
183	0xbe1b629b	-0.15174334
184	0x3d596205	0.053071994
185	0x3d53dd69	0.051724825
186	0xbdf5130d	-0.11966524
187	0x3d200dff	0.039075848
188	0xbd8cf237	-0.06882136
189	0x3c82bfaf	0.015960542
190	0x3da1cfe4	0.0790098
191	0xbe2669a4	-0.16251236
192	0x3d0335d8	0.03203377
193	0xbd99d0ab	-0.075105034
194	0xbd329725	-0.043601174
195	0xbd721213	-0.05909927
196	0x392c0164	0.00016403716
197	0x3e14c86f	0.14529584
198	0x3cd4d403	0.025980001
199	0xbc1e31a9	-0.009655395
200	0x3d497473	0.04918332
201	0xbcec066b	-0.028811654
202	0xbd93389f	-0.07188534
203	0xbe09f47b	-0.13472168
204	0x3d9be36e	0.07611738
205	0xbc4d050c	-0.01251341
206	0xbc3f8a63	-0.011690709
207	0xbe2aeb81	-0.166914
208	0xba0d2937	-0.00053848646
209	0x3e14c93d	0.14529891
210	0xbd8de7e1	-0.06928993
211	0xbd9e40e8	-0.07727224
212	0xbe08198b	-0.13290994
213	0xbe235f08	-0.1595422
214	0xbdd19c0c	-0.10234842
215	0xbb78c627	-0.0037959905
216	0xbe28909f	-0.16461419
217	0x3c306dd0	0.010768369
218	0x3d253fcc	0.040344045
219	0x3d0d6060	0.03451574
220	0xbe1e40ff	-0.15454482
221	0x3d13c80a	0.036079444
222	0xbd29b002	-0.04142762
223	0xbd3ce31a	-0.04611502
224	0x3cc1a98c	0.023640417
225	0xbe5e20c5	-0.21692188
226	0x3d20d885	0.03926899
227	0x3ccaf65d	0.024775678
228	0xbe276c5c	-0.1634993
229	0xbc3bbe7c	-0.011458989
230	0xbd00d068	-0.03144875
231	0x3d07dd39	0.03316996
232	0xbce406a1	-0.027835192
233	0xbe0a6a43	-0.13517098
234	0xbd4ad033	-0.04951496
235	0xbd9524dd	-0.07282422
236	0xbcdc687f	-0.026905296
237	0x3d8cd9ff	0.06877517
238	0x3d9426e5	0.07233981
239	0xbd9f3a7d	-0.07774828
240	0x3d918587	0.071055464
241	0x3c617d65	0.013762807
242	0x3c91f1d5	0.01781551
243	0xbde772e9	-0.11301214
244	0xbe0d0d81	-0.13774683
245	0xbe0a0073	-0.13476734
246	0x3dabbfd8	0.08386201
247	0x3dba600b	0.0910035
248	0xbd5f8d1d	-0.054577935
249	0xbe719b5e	-0.23594424
250	0x3c52a7a1	0.012857349
251	0xbc4e296c	-0.012583118
252	0x3d7ec2c3	0.062197458
253	0xbda81f7f	-0.082091324
254	0xbcb7ffc2	-0.022460822
255	0xbdef7ba6	-0.11693506

gcn_layers.1.fc.bias f4 [64]
0	0xb5b13846	-1.3203905e-06
1	0x365321b0	3.1461059e-06
2	0x36959808	4.458245e-06
3	0xb6884103	-4.060684e-06
4	0xb5c5be8c	-1.47331e-06
5	0xb61f5225	-2.374066e-06
6	0x369c9cc5	4.6674127e-06
7	0x35a38470	1.2182991e-06
8	0x345041b5	1.9395414e-07
9	0x36802855	3.8193925e-06
10	0x362d6871	2.5839802e-06
11	0xb2435409	-1.1369601e-08
12	0xb5c369c1	-1.4559411e-06
13	0xb5e4a44d	-1.7035142e-06
14	0xb57305d0	-9.053301e-07
15	0xb59b3e45	-1.1566523e-06
16	0x372b55d0	1.0212374e-05
17	0x367a07a1	3.7257344e-06
18	0xb5013a7c	-4.814135e-07
19	0xb5639719	-8.4783966e-07
20	0x33f216b8	1.1273136e-07
21	0xb5e7d3b3	-1.7272454e-06
22	0xb7b4124c	-2.1466192e-05
23	0x36861245	3.995638e-06
24	0xb4fcdca4	-4.7099195e-07
25	0x36140e10	2.2061904e-06
26	0x3591036c	1.0804338e-06
27	0xb5ee7936	-1.7767659e-06
28	0x37d059e5	2.4837393e-05
29	0xb6d1e24b	-6.2550293e-06
30	0xb5882c21	-1.0145633e-06
31	0xb6c829ac	-5.9653157e-06
32	0x36247246	2.450442e-06
33	0x347529ea	2.2832651e-07
34	0x359a6349	1.150279e-06
35	0x35c4e73b	1.4670435e-06
36	0xb5f56052	-1.8281955e-06
37	0x345f30a0	2.0786183e-07
38	0x34a4f7d7	3.0727708e-07
39	0x3587db1d	1.0122054e-06
40	0xb327991c	-3.902197e-08
41	0xb630eea9	-2.6364962e-06
42	0xb72a77fd	-1.0160727e-05
43	0x36439de4	2.9149169e-06
44	0xb53aa23c	-6.952648e-07
45	0xb62a00e1	-2.5332486e-06
46	0xb3b4a4c6	-8.411875e-08
47	0xb6ec7cdf	-7.047885e-06
48	0x35a50087	1.2293611e-06
49	0xb58ac5f7	-1.0339417e-06
50	0xb74f3a18	-1.23516875e-05
51	0xb60c9cfa	-2.0952998e-06
52	0xb3a09761	-7.478116e-08
53	0x36436e7b	2.9121572e-06
54	0xb58db030	-1.0556596e-06
55	0x36eb3e0d	7.0107694e-06
56	0x35f49728	1.8223409e-06
57	0x35a9d088	1.2652172e-06
58	0xb617b956	-2.2608633e-06
59	0x363acb84	2.7834622e-06
60	0xb4914942	-2.7061657e-07
61	0xb723bff3	-9.760249e-06
62	0xb455d929	-1.9916173e-07
63	0xb6a6e987	-4.9743717e-06

gcn_layers.1.bn.weight f4 [64]
0	0x3fa0411b	1.2519869
1	0x3f599f1b	0.850084
2	0x3f897474	1.0738664
3	0x3f911b0f	1.1336383
4	0x3f94177f	1.156967
5	0x3f8cf2d0	1.10116
6	0x3f9c4a23	1.2210125
7	0x3f6cf0ac	0.92554736
8	0x3f8a7d68	1.0819521
9	0x3f5c31fb	0.86013764
10	0x3f91f750	1.1403599
11	0x3f831131	1.0239621
12	0x3f81cd3e	1.014076
13	0x3f77e1be	0.9682883
14	0x3f8ccb74	1.0999589
15	0x3f79213f	0.97316355
16	0x3f8ec705	1.1154486
17	0x3f54b430	0.83087444
18	0x3fa6f640	1.30439
19	0x3fa5881e	1.2932165
20	0x3f88c676	1.0685565
21	0x3fc5cb37	1.5452641
22	0x3f9b6318	1.2139616
23	0x3f946405	1.1593024
24	0x3f8ac763	1.0842098
25	0x3f8f0851	1.1174413
26	0x3f587e95	0.8456815
27	0x3f6b2f6f	0.9186925
28	0x3faf3cbf	1.3690413
29	0x3f851351	1.039652
30	0x3f99052f	1.1954707
31	0x3f748962	0.9552213
32	0x3f9b86c7	1.2150506
33	0x3f6b45fd	0.9190367
34	0x3f925b0c	1.1434035
35	0x3fa11656	1.2584941
36	0x3f74f8fe	0.9569243
37	0x3f87269d	1.0558659
38	0x3f87d452	1.061167
39	0x3f8219c7	1.0164117
40	0x3f8f92d9	1.1216689
41	0x3f5bdfe5	0.8588851
42	0x3f8adcd1	1.0848638
43	0x3f9075ec	1.1285987
44	0x3fa6f639	1.3043891
45	0x3f80b88a	1.0056317
46	0x3f926dd1	1.1439763
47	0x3f9bc080	1.2168121
48	0x3fa80a60	1.3128166
49	0x3f8d4003	1.103516
50	0x3fae5757	1.3620404
51	0x3f996280	1.1983185
52	0x3f8a463d	1.0802685
53	0x3f59fc5d	0.851507
54	0x3fa22fd3	1.2670845
55	0x3f9d94c6	1.2311027
56	0x3fb53a12	1.4158347
57	0x3f934a07	1.1506966
58	0x3f5d023d	0.8633154
59	0x3f79e8a8	0.9762063
60	0x3fa41ea1	1.2821847
61	0x3f89f09b	1.0776552
62	0x3f92e4f4	1.1476121
63	0x3f8b944a	1.0904629

gcn_layers.1.bn.bias f4 [64]
0	0x3dac1a81	0.08403493
1	0x3cfdafe8	0.030967668
2	0xbd4172a5	-0.047228474
3	0x3bf1f66d	0.0073841126
4	0x3d9f9151	0.07791389
5	0x3dd519b7	0.10405295
6	0xbe17eca6	-0.14836368
7	0x3dcc30a3	0.09970214
8	0xbad94b3a	-0.0016578205
9	0xbc108402	-0.008820536
10	0x3d25943c	0.04042457
11	0x3d81f61b	0.06345769
12	0x3dad885d	0.08473275
13	0x3d376b43	0.044780027
14	0xbcf1a412	-0.02949718
15	0x3d0ff2b5	0.035143573
16	0xbe5dbf21	-0.21654941
17	0xbc79b605	-0.015241151
18	0x3dc1b25b	0.09457847
19	0x3d1c84c7	0.038212564
20	0xbcc3d9c4	-0.02390755
21	0x3e0915e6	0.1338726
22	0x3de26065	0.11053542
23	0x3c94f7d7	0.018184585
24	0x3e046130	0.12927699
25	0x3c9a4b05	0.0188346
26	0x3d99fcc3	0.075189136
27	0x3c051441	0.008122505
28	0xbe98b55a	-0.2982586
29	0x3bf3cd33	0.007440233
30	0xbd8e3a98	-0.069447696
31	0x3dab5850	0.08366454
32	0x3dbc42db	0.09192439
33	0x3d66cf99	0.056350324
34	0x3e1f5c4b	0.1556255
35	0x3b7994a4	0.0038082981
36	0x3da2fa3e	0.07957886
37	0x3db0eb71	0.08638657
38	0x3ddf703c	0.10910079
39	0x3db7a438	0.08966869
40	0x3d53b44f	0.051685628
41	0x3db4cc63	0.08828046
42	0x3ccd6034	0.025070287
43	0x3e1d0c92	0.15336826
44	0x3e597c75	0.21238883
45	0x3dee8c02	0.11647798
46	0x3e09e847	0.13467513
47	0xbdb498d5	-0.08818213
48	0x3da4c3cc	0.08045158
49	0x3ca89f74	0.020583846
50	0x3b699f54	0.0035647945
51	0x3da5111e	0.080599055
52	0x3d706937	0.05869409
53	0xbd3eceda	-0.046583988
54	0x3e5e41ae	0.21704742
55	0x3cbfa7ae	0.023395386
56	0xbbebb9be	-0.007193773
57	0x3e2bbdc5	0.1677161
58	0x3d802433	0.062569045
59	0x3a8b30fc	0.0010619457
60	0x3e217753	0.15768175
61	0x3da2dca5	0.07952241
62	0x3b839a62	0.0040162066
63	0x3d8c8b8f	0.06862556

gcn_layers.1.bn.running_mean f4 [64]
0	0x3f81cd91	1.0140859
1	0xbf2af761	-0.6678372
2	0xbf8423d3	-1.0323433
3	0xbf2cb04b	-0.674565
4	0x3eea23eb	0.45730528
5	0x3fa6fc95	1.3045832
6	0xbe06695b	-0.13126127
7	0xbf15277a	-0.5826336
8	0xbe8525a6	-0.26005286
9	0xbdd88716	-0.105726406
10	0x3f64619b	0.89211434
11	0xbf91ef5f	-1.1401175
12	0xbe7a18a9	-0.2442347
13	0xbe9134da	-0.28360635
14	0x3f9094b0	1.1295376
15	0x3ef649c3	0.4810315
16	0xbe67919a	-0.22614136
17	0xbf1f41c5	-0.6220973
18	0x3f29711e	0.6618823
19	0x3f880c44	1.0628743
20	0x3f7416ce	0.953473
21	0x3ed144b9	0.40872744
22	0xbe97733d	-0.29580107
23	0x3f7a7c48	0.9784589
24	0xbe90eefb	-0.28307328
25	0x3f5fcddc	0.8742349
26	0xbe91ce61	-0.28477767
27	0xbeb76ffc	-0.35827625
28	0xbc95ded8	-0.018294737
29	0xbf915748	-1.1354761
30	0x3e6436f2	0.22286585
31	0xbf41e898	-0.75745535
32	0x3f3d98ed	0.7406147
33	0xbe410deb	-0.18852966
34	0xbd94a033	-0.07257118
35	0x3f9b60f2	1.213896
36	0xbf3179fc	-0.6932676
37	0xbec272bc	-0.3797816
38	0xbe7e5af0	-0.24839377
39	0x3f92a0a5	1.1455275
40	0xbf189623	-0.5960409
41	0xbe814d3e	-0.25254244
42	0xbf27ff07	-0.65623516
43	0xbe3e0046	-0.18554792
44	0x3f4ac8d2	0.7921268
45	0x3cb4476f	0.022006718
46	0x3f95042f	1.1641902
47	0xbf2acd41	-0.6671944
48	0x3f048346	0.5176281
49	0x3f67d866	0.9056457
50	0xbec8e60a	-0.39238006
51	0x3f802325	1.0010725
52	0x3f503c3b	0.81341904
53	0x3ddc20ad	0.1074842
54	0x3f5b7a31	0.85733324
55	0xbf69e644	-0.9136698
56	0xbe2a680c	-0.16641253
57	0x3f199822	0.5999776
58	0xbe847e4c	-0.25877607
59	0xbf17e0e1	-0.5932751
60	0x3f3888b0	0.7208357
61	0xbfa26117	-1.268588
62	0x3f903eef	1.1269206
63	0xbf6ecc5a	-0.93280566

gcn_layers.1.bn.running_var f4 [64]
0	0x3f391d59	0.72310406
1	0x3f85c20b	1.0449842
2	0x3ec4dda6	0.38450354
3	0x3e190d2a	0.14946428
4	0x3ee45b51	0.4460092
5	0x3f3784db	0.71687096
6	0x3d61c68e	0.055120997
7	0x3fa5b140	1.2944717
8	0x3d8bda85	0.06828789
9	0x3e1ccf95	0.15313561
10	0x3f22bd67	0.63570255
11	0x3ebf9eb5	0.3742577
12	0x3f6a8d3b	0.9162175
13	0x3f4cd913	0.8001873
14	0x3f676213	0.90384024
15	0x3f31f4e1	0.6951428
16	0x3db9d52e	0.09073864
17	0x3edacab3	0.42732772
18	0x3ef826c4	0.48467076
19	0x3f5cef03	0.863022
20	0x3f1ce802	0.61291516
21	0x3e79c9f7	0.2439345
22	0x3da2f051	0.07955993
23	0x3f2e7c2c	0.6815822
24	0x3f856c93	1.0423759
25	0x3f114ada	0.5675484
26	0x3f944dba	1.158622
27	0x3e11e29b	0.142466
28	0x3db57b77	0.0886144
29	0x3eddb6cb	0.43303522
30	0x3dc27f60	0.09496951
31	0x3f8699b5	1.0515658
32	0x3ed976bf	0.4247341
33	0x3f5532fe	0.8328093
34	0x3f7d7965	0.9901336
35	0x3f715ca9	0.94282013
36	0x3f8c8d87	1.0980691
37	0x3f807651	1.0036107
38	0x3f366826	0.7125267
39	0x3f1610d8	0.5861945
40	0x3e197e7b	0.14989655
41	0x3fc4ab99	1.5364867
42	0x3e0f15f8	0.13973224
43	0x3f2578cd	0.6463745
44	0x3f0d2f98	0.5515075
45	0x3f4cc102	0.79982007
46	0x3f1c59d8	0.6107459
47	0x3e7257ba	0.23666278
48	0x3e93f6ad	0.28899136
49	0x3f099874	0.5374825
50	0x3e0fbe9f	0.1403756
51	0x3f5054d0	0.81379414
52	0x3f198e0d	0.5998238
53	0x3ebb377b	0.36565766
54	0x3f2fecb9	0.68720585
55	0x3ed12d57	0.40854904
56	0x3d95b76b	0.07310375
57	0x3ea4697c	0.32111728
58	0x3fa3b5ee	1.2789896
59	0x3f06dd25	0.5268119
60	0x3f0bf348	0.5466809
61	0x3f011033	0.50415343
62	0x3f592108	0.84816027
63	0x3e736b0a	0.23771301

joint_attention.attention.weight f4 [1, 64]
0	0xbd81cd9d	-0.06338046
1	0x3d1ebada	0.038752414
2	0xbd59754b	-0.053090375
3	0x3c7e8963	0.015535685
4	0x3c4dc48e	0.012559069
5	0x3d1fbbd6	0.038997494
6	0xbde6fb6f	-0.11278426
7	0x3c8ec62f	0.017428486
8	0xbd244579	-0.040105317
9	0xbcbb7033	-0.02288065
10	0xbdd72186	-0.10504441
11	0x3dddb90f	0.10826313
12	0xbd5c3c44	-0.05376841
13	0xbcc6c187	-0.024262203
14	0x3dc5c5b6	0.09656851
15	0x3db5ff07	0.08886533
16	0xbc5023f4	-0.012703884
17	0xbd29fc6b	-0.04150049
18	0xbdad86cb	-0.08472975
19	0xbcff44a5	-0.031160662
20	0xbd2457a5	-0.040122647
21	0xbd9a9e4a	-0.075497225
22	0xbe23b105	-0.15985496
23	0xbd93a6b2	-0.07209529
24	0xbde40aa1	-0.1113484
25	0xbdbab3e0	-0.0911634
26	0x3c904b13	0.017613923
27	0x3c232a8e	0.009958876
28	0xbe40113a	-0.18756571
29	0x3b1229b0	0.002230268
30	0xbc1c9f6d	-0.009559494
31	0x3d4006d5	0.046881516
32	0xbdb0e01e	-0.08636497
33	0xbd2cbc7d	-0.042171944
34	0xbdcbe9e4	-0.099567205
35	0x3b83f3b7	0.004026856
36	0x3c8b480f	0.017002134
37	0xbdaf294d	-0.085527994
38	0xbd8967a1	-0.06709219
39	0x3cd9bd80	0.026579618
40	0xbd270d89	-0.040784393
41	0x3d833583	0.06406691
42	0x3c3fe44b	0.011712144
43	0xbd9c9baf	-0.07646882
44	0xbd936cc6	-0.07198481
45	0xbcc20f35	-0.023688892
46	0x3bc48b2b	0.0059980354
47	0xbe1ceecd	-0.1532547
48	0xbd9a472b	-0.075331055
49	0xbd902502	-0.07038309
50	0xbdf1a850	-0.11799681
51	0xbdc9b5ea	-0.098491505
52	0xbd5af4e9	-0.05345622
53	0xbdc46c39	-0.09590954
54	0xbdf90aa2	-0.12160231
55	0xbe03544e	-0.12825128
56	0xbdd5d8e5	-0.1044176
57	0xbd0d543e	-0.034504168
58	0x3d14f7a0	0.036368966
59	0xbd04c4b1	-0.032414142
60	0xbd9c4c18	-0.07631701
61	0x3e0c38bd	0.13693519
62	0x3d45e099	0.048309896
63	0x3c74386d	0.014906031

lstm.weight_ih_l0 f4 [512, 64]
0	0x3c4dd49b	0.012562896
1	0x3ca5b0ac	0.020225845
2	0x3d25d680	0.040487766
3	0x3d6d7a29	0.05797783
4	0x3c48c3d1	0.0122537175
5	0x3cd44ad6	0.02591459
6	0x3cd8098e	0.026371744
7	0x3cbc9cc3	0.023023969
8	0x3c89cbb8	0.016820773
9	0x3c88b521	0.016687931
10	0x3c3a16dc	0.011357989
11	0x3d452908	0.048134834
12	0x3cd76d4a	0.02629723
13	0x3cce14ef	0.025156466
14	0x3c11e53c	0.008904751
15	0x3c60d9c9	0.013723799
16	0x3c9f93b4	0.01947961
17	0x3ca18512	0.019716773
18	0x3cfe55d4	0.031046785
19	0x3c487806	0.012235647
20	0x3c13a132	0.0090106
21	0x3d199d64	0.037503615
22	0x3d518ba7	0.051158573
23	0x3c2c40dd	0.0105135115
24	0x3ceb3900	0.028713703
25	0x3c296069	0.010337927
26	0x3ca085fa	0.019595135
27	0x3cc1e31c	0.023667865
28	0x3c7dbd08	0.015486963
29	0x3d308026	0.043090962
30	0x3ca47ff7	0.02008055
31	0x3cc9eaa1	0.024648013
32	0x3cea301d	0.028587395
33	0x3caa2d41	0.020773532
34	0x3cea5095	0.028602878
35	0x3c2ffe35	0.01074176
36	0x3cc4b10c	0.024010204
37	0x3ceb5b8a	0.028730173
38	0x3cfb2733	0.03065834
39	0x3cc7418d	0.02432325
40	0x3d1aba52	0.037775345
41	0x3ca45027	0.02005775
42	0x3d1fbc92	0.038998194
43	0x3cf91435	0.030405143
44	0x3d09c7d9	0.033637855
45	0x3cbc1144	0.022957452
46	0x3ce367d0	0.027759463
47	0x3d121ca1	0.035671834
48	0x3d017112	0.031601973
49	0x3c290afa	0.010317558
50	0x3d1f4a35	0.03888913
51	0x3c4f48e3	0.012651655
52	0x3ccb0e43	0.024787074
53	0x3c5152d7	0.012776098
54	0x3d039cae	0.032131843
55	0x3d388d94	0.045056894
56	0x3d05d564	0.03267421
57	0x3cf179d7	0.029477043
58	0x3ca4c493	0.020113265
59	0x3d0a7a6e	0.033808164
60	0x3d0372bb	0.032091837
61	0x3d502947	0.050820615
62	0x3c208ce9	0.009799221
63	0x3d121a92	0.03566987
64	0x3cbc15a0	0.02295953
65	0x3d388070	0.045044363
66	0x3d981896	0.074265644
67	0x3daf344f	0.08554899
68	0x3cb6d82d	0.022319878
69	0x3d12303f	0.035690542
70	0x3d474ad7	0.048655357
71	0x3d5978c5	0.05309369
72	0x3d915f3d	0.070982434
73	0x3cda92a7	0.026681257
74	0x3ca475b8	0.020075664
75	0x3db16fbe	0.08663891
76	0x3d08f194	0.03343351
77	0x3d0023b8	0.031284064
78	0x3c879044	0.016548283
79	0x3cae3216	0.021264117
80	0x3d516284	0.051119342
81	0x3d1943d1	0.03741819
82	0x3d2b3061	0.041794185
83	0x3cb9b2af	0.02266821
84	0x3c84dacb	0.01621761
85	0x3d387e49	0.04504231
86	0x3d5deb73	0.05417962
87	0x3c9b7111	0.018974813
88	0x3d1eb6d5	0.03874858
89	0x3c9777d6	0.01848976
90	0x3d2e2d77	0.042523827
91	0x3d491c80	0.049099445
92	0x3d0c1b3d	0.034205664
93	0x3d9c745b	0.076393805
94	0x3d1e244a	0.038608827
95	0x3d61dee5	0.05514421
96	0x3d385f5c	0.045012817
97	0x3cec5a6a	0.028851707
98	0x3d17b9be	0.037042372
99	0x3ca5f9e3	0.020260757
100	0x3d6091b8	0.05482647
101	0x3d221386	0.0395694
102	0x3d182307	0.03714278
103	0x3d0b4f41	0.03401113
104	0x3dc21c47	0.0947805
105	0x3d3524be	0.044224493
106	0x3dba8707	0.09107786
107	0x3d1b3bb3	0.03789873
108	0x3d3eea16	0.04660996
109	0x3cf0c295	0.029389659
110	0x3d1d14df	0.038349982
111	0x3d86741a	0.06565113
112	0x3d26fe44	0.04076983
113	0x3c951a54	0.01820103
114	0x3d99ffa0	0.0751946
115	0x3cb7f6ed	0.02245661
116	0x3d156c0b	0.03647999
117	0x3d1d60dd	0.038422454
118	0x3d3a2cae	0.045452766
119	0x3da78bef	0.08180987
120	0x3d8b0f1b	0.067899905
121	0x3d281ef4	0.041045144
122	0x3d297269	0.041368876
123	0x3d2b772e	0.041861705
124	0x3d36e898	0.044655412
125	0x3dc2c660	0.09510493
126	0x3c93e7bb	0.018054834
127	0x3dbb4da8	0.09145671
128	0x3bdf6cc2	0.006818385
129	0xbd6743e5	-0.056461234
130	0xbd9cc27f	-0.07654285
131	0xbd063929	-0.032769356
132	0x3d2e7962	0.04259623
133	0x3a402bda	0.0007330753
134	0xbcae0a12	-0.021245036
135	0xbd7a362e	-0.061086826
136	0xbbcfe5e1	-0.0063445424
137	0xbd00bfcf	-0.031432923
138	0x3b3f2538	0.0029166471
139	0xbd3c0e6c	-0.04591219
140	0x3d1ff2e7	0.03905001
141	0x3d026998	0.031838983
142	0x39f117ae	0.00045984745
143	0x3cafd4ef	0.02146384
144	0x3c4bf9fb	0.012449737
145	0xbd43a6b7	-0.047766414
146	0xbc3acd7a	-0.0114015285
147	0x3b56f381	0.0032798948
148	0xbb41d419	-0.0029575883
149	0xbc419ec9	-0.0118176425
150	0x3d3dae72	0.046308942
151	0xbb24462a	-0.0025066235
152	0x3d5518d4	0.05202563
153	0xbb063ad6	-0.0020481846
154	0xbd0c2a08	-0.03421977
155	0xbca501e5	-0.020142505
156	0x3d519df2	0.05117602
157	0xbd9d3d41	-0.07677699
158	0x3de50917	0.111833744
159	0xbd83ae0e	-0.06429683
160	0x3d2e18cf	0.042504128
161	0x3d177b09	0.03698257
162	0x3d3a6747	0.04550865
163	0x3a689ab1	0.00088731485
164	0xbd760d48	-0.06007126
165	0x3d341094	0.043961123
166	0x3d3fa124	0.046784535
167	0xbc9b22fb	-0.018937578
168	0xbda027d9	-0.078201
169	0xbd3382ae	-0.043825798
170	0xbdf77f16	-0.120847866
171	0x3d3b0a96	0.045664392
172	0x3c2d7d33	0.010588932
173	0x3d16e761	0.036841754
174	0x3959f406	0.00020785638
175	0xbd6f691b	-0.058449846
176	0xbbbfbfec	-0.0058517363
177	0xbad9afe4	-0.0016608206
178	0xbd7a0cca	-0.061047353
179	0x3b93feec	0.004516473
180	0xbac80402	-0.0015259983
181	0xbd1194b1	-0.035542194
182	0x3cacee9f	0.021109877
183	0xbdb90650	-0.09034407
184	0xbd2eb196	-0.042649828
185	0xbba42652	-0.005009451
186	0xbd0594d4	-0.032612637
187	0x3cc32adb	0.023824146
188	0xbb8c4687	-0.0042808685
189	0xbd3f1c4f	-0.046657857
190	0x3b164f2b	0.0022935371
191	0xbce9cf16	-0.02854113
192	0x3cac84c8	0.021059409
193	0x3cd6fe02	0.026244167
194	0x3d91aa0d	0.07112513
195	0x3daf7f12	0.085691586
196	0x3cd63c6c	0.026151858
197	0x3c894047	0.016754283
198	0x3d123e15	0.035703737
199	0x3cfb4909	0.030674474
200	0x3d7faa23	0.062418114
201	0x3ced34ef	0.028955905
202	0x3c9bb5fc	0.019007675
203	0x3dadf5d2	0.08494152
204	0x3d1411bd	0.03614973
205	0x3d080fcd	0.033218194
206	0x3c807f07	0.015685571
207	0x3cb806b8	0.022464141
208	0x3d38ee29	0.045149002
209	0x3d02d81f	0.03194439
210	0x3c83b527	0.016077591
211	0x3cad27fd	0.021137232
212	0x3c84b290	0.016198426
213	0x3ca42816	0.020038646
214	0x3d82ff54	0.06396356
215	0x3c978658	0.018496677
216	0x3d3162cf	0.04330712
217	0x3c92c979	0.017918335
218	0x3cbf91f8	0.023385033
219	0x3d051d26	0.0324985
220	0x3c9cf589	0.019160049
221	0x3d960cff	0.073266976
222	0x3c736074	0.014854539
223	0x3d09a64c	0.03360586
224	0x3c8c2974	0.01710961
225	0x3d06a80e	0.032875113
226	0x3d25dc66	0.04049339
227	0x3c9ba821	0.019001069
228	0x3d048f39	0.03236315
229	0x3d2e2877	0.04251906
230	0x3d291f99	0.0412899
231	0x3c88f34c	0.016717575
232	0x3dad4ffe	0.08462523
233	0x3cb5b85c	0.022182636
234	0x3da82a92	0.08211245
235	0x3d2d6c23	0.042339455
236	0x3c9fad43	0.019491797
237	0x3d0637e6	0.032768153
238	0x3c8da454	0.017290272
239	0x3d652f66	0.055953406
240	0x3c8b81b4	0.01702962
241	0x3c8d88e2	0.017277185
242	0x3d7c6d4f	0.061627682
243	0x3ca6ea50	0.0203754
244	0x3c7b9c58	0.0153570995
245	0x3b959000	0.0045642853
246	0x3c9d8c7f	0.019232033
247	0x3d978295	0.073979534
248	0x3d5361c8	0.051606923
249	0x3c943d88	0.018095747
250	0x3cb8a30b	0.022538682
251	0x3d30313c	0.043015704
252	0x3c83761c	0.01604753
253	0x3db9ae36	0.09066431
254	0x3c8d4aff	0.017247675
255	0x3db03373	0.08603563

lstm.weight_hh_l0 f4 [512, 128]
0	0x3ce1c37b	0.027559033
1	0xbb70c021	-0.0036735612
2	0x3d54ed89	0.051984344
3	0xbc39c2a3	-0.011337909
4	0xbc7472f5	-0.014919986
5	0xbafe4f25	-0.0019402249
6	0xbb3ada4a	-0.0028511458
7	0xbc1bd0e0	-0.009510249
8	0xbd1a96e9	-0.037741575
9	0xbc95d7c4	-0.018291362
10	0xbc3829aa	-0.011240402
11	0xbb969163	-0.004594968
12	0x3bd983e9	0.0066380394
13	0x3d008187	0.031373527
14	0xbc77b515	-0.015118857
15	0x3c049a2a	0.008093396
16	0xbd628cef	-0.055310186
17	0x3ca94d91	0.02066687
18	0xbcd2185e	-0.025646385
19	0x3be789e0	0.0070659965
20	0xbc47f90f	-0.012205376
21	0xbc03582f	-0.00801663
22	0xbac016f5	-0.0014655279
23	0xbca39a8a	-0.01997115
24	0x3c4fbc2f	0.012679144
25	0xbbddf675	-0.0067737647
26	0x3c9c9ac5	0.019116769
27	0x3ccbcbcb	0.02487745
28	0x3a2099e4	0.0006126447
29	0x3d01e2a2	0.031710275
30	0x3bb563c3	0.005535574
31	0xb91f4ca5	-0.00015191974
32	0x3ceb9c88	0.028761163
33	0x3cb4309b	0.021995833
34	0xba280fc0	-0.00064110383
35	0xbd164d43	-0.036694776
36	0xbd224bf4	-0.039623216
37	0xbb57ff7d	-0.003295868
38	0x3c4675bd	0.012113032
39	0xbc8b49db	-0.01700299
40	0x3cd78736	0.02630959
41	0x3d00a7c8	0.03141001
42	0x3cc16512	0.023607764
43	0x3cbc299b	0.022969058
44	0x3cf7dcfc	0.03025674
45	0x3c006365	0.0078361975
46	0x3d161b99	0.036647413
47	0x3d1d5d3c	0.038418993
48	0x3c38a129	0.011268892
49	0xbd46e367	-0.04855671
50	0xbba9c914	-0.005181441
51	0xbcdf45f9	-0.027255045
52	0x3ced1287	0.028939499
53	0x3cbaaa01	0.022786142
54	0xbbff5778	-0.0077924095
55	0x3c72ef0f	0.014827504
56	0xbcfbe4b6	-0.030748706
57	0xbc58860f	-0.013215556
58	0x3cabea87	0.020985855
59	0x3bffd72a	0.007807632
60	0xbbad916c	-0.0052968767
61	0x3b96c257	0.004600804
62	0x3cdddfae	0.027084198
63	0xbb317245	-0.0027076167
64	0xbca59a76	-0.020215254
65	0xbbdb5899	-0.0066939113
66	0xbc0e5361	-0.008686871
67	0xbc2adcdb	-0.010428633
68	0x3b4e7863	0.0031504862
69	0x3bd607ad	0.0065316767
70	0xbc38ef74	-0.011287559
71	0x3c1346b1	0.008989022
72	0xbc0b9080	-0.008518338
73	0x3b96c7d1	0.0046014567
74	0xbc1dc938	-0.009630494
75	0xbb6432dd	-0.0034820356
76	0xbc3416ad	-0.010991734
77	0xbc489887	-0.012243397
78	0xbc9da2cb	-0.019242665
79	0xbc8bc8c8	-0.017063513
80	0x3d02b160	0.03190744
81	0xbbe7cccb	-0.007073974
82	0xbc119bc3	-0.008887234
83	0x3cd94ab7	0.026524885
84	0x3c7039e9	0.014662244
85	0x3bce28b8	0.006291475
86	0x3c41a5fb	0.011819358
87	0x3c7288fe	0.014803169
88	0xb88fe1d0	-6.860832e-05
89	0xbd0a170c	-0.033713385
90	0x3d004c10	0.03132254
91	0xbba8bdf0	-0.0051495954
92	0x3c94c907	0.018162264
93	0x3cbcba2f	0.023037998
94	0xbb80762c	-0.003920337
95	0xbbcfd6b8	-0.006342735
96	0x3bca189f	0.006167486
97	0xbcad0590	-0.021120816
98	0xbb2443f6	-0.0025064922
99	0xbd2e2e3a	-0.042524554
100	0x3c8e84c3	0.01739729
101	0x3b9ab8e2	0.004721747
102	0xbc005c69	-0.007834532
103	0xbbfe72cb	-0.007765149
104	0xbb9f7218	-0.004865896
105	0xbd3938f2	-0.045220323
106	0x3aefbe4f	0.0018290969
107	0x3d2e86b0	0.042608917
108	0xba521c45	-0.0008015077
109	0x3b46c55b	0.0030330035
110	0x3b8cdaa9	0.0042985273
111	0x3d19bb36	0.037532054
112	0x3c50c7da	0.012742961
113	0xbcbb4508	-0.022860065
114	0x3c03778b	0.008024107
115	0x3c4cb382	0.01249397
116	0x3d30277a	0.043006398
117	0xbb7f7361	-0.0038978683
118	0xbbee5646	-0.007273468
119	0xbb2e83df	-0.0026628894
120	0xbcd4df0f	-0.025985269
121	0x3cc64c55	0.02420632
122	0xbca88886	-0.020572912
123	0xbbd99454	-0.0066399965
124	0x3cf14a78	0.029454455
125	0x3c01c53e	0.007920561
126	0xbcc9b4ab	-0.024622282
127	0x3c0ae32f	0.008477016
128	0x3c2cc06f	0.010543927
129	0x3a5b9679	0.0008376609
130	0x3d3309be	0.043710463
131	0x3b755a2b	0.0037437778
132	0xbc6de525	-0.014519964
133	0x3af0749a	0.0018345297
134	0x3b16821f	0.0022965742
135	0x3cbfd6b6	0.023417812
136	0xbc997b13	-0.018735444
137	0x3bc267e9	0.005932797
138	0xbc36c043	-0.011154237
139	0xbb4784ea	-0.0030444213
140	0xbb7620b1	-0.0037556107
141	0x3cd3a216	0.025834125
142	0xbbdf94d1	-0.00682316
143	0xbbf0799a	-0.007338715
144	0xbcfe42c4	-0.031037696
145	0xbba319a0	-0.00497742
146	0xbcf3486f	-0.029697625
147	0x3ca12c05	0.01967431
148	0xbcb8bbba	-0.022550453
149	0x3b6a7cec	0.0035780026
150	0xbc0165d2	-0.007897811
151	0xb5abf398	-1.2811388e-06
152	0x3af6a7c6	0.0018818311
153	0xbb833b1b	-0.0040048487
154	0x3bd96ac7	0.0066350433
155	0x3c860f84	0.01636482
156	0xbc4fa99d	-0.012674716
157	0x3cb58c81	0.022161724
158	0x3ba683e5	0.005081641
159	0xbc5d6f66	-0.013515329
160	0x3ca55fe3	0.020187324
161	0x3c901df6	0.017592411
162	0xbb1a6ebf	-0.0023564545
163	0xbb12926e	-0.002236511
164	0xbcde5cba	-0.027143825
165	0x3b2123d6	0.002458801
166	0xbba714e1	-0.0050989245
167	0xbcc564c8	-0.024095908
168	0x3c98672f	0.01860389
169	0x3c58befc	0.013229128
170	0x3ce348ab	0.027744612
171	0x3cea2770	0.028583258
172	0x3c17d3e7	0.00926683
173	0xbc800567	-0.015627576
174	0x3d0e6f8a	0.03477434
175	0x3bf47a8f	0.007460899
176	0xbc0d8126	-0.008636748
177	0xbd48647f	-0.048923966
178	0xbce5b48a	-0.02804019
179	0xbcd6dccb	-0.02622833
180	0x3c66bb4d	0.014082742
181	0x3c8d32eb	0.017236194
182	0xbcda9b8f	-0.026685504
183	0x3b1bc154	0.0023766356
184	0x3a1dadb9	0.00060149614
185	0xbc901489	-0.017587917
186	0xbc361962	-0.01111445
187	0xba8e22ab	-0.0010844072
188	0xbd0572c6	-0.03258016
189	0xbcc1fbed	-0.023679698
190	0x3ccd927f	0.025094269
191	0x3b96bc37	0.0046000737
192	0xbc2796ff	-0.010228871
193	0x3c8b61f2	0.017014477
194	0x3bd217d3	0.0064115315
195	0xbcd41936	-0.025890928
196	0xbc515728	-0.012777127
197	0x3caefd25	0.021360943
198	0xbc3746ce	-0.011186315
199	0x3b9f4e14	0.0048616026
200	0x3b0f5250	0.002186913
201	0xbc298437	-0.010346464
202	0x3cb7487a	0.022373427
203	0x3c303893	0.010755676
204	0x3b756809	0.0037446043
205	0x3b2f51a6	0.0026751547
206	0xbc99f36d	-0.018792832
207	0xbd2327e0	-0.03983295
208	0x3cafb30f	0.021447686
209	0xbc88e80b	-0.01671221
210	0x3b2bd76d	0.0026220933
211	0xbc61a10b	-0.013771306
212	0x3b899f3c	0.0041998904
213	0x3bd53188	0.0065061487
214	0x3c136f40	0.008998692
215	0x3c3a3096	0.011364123
216	0x3c9962e7	0.018723918
217	0x3af29c4b	0.0018509714
218	0x3cb2aacc	0.021809958
219	0x3b1a089b	0.0023503664
220	0x3c58f341	0.01324159
221	0xbc53a559	-0.01291784
222	0xba0d60d8	-0.0005393154
223	0xbc4a9193	-0.012363809
224	0x3a9e9045	0.0012097439
225	0xbca27243	-0.019829875
226	0xbc3e712f	-0.011623665
227	0xbd352255	-0.044222195
228	0x3d355fc8	0.044280797
229	0x3c5124f4	0.012765158
230	0xbca31462	-0.01990718
231	0x3b0a4ffe	0.0021104808
232	0xbcb7085d	-0.022342855
233	0xbd9c6e7b	-0.0763826
234	0x3a512d7b	0.00079794944
235	0x3d84fc3d	0.06493423
236	0x3ccb25d5	0.024798313
237	0xbc3d03a1	-0.01153651
238	0x3ccfc859	0.025364088
239	0x3d1e5f7a	0.038665272
240	0x3b251ec8	0.002519535
241	0xbcb78eba	-0.022406925
242	0xbc0499ea	-0.008093337
243	0x3c04e209	0.008110532
244	0x3d61951c	0.055073842
245	0xbb184caa	-0.0023239055
246	0xbc4e8d23	-0.012606892
247	0xbc09af58	-0.008403622
248	0xbd21471e	-0.039374463
249	0x3ca0f154	0.019646324
250	0xbd05e3aa	-0.03268782
251	0xbc4968b4	-0.01229303
252	0x3c9f6998	0.01945953
253	0x3a125b2c	0.00055830437
254	0xbbab8ced	-0.0052353055
255	0x3c3eeda4	0.011653338

lstm.bias_ih_l0 f4 [512]
0	0x3d6a15af	0.057149585
1	0x3dcb18f1	0.099168666
2	0xbcf41856	-0.02979676
3	0x3da1de7c	0.07903764
4	0x3c734e10	0.0148501545
5	0xba252641	-0.0006299951
6	0x3c635ad7	0.013876638
7	0x3dc602bc	0.0966849
8	0xbc2b18ae	-0.010442896
9	0x3d9967ef	0.07490527
10	0x3c923a6c	0.017850123
11	0x3d022330	0.03177184
12	0x3c4e17ec	0.012578946
13	0xbb42f4f0	-0.0029748045
14	0xba71345d	-0.0009201223
15	0x3d6a2a8b	0.05716948
16	0xbdb2fc16	-0.08739488
17	0x3d23d4e0	0.039997935
18	0x3b86483b	0.004097966
19	0x3d87051a	0.0659277
20	0x3cf2ee14	0.02965454
21	0x3ccd720b	0.025078794
22	0x3800bb2b	3.0691892e-05
23	0xbc34ab3d	-0.0110271545
24	0xbd00a25f	-0.03140485
25	0x3be81493	0.0070825308
26	0x3d837497	0.06418722
27	0x3d43e6cf	0.047827538
28	0x3ca7b8f2	0.020473931
29	0x3ceed2b5	0.029153207
30	0x3ca788c9	0.020450966
31	0x3d552acd	0.05204277
32	0x3d916729	0.07099754
33	0x3d0a8ea3	0.033827435
34	0x3cc890da	0.024483133
35	0x3cfa1948	0.030529633
36	0xbc249761	-0.010045857
37	0x3c8393be	0.01606166
38	0xbcdb99ec	-0.026806794
39	0x3d04c919	0.032418344
40	0x3988a4e4	0.00026062794
41	0xbbf4c8a6	-0.007470208
42	0xbbae3634	-0.00531652
43	0xbd0efdfe	-0.034910195
44	0x3d5945fa	0.05304525
45	0xbcc43988	-0.023953214
46	0x3c519cd0	0.012793735
47	0x3d9916c0	0.07475042
48	0x3d0b01de	0.033937328
49	0xb8022aa0	-3.1034113e-05
50	0x3cd8313f	0.02639067
51	0x3c050b53	0.008120376
52	0x3d43cce3	0.047802817
53	0x3cbf6bd7	0.023366852
54	0x3b1908d1	0.0023351202
55	0xbd72b8bc	-0.059258208
56	0x3d2bb511	0.041920725
57	0xbbf6675a	-0.0075196447
58	0x3d6ba80b	0.057533305
59	0x3d208196	0.039186083
60	0x39ab9d08	0.0003273266
61	0x3d4f09b3	0.05054636
62	0x3cea093c	0.028568856
63	0xbb01657c	-0.0019744327
64	0x3d417848	0.04723385
65	0x3cba89f7	0.022770865
66	0xbda0041e	-0.07813285
67	0x3d284249	0.04107884
68	0x3d5169f0	0.05112642
69	0x3d98360f	0.07432186
70	0x3d53cb2e	0.05170744
71	0x3d3fae35	0.046796996
72	0x3db582c9	0.08862836
73	0x3d56082c	0.052253887
74	0x3ccbbdbb	0.024870744
75	0xbc8b68be	-0.017017718
76	0x3c6c41e3	0.0144200055
77	0xb8946dab	-7.077617e-05
78	0x3d396ab8	0.04526779
79	0x3d6d2d25	0.05790438
80	0xbc79a853	-0.0152378855
81	0xbc168502	-0.009186985
82	0x3d521563	0.051289927
83	0x3dd10c04	0.1020737
84	0xbc051a1c	-0.008123901
85	0x3da8fca5	0.08251313
86	0xbd0154ca	-0.031575
87	0x3c9dfd18	0.019285724
88	0x3d45b8a3	0.048271786
89	0xbdbbb61e	-0.091655955
90	0x3cee0e87	0.029059662
91	0x3b2a1ad6	0.0025955937
92	0xbbfc5d2e	-0.0077015376
93	0x3ce0a860	0.027424037
94	0x3c90fd6b	0.017698964
95	0xbc4e2d29	-0.012584009
96	0x3d9f9006	0.07791142
97	0x3cadfbed	0.021238292
98	0x3cc8ea38	0.024525747
99	0x3a91c700	0.0011121929
100	0x3d53091b	0.051522356
101	0x3cc19545	0.023630748
102	0xbd42d60c	-0.047567412
103	0x3da77a85	0.081776656
104	0x3ca80150	0.020508438
105	0x3d42145b	0.047382694
106	0x3cf8e096	0.030380528
107	0x3d122b3f	0.035685774
108	0xbcdb08f5	-0.02673767
109	0xbcbc21ed	-0.022965396
110	0x3de7def8	0.11321825
111	0xbd941354	-0.07230249
112	0x3c061379	0.008183354
113	0x3dacbb53	0.08434167
114	0x3d3a446f	0.04547542
115	0x3bd1f7ef	0.00640773
116	0x3c76bd30	0.015059754
117	0xbcf4d8fb	-0.02988862
118	0xbbbc14b7	-0.005739774
119	0x3c338d4b	0.01095898
120	0xbb2961e3	-0.0025845699
121	0x3ca2da11	0.019879373
122	0x3dd9b1cd	0.10629616
123	0x3d61853c	0.055058703
124	0x3d0d5b14	0.034510687
125	0x3c9b86f3	0.018985247
126	0xbc5fa59e	-0.013650326
127	0x3d50361d	0.050832856
128	0x3d16afb7	0.03678867
129	0x3c8bbfcb	0.017059227
130	0x3e0b28ab	0.13589732
131	0x3cfb9bb6	0.030713897
132	0xbc1506e6	-0.009095883
133	0x3c6efe33	0.014586973
134	0x3a4a405a	0.00077152776
135	0xbc1963d0	-0.009362176
136	0x3ceefad3	0.029172337
137	0x3c51f29b	0.012814189
138	0x3d5aab82	0.05338622
139	0x3c30d662	0.0107933
140	0x3c6226e1	0.013803215
141	0x3dd0b068	0.10189897
142	0x3bae974a	0.0053280937
143	0x3ceabe73	0.028655266
144	0x3d8d03a6	0.068854615
145	0x3cb95990	0.022625715
146	0x3e6cb081	0.23114206
147	0x3a9612de	0.0011449715
148	0x3d583b56	0.052790962
149	0x3b8e93d1	0.004351117
150	0x3d9e50fd	0.07730291
151	0x3ca0be2e	0.019621935
152	0xbb318dfa	-0.0027092681
153	0x3e291a6a	0.16513982
154	0x3d69b974	0.057061628
155	0x3b3e178d	0.0029005737
156	0x3d97c443	0.07410481
157	0xbc49722e	-0.012295289
158	0x3dd95589	0.10612018
159	0x3d4df12a	0.05027882
160	0x3d7ef98a	0.062249698
161	0x3d1180e8	0.035523325
162	0x3da77777	0.08177083
163	0x3ddaefcc	0.10690269
164	0x3d751437	0.05983373
165	0x3ca14286	0.019685041
166	0x3dfcad1b	0.12337705
167	0x3e21bdb8	0.15795028
168	0x3d17874f	0.036994275
169	0x3cfd7d5d	0.030943567
170	0x3d2caccb	0.042156976
171	0x3dcf85c0	0.10132933
172	0x3d024500	0.031804085
173	0x3d141815	0.03615578
174	0x3cb13c8d	0.021635318
175	0x3c91d082	0.01779962
176	0x3d7e8597	0.06213912
177	0x3d9ddcba	0.07708116
178	0x3de097d7	0.10966461
179	0x3da989d1	0.082782395
180	0x3da4b7c2	0.080428615
181	0x3dbec8a5	0.09315614
182	0x3da551be	0.08072232
183	0x3da6d024	0.081451684
184	0x3c926fa0	0.017875493
185	0x3bb5d867	0.005549479
186	0x3d63bf20	0.055602193
187	0x3d950272	0.07275857
188	0x3d7c21c1	0.061555628
189	0x3ce53065	0.027977178
190	0x3d58589c	0.05281888
191	0x3ceeff2d	0.029174412
192	0x3d8c3834	0.068466574
193	0xbc421b91	-0.011847393
194	0x3e113461	0.14180137
195	0x3d9e6521	0.077341326
196	0x3c9439b3	0.01809392
197	0x3cfd8cde	0.03095096
198	0xbb19ed7e	-0.0023487504
199	0x3c88e5c7	0.016711129
200	0x3cf1576d	0.029460633
201	0x3c7c8303	0.015412095
202	0x3d8dfe63	0.06933286
203	0x3a86d091	0.0010285546
204	0x3c587aa9	0.013212838
205	0x3de6e4c5	0.11274103
206	0xbb4e663b	-0.003149404
207	0x3d7e20c0	0.06204295
208	0x3cb5169a	0.022105504
209	0x3d8ee9e3	0.06978204
210	0x3de6ee74	0.1127595
211	0x3d6ad9ec	0.057336733
212	0x3cb4390e	0.021999862
213	0x3d9d99c8	0.07695347
214	0x3d11bbce	0.035579495
215	0x3c91f470	0.017816752
216	0xbc91e4ab	-0.017809233
217	0x3e0dd0af	0.13849138
218	0x3da449a1	0.08021856
219	0x3cb943e0	0.022615373
220	0x3cc0606a	0.023483474
221	0xbca9cbd7	-0.020727081
222	0x3ba51596	0.0050379736
223	0x3c82855c	0.015932731
224	0x3dc37217	0.09543245
225	0x3ca594b3	0.020212507
226	0x3d3280cf	0.043579873
227	0x3d66dedf	0.05636489
228	0x3d628def	0.05531114
229	0x3c9ba20c	0.018998168
230	0x3c49cfd6	0.012317618
231	0x3c1a4fc6	0.0094184335
232	0x3d73983c	0.059471354
233	0x3d325b07	0.04354384
234	0x3bcadc7c	0.0061908346
235	0x3e09868e	0.13430235
236	0x3e11372b	0.14181201
237	0x3d8cee4d	0.0688139
238	0x3b9f2da2	0.004857735
239	0x3db16593	0.08661952
240	0x3da50851	0.08058227
241	0x3bcbd7c8	0.0062207915
242	0x3a892b65	0.0010465203
243	0xbc2ab1d7	-0.010418377
244	0x3db341fd	0.08752821
245	0x3e011abc	0.12607855
246	0x3cd79cb3	0.026319837
247	0x3c804dbc	0.015662067
248	0x3d40aba2	0.04703868
249	0x3cd7946d	0.026315892
250	0x3c097260	0.0083890855
251	0x3d28e7e1	0.041236762
252	0x3d63d950	0.055627167
253	0x3d8b44b6	0.06800215
254	0x3d01fc2a	0.031734623
255	0x3dc4d9e1	0.096118696
