outputs/models/best_hgc_lstm_12.pth (torch, 839494 bytes, 24 tensors)

gcn_layers.0.fc.weight f4 [64, 2]
-0.3778629 0.081455395 -0.59220177 0.48774916 0.55351925 0.3464895 -0.017835366 0.3709003
-0.23937473 -0.56109285 -0.051912174 0.46225372 0.39133844 0.36484742 0.17273794 0.45938593
-0.15167688 -0.7806702 -0.2559743 0.07573514 0.40179574 0.07303252 -0.29184955 0.56345814
-0.38838845 0.09234234 0.33734426 0.43229452 0.1480928 0.15413529 0.44821483 0.06924575
0.32837433 0.06696353 -0.4102494 0.08146057 -0.15644808 0.11054587 -0.50485694 0.5250613
-0.617985 0.19753735 0.6514815 0.18934071 0.11217566 -0.5552847 0.3767023 -0.23861332
0.6469645 0.1859433 -0.007786662 -0.2048158 0.5208013 0.120458156 0.28440878 0.06524972
-0.70396274 0.22731805 -0.009929683 0.29126424 0.5849289 0.52055043 0.46848387 0.119619794
0.39432275 0.086263716 -0.3862223 -0.31121758 0.41165367 0.09739936 -0.4285511 -0.46808785
0.034409564 0.23760593 0.11696097 0.51727074 -0.111771196 0.39428002 -0.018874252 -0.37899506
0.42085606 -0.47893998 -0.012210047 0.33324388 0.1832801 -0.68387055 -0.23291618 0.061410878
-0.0036206173 0.31327608 -0.33172634 0.05444199 -0.4711747 0.40248802 0.27901652 -0.29118732
0.36983347 -0.019193787 0.6421265 0.25390533 -0.002754544 -0.41137078 0.47151884 0.08779812
-0.0015121186 0.2839029 0.28079742 -0.5039018 -0.20637593 -0.4197049 0.50982505 0.43446472
-0.43127945 -0.38784692 0.15697254 -0.19836274 -0.042661306 -0.3998849 -0.12323086 0.6378202
0.059720326 0.36167625 -0.13738367 -0.5876266 0.3100298 -0.28765675 -0.34224644 0.07764106
00000000: 3f77 c1be 16d2 a63d 899a 17bf 42ba f93e
00000010: 70b3 0d3f 1267 b13e 791b 92bc a5e6 bd3e
00000020: a61e 75be c8a3 0fbf dca1 54bd 85ac ec3e
00000030: 835d c83e 48cd ba3e 37e2 303e a234 eb3e
00000040: 2f51 1bbe 01da 47bf 100f 83be 061b 9b3d
00000050: 2cb8 cd3e 1392 953d 4e6d 95be cb3e 103f
00000060: dada c6be fb1d bd3d 63b8 ac3e b555 dd3e
00000070: a4a5 173e a4d5 1d3e 6a7c e53e b7d0 8d3d
00000080: ae20 a83e 2d24 893d 360c d2be cdd4 a63d
00000090: ed33 20be e065 e23d 4e3e 01bf 6b6a 063f
000000a0: 4434 1ebf 3b47 4a3e 7ec7 263f 88e2 413e
000000b0: 5abc e53d 2327 0ebf 20df c03e 0d57 74be
000000c0: 779f 253f ec67 3e3e 4127 ffbb 3cbb 51be
000000d0: 3c53 053f c4b2 f63d 079e 913e a5a1 853d
000000e0: e736 34bf 10c6 683e 1cb0 22bc 9620 953e
000000f0: e6bd 153f cb42 053f 1edd ef3e 39fb f43d
00000100: ace4 c93e 08ab b03d eebe c5be e957 9fbe
00000110: 45c4 d23e 5179 c73d 0d6b dbbe 36a9 efbe
00000120: 0bf1 0c3d f84e 733e 3c89 ef3d db6b 043f
00000130: 4ce8 e4bd 12df c93e 2d9e 9abc a40b c2be
00000140: 727a d73e 9f37 f5be a60c 48bc f19e aa3e
00000150: c7ad 3b3e 2412 2fbf 9481 6ebe f989 7b3d
00000160: e147 6dbb b965 a03e 09d8 a9be 90fe 5e3d
00000170: cf3d f1be e912 ce3e 41db 8e3e 8116 95be
00000180: d05a bd3e 4a3c 9dbc 6762 243f e1ff 813e
00000190: 9485 34bb 319f d2be eb6a f13e 80cf b33d
000001a0: 4832 c6ba b95b 913e aec4 8f3e b5ff 00bf
000001b0: 3654 53be 90e3 d6be e583 023f 2972 de3e
000001c0: a9d0 dcbe df93 c6be 69bd 203e 9a1f 4bbe
000001d0: 9fbd 2ebd b7bd ccbe 7660 fcbd 2f48 233f
000001e0: 4d9d 743d a12d b93e 4eae 0cbe b26e 16bf
000001f0: 3abc 9e3e bf47 93be ed3a afbe 4702 9f3d

gcn_layers.0.fc.bias f4 [64]
5.6541135e-06 7.733327e-07 2.1635349e-06 1.467319e-05 7.659505e-07 -4.4703656e-06 5.1403795e-06 5.957384e-06
2.8306372e-06 2.408568e-06 8.2566174e-07 2.937865e-07 7.5570088e-06 8.45957e-07 -1.2576445e-05 1.6382362e-06
7.667892e-06 -2.4623914e-06 -2.57161e-05 4.930845e-06 -1.7330294e-08 -3.6986497e-05 -1.4338457e-06 2.1689007e-06
1.1084801e-05 4.272914e-05 -8.943961e-06 0.00010252572 -2.2296788e-05 -7.0503643e-06 -4.40875e-06 5.0245812e-06
-6.1049177e-06 -4.5320776e-06 4.061589e-06 -6.6326226e-07 -3.924349e-06 -4.361735e-06 1.4681302e-06 2.7958324e-06
-5.1315055e-07 -2.0384832e-06 1.6103291e-08 -5.9025107e-05 5.9675695e-06 1.5801374e-05 -3.9727306e-06 -7.2313364e-06
2.0054645e-06 1.2745203e-06 4.4248427e-05 -9.6697995e-06 -1.1893969e-05 4.164818e-06 9.636362e-07 -4.7743138e-06
2.1521544e-06 4.5041375e-06 1.2158561e-06 1.4884624e-07 2.0612626e-06 -6.9342714e-06 -2.3129562e-06 9.596841e-07
00000000: 77b8 bd36 0597 4f35 3f31 1136 df2c 7637
00000010: b89b 4d35 2600 96b6 867b ac36 8ae5 c736
00000020: faf5 3d36 e2a2 2136 0ba3 5d35 b6b9 9d34
00000030: 3692 fd36 b915 6335 6cff 52b7 5ee1 db35
00000040: 58a5 0037 903f 25b6 e7b8 d7b7 a373 a536
00000050: b8dd 94b2 f321 1bb8 9072 c0b5 6e8d 1136
00000060: dcf8 3937 1138 3338 050e 16b7 1403 d738
00000070: fd09 bbb7 2b92 ecb6 e0ee 93b6 d398 a836
00000080: d8d8 ccb6 4012 98b6 c948 8836 090b 32b5
00000090: e7ad 83b6 055b 92b6 920c c535 09a0 3b36
000000a0: 70bf 09b5 e0cc 08b6 8353 8a32 ba91 77b8
000000b0: 083d c836 318d 8437 7f4d 85b6 b5a4 f2b6
000000c0: 9e95 0636 2f10 ab35 6397 3938 793b 22b7
000000d0: 358c 47b7 84bf 8b36 4a56 8135 0b33 a0b6
000000e0: bb6d 1036 3f22 9736 7f30 a335 8bd2 1f34
000000f0: 3954 0a36 f0ac e8b6 4938 1bb6 7fce 8035

gcn_layers.0.bn.weight f4 [64]
0.8674387 0.81559676 0.7192137 0.8921257 0.8748527 0.9287433 0.87115955 0.81614524
0.886104 0.9832313 0.84181887 0.9135634 0.8967687 0.78345615 0.8226156 0.7754426
0.7113717 0.94398934 0.8757006 0.9450128 0.9793425 0.9589059 0.9008743 0.8689765
0.94795746 0.9762402 0.8716028 0.86931455 0.88891196 0.99432033 0.8300963 0.76883245
0.8734388 0.88547444 0.92350936 0.72292674 0.8286095 0.9124234 0.7154054 0.9834989
0.7298152 0.88315237 0.9223693 0.88208133 0.89666075 0.89213514 0.8888275 0.86870164
0.6821051 0.80938256 1.0863346 0.9366409 0.9344104 0.90600264 0.8713939 0.81277454
0.80730546 0.7874779 0.9339936 0.87708586 0.8197301 0.9128203 0.9437305 0.81537503
00000000: 7610 5e3f f3ca 503f 641e 383f 5a62 643f
00000010: 59f6 5f3f 1fc2 6d3f 5004 5f3f e5ee 503f
00000020: b6d7 623f 0cb5 7b3f 7181 573f 4adf 693f
00000030: a292 653f 9590 483f f096 523f 6883 463f
00000040: 751c 363f 49a9 713f ea2d 603f 5cec 713f
00000050: 31b6 7a3f db7a 753f b39f 663f 3e75 5e3f
00000060: 57ad 723f e1ea 793f 5c21 5f3f 668b 5e3f
00000070: bc8f 633f c78b 7e3f 3181 543f 34d2 443f
00000080: af99 5f3f 74ae 623f 1c6b 6c3f ba11 393f
00000090: c11f 543f 9494 693f cf24 373f 95c6 7b3f
000000a0: 2bd5 3a3f 4616 623f 6520 6c3f 15d0 613f
000000b0: 8f8b 653f f862 643f 338a 633f 3b63 5e3f
000000c0: 719e 2e3f b233 4f3f 030d 8b3f b3c7 6f3f
000000d0: 8535 6f3f caef 673f ac13 5f3f fe11 503f
000000e0: 92ab 4e3f 2798 493f 341a 6f3f b388 603f
000000f0: d5d9 513f 97ae 693f 5298 713f 6bbc 503f

gcn_layers.0.bn.bias f4 [64]
0.19908053 0.087616116 -0.09526238 -0.051087312 -0.0045442507 0.19601703 0.008442133 -0.33132365
-0.3750335 -0.031153096 -0.19071949 -0.18257387 -0.0658346 -0.05074339 0.07520135 -0.20370457
-0.18376893 0.12533556 -0.095552355 -0.062467277 0.06583006 0.20237157 -0.19405776 0.026790578
-0.07679513 -0.01162192 -0.033506475 0.05089259 0.1128328 0.23281804 -0.013460845 -0.02727147
-0.20158854 0.24876751 -0.099771 -0.13143891 -0.2522694 -0.15165256 -0.060358137 0.15982415
-0.02641252 0.23251034 -0.15326685 -0.13164836 0.24253343 -0.2549687 -0.022918874 0.22773683
-0.30709514 0.13341972 -0.3502158 -0.17382388 0.17210548 0.101269044 0.24894448 -0.19516122
0.20164731 -0.066189274 0.21585895 0.23625451 -0.21097419 0.1383181 0.21973532 -0.17631163
00000000: c4db 4b3e 1470 b33d ec18 c3bd ee40 51bd
00000010: f0e7 94bb b0b8 483e df50 0a3c 41a3 a9be
00000020: 6404 c0be c734 ffbc f84b 43be a5f4 3abe
00000030: 4ad4 86bd 4dd8 4fbd 2a03 9a3d ee97 50be
00000040: ec2d 3cbe f757 003e f4b0 c3bd b0dd 7fbd
00000050: e9d1 863d 7e3a 4f3e 14b7 46be ea77 db3c
00000060: c446 9dbd de69 3ebc 163e 09bd c074 503d
00000070: e214 e73d da67 6e3e e08a 5cbc 6b68 dfbc
00000080: 3a6d 4ebe e9bc 7e3e bd54 ccbd ec97 06be
00000090: 7429 81be cf4a 1bbe 183a 77bd f1a8 233e
000000a0: 125f d8bc 3117 6e3e fcf1 1cbe d4ce 06be
000000b0: af5a 783e 428b 82be 5dc0 bbbc d833 693e
000000c0: 933b 9dbe 2e9f 083e 7c4f b3be e3fe 31be
000000d0: 6b3c 303e 2566 cf3d 4deb 7e3e 58d8 47be
000000e0: a27c 4e3e 3e8e 87bd 210a 5d3e b4ec 713e
000000f0: 9e09 58be 43a3 0d3e 4c02 613e 098b 34be

gcn_layers.0.bn.running_mean f4 [64]
-0.1472628 -0.059352286 0.43653604 0.16820256 -0.383945 0.19416617 0.3655201 0.30297258
-0.4450794 -0.090548694 0.23218147 0.12484358 -0.14788495 0.37101638 0.14592545 0.2532494
0.19316186 -0.16387911 -0.024676627 0.0016436001 -0.21045291 0.41010422 -0.20805702 0.071162954
0.40629202 -0.10093617 0.31318432 0.17077321 -0.23882794 0.13386323 0.534589 0.2870767
0.23480321 -0.33751863 0.24860325 -0.43284112 0.1297233 0.30307817 0.13280106 -0.1891329
-0.02077192 0.15272221 -0.23417637 -0.086138725 0.14750025 -0.13799706 -0.040541 -0.0014544228
0.1727997 0.43616235 -0.19658782 0.27346337 0.134462 -0.10108032 -0.30058783 0.4568246
-0.3960423 -0.01718719 -0.21072781 0.24197908 0.20109169 -0.34639242 0.015401165 -0.13207811
00000000: 0fcc 16be 621b 73bd a781 df3e 4b3d 2c3e
00000010: 7094 c4be 7fd3 463e 7325 bb3e 391f 9b3e
00000020: 72e1 e3be 9871 b9bd fbc0 6d3e fead ff3d
00000030: 276f 17be dcf5 bd3e 7b6d 153e e8a9 813e
00000040: 39cc 453e edcf 27be a326 cabc 116e d73a
00000050: f880 57be 2ef9 d13e e60c 55be e2bd 913d
00000060: 8205 d03e 9fb7 cebd b259 a03e 2cdf 2e3e
00000070: 508f 74be 7113 093e d3da 083f b8fb 923e
00000080: 4170 703e 3ecf acbe da91 7e3e 5a9d ddbe
00000090: 2fd6 043e 102d 9b3e 00fd 073e 0eac 41be
000000a0: e029 aabc 3663 1c3e eecb 6fbe 8069 b0bd
000000b0: 4e0a 173e 1a4f 0dbe 520e 26bd 55a2 beba
000000c0: 68f2 303e ac50 df3e 514e 49be 6403 8c3e
000000d0: 68b0 093e 3303 cfbd a6e6 99be eae4 e93e
000000e0: 0ec6 cabe 26cc 8cbc 08c9 57be 5dc9 773e
000000f0: fbea 4d3e 595a b1be 2b55 7c3c 7c3f 07be

gcn_layers.0.bn.running_var f4 [64]
0.010374937 0.05814203 0.03935465 0.020921906 0.051985055 0.03247278 0.030926999 0.034255665
0.09422786 0.0051510865 0.011662803 0.053154293 0.011190967 0.03644464 0.005133194 0.014222149
0.007926342 0.012082588 0.0034005938 0.057624195 0.030799406 0.034175992 0.047200613 0.01769914
0.03358182 0.0063580563 0.020503858 0.0061061187 0.040121917 0.012881677 0.06501258 0.017002966
0.011620707 0.025100151 0.012884304 0.046224557 0.008627977 0.041589037 0.024244362 0.021809768
0.045689955 0.01686006 0.072446086 0.0041276193 0.014904782 0.007710001 0.0384902 0.017690478
0.00913866 0.037861776 0.025620883 0.016128782 0.012240069 0.04307592 0.02989487 0.046822593
0.03585991 0.0074707065 0.024423487 0.062253814 0.02007033 0.053869467 0.018565241 0.008607104
00000000: a4fb 293c 5626 6e3d 5732 213d 6b64 ab3c
00000010: 48ee 543d 2e02 053d 9e5a fd3c ab4f 0c3d
00000020: 89fa c03d 72ca a83b 5715 3f3c 51b8 593d
00000030: 515a 373c fa46 153d 5a34 a83b 0404 693c
00000040: 7ddd 013c 0cf6 453c 7fdc 5e3b 5907 6c3d
00000050: 094f fc3c 20fc 0b3d 6e55 413d c9fd 903c
00000060: 178d 093d 3e57 d03b b5f7 a73c d615 c83b
00000070: e156 243d ab0d 533c 5125 853d ce49 8b3c
00000080: c764 3e3c d59e cd3c b018 533c f655 3d3d
00000090: 5c5c 0d3c 4459 2a3d 1d9c c63c 66aa b23c
000000a0: 6425 3b3d 1c1e 8a3c 9d5e 943d fb40 873b
000000b0: 3033 743c 2da4 fc3b e6a7 1d3d 9feb 903c
000000c0: 51ba 153c f314 1b3d e3e2 d13c 8220 843c
000000d0: 928a 483c 6070 303d 16e6 f43c 0cc9 3f3d
000000e0: d7e1 123d d4cc f43b c413 c83c dbfd 7e3d
000000f0: 886a a43c 3ba6 5c3d 2216 983c d004 0d3c

gcn_layers.1.fc.weight f4 [64, 64]
-0.03430779 -0.048263956 -0.046586767 -0.095168635 0.051840883 -0.056687333 0.03136866 0.02171414
-0.048310984 0.1347376 0.033962112 -0.0828017 0.054188058 -0.0015692734 -0.050431184 -0.08262835
0.07400432 0.120087594 0.08320982 -0.1375165 -0.07348229 0.052699476 -0.07103431 0.00614654
0.039549273 -0.2091648 0.06485045 -0.022021588 -0.037329614 -0.15446588 -0.023814127 -0.08869207
0.07874008 -0.051629167 0.084032275 -0.10444659 -0.04598511 -0.1727202 -0.17224948 -0.16024923
-0.08915588 -0.035743725 -0.20347157 -0.009222048 -0.16565341 0.104212046 -0.037577536 -0.008600301
0.12862293 -0.030402325 -0.22602212 0.0031728197 -0.07920031 -0.13443638 0.028585738 -0.0521459
-0.06932057 -0.031774696 -0.18595298 0.036532536 -0.115461305 -0.09868819 0.021793254 0.11374604
-0.0118137915 0.021961922 -0.01659257 0.088985935 0.16204832 0.0648387 0.09521757 0.12952998
0.14361386 0.13791363 0.046514098 0.107420065 0.1391066 0.07254735 0.00924935 0.109445155
0.035754453 -0.04143996 -0.019408502 0.04483654 -0.048692767 0.036840267 0.04834486 -0.017833607
0.01707496 0.20797229 -0.033534553 -0.028517913 0.0075193695 0.09474946 0.03798454 0.02099198
0.10561203 -0.011444017 -0.0048411717 -0.0019520088 0.11882206 0.06168984 -0.030760245 0.24732912
0.00911509 -0.009166806 0.12684509 0.09544748 0.062458802 0.1334034 -0.06489349 0.009312911
-0.051520888 0.039162412 0.21817702 -0.043523774 0.0021703246 0.16160674 0.20344952 -0.04174878
-0.05373371 0.041322485 0.24227455 -0.020032953 0.08214301 0.24830538 0.043678034 -0.06260292
-0.22568375 -0.045842312 -0.11768809 0.08514657 -0.0446198 -0.12742603 -0.11222303 0.06002445
-0.05841811 -0.14820173 0.046941508 0.07982439 -0.18213192 0.007617279 -0.047233347 -0.11332568
-0.02354987 -0.04480764 -0.005104788 0.107062325 -0.18413395 -0.122699015 0.08754909 0.050162748
-0.048982445 0.09472437 -0.12084924 -0.1197268 -0.11864497 -0.048525095 -0.110503055 -0.11390106
0.012634069 -0.056862358 0.039566863 -0.05789506 -0.064009316 -0.06991986 0.06542493 0.017441923
0.06965373 -0.0027042478 0.05117837 -0.07979792 -0.0788431 -0.06877594 -0.05984816 -0.042276457
0.0050842934 -0.0549144 -0.07185246 -0.10088035 -0.066645056 0.0511593 0.014926777 -0.06523999
0.024385277 0.05798514 0.077294365 -0.065840706 0.07706823 -0.0007355866 0.096784525 -0.13719684
-0.017764704 0.014061437 0.008528038 0.06935237 0.11701112 0.06214317 0.09094235 0.20149085
-0.031709295 -0.005842643 -0.05340827 0.18495238 -0.058217235 0.15070322 0.022088848 -0.034891468
0.045332 -0.051915575 0.041249983 0.0731306 0.043702904 0.06465953 0.095523275 0.07239823
0.07488239 0.13932922 -0.05395182 -0.032914583 -0.0022880142 0.14913094 0.13821049 0.059437405
-0.04702974 -0.009668162 0.009163838 0.049124464 0.09888563 0.07793444 0.08375156 0.0021478818
0.08528136 0.098516636 0.018866252 0.027356017 0.030382331 0.06963806 0.074435316 -0.02901956
-0.07988948 -0.06809244 0.111354426 -0.02973233 0.105596066 0.025235688 0.0038778963 0.05786531
0.012797529 0.1095569 -0.052352678 0.12167234 0.10861137 0.014945652 -0.028719496 0.06971907
00000000: 5386 0cbd 6db0 45bd c4d1 3ebd c6e7 c2bd
00000010: 1b57 543d fa30 68bd 6d7c 003d dae1 b13c
00000020: bde1 45bd a7f8 093e db1b 0b3d f093 a9bd
00000030: 4cf4 5d3d 14b0 cdba ee90 4ebd 0d39 a9bd
00000040: 948f 973d 7cf0 f53d e969 aa3d 20d1 0cbe
00000050: e27d 96bd 68db 573d 707a 91bd ea68 c93b
00000060: 6bfe 213d 4c2f 56be 50d0 843d 9e66 b4bc
00000070: f0e6 18bd 4e2c 1ebe d815 c3bc 30a4 b5bd
00000080: 7b42 a13d 1b79 53bd 1d19 ac3d 18e8 d5bd
00000090: e25a 3cbd 90dd 30be 2b62 30be 6018 24be
000000a0: 5c97 b6bd 0368 12bd da5a 50be 1318 17bc
000000b0: 0ca1 29be 206d d53d e7ea 19bd 47e8 0cbc
000000c0: bbb5 033e 4c0e f9bc 5872 67be 15ef 4f3b
000000d0: c633 a2bd b1a9 09be a32c ea3c f096 55bd
000000e0: f1f7 8dbd 2f26 02bd 756a 3ebe 24a3 153d
000000f0: fa76 ecbd 091d cabd c487 b23c aff3 e83d
00000100: a28e 41bc 7de9 b33c 24ed 87bc 423e b63d
00000110: ffef 253e 27ca 843d 6e01 c33d 82a3 043e
00000120: 830f 133e 3b39 0d3e 9185 3e3d 0dff db3d
00000130: f671 0e3e b493 943d 968a 173c c824 e03d
00000140: 4373 123d f3bc 29bd 94fe 9ebc 85a6 373d
00000150: 1172 47bd d2e5 163d 4305 463d c917 92bc
00000160: c9e0 8b3c b0f6 543e 875b 09bd 669e e9bc
00000170: 0b65 f63b 010c c23d ad95 1b3d 5ff7 ab3c
00000180: 1f4b d83d b07f 3bbc b1a2 9ebb 8cda ffba
00000190: fb58 f33d 7cae 7c3d e9fc fbbc d843 7d3e
000001a0: 7557 153c 5f30 16bc aee3 013e f879 c33d
000001b0: cdd4 7f3d e79a 083e e1e6 84bd 2e95 183c
000001c0: 9107 53bd c468 203d cc69 5f3e fc45 32bd
000001d0: 013c 0e3b 3d7c 253e 1255 503e c500 2bbd
000001e0: e117 5cbd c441 293d d216 783e 261c a4bc
000001f0: 983a a83d c443 7e3e bde7 323d f635 80bd
00000200: a419 67be 26c5 3bbd 7406 f1bd 5361 ae3d
00000210: 40c3 36bd f87b 02be 30d5 e5bd 33dc 753d
00000220: d447 6fbd 32c2 17be bd45 403d f87a a33d
00000230: ca80 3abe 5e9a f93b c177 41bd 4b17 e8bd
00000240: a8eb c0bc 3788 37bd 1146 a7bb 7e43 db3d
00000250: 9c8d 3cbe 9f49 fbbd f04c b33d 7477 4d3d
00000260: d1a1 48bd dafe c13d ce7f f7bd 5333 f5bd
00000270: 22fc f2bd 40c2 46bd 6d4f e2bd f544 e9bd
00000280: 20ff 4e3c 81e8 68bd dd10 223d 5f23 6dbd
00000290: 5117 83bd 2532 8fbd 81fd 853d 5de2 8e3c
000002a0: 9da6 8e3d c039 31bb 69a0 513d 186d a3bd
000002b0: 7e78 a1bd 66da 8cbd 5823 75bd 142a 2dbd
000002c0: 259a a63b eced 60bd 6227 93bd 5b9a cebd
000002d0: 347d 88bd 6a8c 513d 718f 743c 8b9c 85bd
000002e0: a2c3 c73c d381 6d3d 824c 9e3d 7ed7 86bd
000002f0: f3d5 9d3d 62d4 40ba f736 c63d 547d 0cbe
00000300: 4987 91bc f161 663c 2fb9 0b3c 9e08 8e3d
00000310: 87a3 ef3d d689 7e3d fc3f ba3d 9e53 4e3e
00000320: 9be1 01bd a473 bfbb a1c2 5abd 2864 3d3e
00000330: 3275 6ebd f251 1a3e acf3 b43c 5bea 0ebd
00000340: 0cae 393d 6da5 54bd bef5 283d 7fc5 953d
00000350: d101 333d 376c 843d b5a1 c33d 8645 943d
00000360: f05b 993d 52ac 0e3e 95fc 5cbd 71d1 06bd
00000370: 82f2 15bb c8b5 183e 0d87 0d3e a374 733d
00000380: 42a2 40bd 3667 1ebc ec23 163c bc36 493d
00000390: 8d84 ca3d 179c 9f3d f085 ab3d 7ac3 0c3b
000003a0: fea7 ae3d 17c3 c93d 668d 9a3c ba19 e03c
000003b0: 5ee4 f83c 669e 8e3d 8b71 983d 6eba edbc
000003c0: 189d a3bd 0d74 8bbd ca0d e43d 3791 f3bc
000003d0: c042 d83d 13bb ce3c 4e24 7e3b 2d04 6d3d
000003e0: baac 513c 5e5f e03d c36f 56bd 592f f93d
000003f0: a36f de3d 9cde 743c 2645 ebbc dfc8 8e3d

gcn_layers.1.fc.bias f4 [64]
1.6258771e-05 4.962295e-06 -6.6206453e-06 -1.3288782e-06 2.441433e-05 -1.3204296e-06 -6.5535246e-06 4.4949243e-06
2.6827838e-05 2.1197525e-06 1.4506236e-05 -2.5550398e-06 -2.5785187e-06 1.5414919e-06 -2.6725171e-08 -8.830362e-08
-2.5308282e-06 1.5032432e-05 -2.8234658e-06 6.807698e-06 -1.8849595e-06 2.750919e-07 -5.7063306e-07 1.3563551e-06
4.484708e-06 1.221e-06 -8.5887095e-06 0.0001279707 1.6832591e-06 1.0078266e-05 1.0105135e-06 1.5320638e-05
-2.529375e-07 4.026278e-06 2.8233817e-06 -3.8477648e-07 -7.68251e-06 5.1561847e-07 4.9627e-07 -3.4209897e-06
1.2583214e-06 5.028026e-06 1.6862778e-06 -5.408284e-07 3.8568753e-05 -1.4174085e-06 -1.2823971e-05 -1.7036698e-06
6.691692e-08 5.661303e-07 9.1071195e-07 1.5083096e-07 9.934419e-07 -1.591661e-06 -3.0681995e-06 9.284743e-08
5.714238e-06 -9.864541e-07 -8.757668e-06 1.4292656e-06 -1.4193096e-06 -1.5283432e-06 -2.2929416e-06 4.4365495e-07
00000000: 7263 8837 ca81 a636 e926 deb6 e85b b2b5
00000010: 60cd cc37 9e39 b1b5 59e6 dbb6 1bd3 9636
00000020: 580c e137 1241 0e36 cf5f 7337 4077 2bb6
00000030: 9d0a 2db6 42e5 ce35 4691 e5b2 6ea1 bdb3
00000040: 4cd7 29b6 ce33 7c37 c67a 3db6 ae6d e436
00000050: b7fe fcb5 58b0 9334 9b2d 19b5 020c b635
00000060: 597b 9636 3ee1 a335 3a18 10b7 e02f 0639
00000070: 58ec e135 d315 2937 fba0 8735 d284 8037
00000080: 77cb 87b4 7719 8736 5479 3d36 4793 ceb4
00000090: 21e4 00b7 0869 0a35 6a37 0535 2894 65b6
000000a0: 98e3 a835 6ab6 a836 1054 e235 722d 11b5
000000b0: e2c4 2138 c93d beb5 8926 57b7 a6a9 e4b5
000000c0: f7b3 8f33 2ef8 1735 a677 7435 19f4 2134
000000d0: 6756 8535 0ea1 d5b5 44e7 4db6 6a63 c733
000000e0: eebc bf36 4e66 84b5 e6ed 12b7 31d5 bf35
000000f0: 1b7f beb5 7921 cdb5 70e0 19b6 792f ee34

gcn_layers.1.bn.weight f4 [64]
1.1615763 1.0809361 0.94185525 1.1790552 1.365761 1.0686045 0.80772805 1.2060773
1.073039 0.9143709 1.0457888 0.92984354 1.2118843 1.3840826 1.3632379 0.9260623
1.1672633 1.1872454 0.8587359 1.3834772 0.91938776 1.4526856 0.98156893 1.1256725
1.1511148 1.1742289 1.095644 1.0822896 1.1727356 1.1765989 0.815279 1.1109467
1.0619954 0.90661705 1.085375 1.2147738 0.9815979 1.4478011 0.97794276 1.1213015
1.460225 1.2151014 1.1437932 1.1189375 1.423261 1.2637771 1.4286187 1.3852316
1.0922698 1.0954776 1.006073 1.1930009 1.2378132 1.0927045 1.1612794 1.2443721
1.1916962 0.8249616 1.1970289 1.1035516 1.0038055 0.9818059 1.0089849 1.2859515
00000000: 88ae 943f 1d5c 8a3f 6d1d 713f 48eb 963f
00000010: 42d1 ae3f 08c8 883f 44c7 4e3f be60 9a3f
00000020: 5859 893f 3614 6a3f 68dc 853f 3a0a 6e3f
00000030: 061f 9b3f 9e29 b13f 947e ae3f 6b12 6d3f
00000040: e268 953f a8f7 973f 1ed6 5b3f c815 b13f
00000050: ff5c 6b3f 9af1 b93f 1a48 7b3f 0916 903f
00000060: bb57 933f 224d 963f 103e 8c3f 7788 8a3f
00000070: 331c 963f cb9a 963f 20b6 503f 8033 8e3f
00000080: 77ef 873f 0e18 683f 91ed 8a3f b57d 9b3f
00000090: 004a 7b3f 8c51 b93f 755a 7a3f cf86 8f3f
000000a0: a7e8 ba3f 7188 9b3f d167 923f 5839 8f3f
000000b0: 6b2d b63f 73c3 a13f fadc b63f 454f b13f
000000c0: 7fcf 8b3f 9c38 8c3f 00c7 803f 41b4 983f
000000d0: aa70 9e3f bedd 8b3f cea4 943f 9647 9f3f
000000e0: 8089 983f af30 533f 3e38 993f 2e41 8d3f
000000f0: b37c 803f a257 7b3f 6b26 813f 0f9a a43f

gcn_layers.1.bn.bias f4 [64]
0.032365754 0.08795201 0.016332407 0.066590756 -0.1796732 0.053335615 -0.10349478 0.08219134
0.05580617 0.008575364 0.03938931 0.043260287 0.11023932 0.072123975 0.08261347 0.02978264
0.16997011 -0.15899992 -0.009977769 0.039836418 0.056021288 0.068700925 -0.014937878 -0.001292712
0.036524124 0.12997073 0.15500729 -0.028999828 -0.10896167 0.10170645 -0.12135873 0.03643347
0.004515145 -0.023162398 0.085729666 0.14196101 0.08410577 0.096177354 -0.040058117 0.08213659
0.049017698 0.024040395 0.16876976 -0.0022660946 -0.22900115 -0.031032009 -0.08193084 0.14128396
0.0700576 0.076160744 0.0833344 0.052825164 0.0011853381 0.006022301 0.081482776 0.06281954
0.054845184 0.05290531 0.13896622 0.1224426 0.056790926 0.075868025 0.029317789 0.15768078
00000000: f491 043d 2f20 b43d 8acb 853c bc60 883d
00000010: 40fc 37be 7276 5a3d 12f5 d3bd ef53 a83d
00000020: 0395 643d af7f 0c3c af56 213d b331 313d
00000030: 27c5 e13d bcb5 933d 4031 a93d b9fa f33c
00000040: a50c 2e3e e0d0 22be cc79 23bc 832b 233d
00000050: 9476 653d 12b3 8c3d 00be 74bc 3870 a9ba
00000060: 529a 153d 0c17 053e 3bba 1e3e 0c91 edbc
00000070: 4c27 dfbd 794b d03d ed8a f8bd 433b 153d
00000080: c8f3 933b 12bf bdbc 0993 af3d 3a5e 113e
00000090: a53f ac3d a2f8 c43d fb13 24bd 3a37 a83d
000000a0: c8c6 483d 5df0 c43c fbd1 2c3e c282 14bb
000000b0: 477f 6abe d736 febc 5bcb a7bd beac 103e
000000c0: 5c7a 8f3d 2afa 9b3d 3aab aa3d 335f 583d
000000d0: 595d 9b3a b956 c53b 71e0 a63d 88a7 803d
000000e0: 58a5 603d 3db3 583d 294d 0e3e 30c3 fa3d
000000f0: 9a9d 683d b260 9b3d dc2b f03c 1277 213e

gcn_layers.1.bn.running_mean f4 [64]
-0.9195177 1.2749751 -0.73197526 0.90545845 -0.2606998 1.0609448 -0.9222417 0.9051453
-0.98193854 -0.63505673 -1.1222583 0.99392706 0.60018307 0.5919409 0.66501135 -0.03569103
1.1369199 -0.035097733 0.46713293 0.6523055 -0.7343048 0.72679865 0.98112243 -0.54530513
0.20386343 -0.44755542 -0.09535096 -0.6137213 0.06327142 -0.19799581 -0.18591717 -0.8598665
0.9742553 -1.0026261 -0.071171194 -0.17088291 0.34523067 0.6346091 -1.3432256 0.82295656
0.8035845 0.6701123 -0.09046085 -0.6426955 -0.16775663 -0.48923644 -0.22279465 1.028325
1.0219423 0.80112433 0.15274188 1.0486435 -0.9068929 1.0846633 1.0003488 1.0760831
-0.07012873 -0.94723535 -0.11483747 -0.05803218 0.876554 0.52978003 -0.48723444 0.8843324
00000000: 8365 6bbf 6232 a33f bb62 3bbf 20cc 673f
00000010: 727a 85be 0acd 873f 0818 6cbf 9ab7 673f
00000020: 5360 7bbf 1493 22bf 29a6 8fbf 0172 7e3f
00000030: 99a5 193f 7089 173f 2f3e 2a3f c230 12bd
00000040: 9786 913f a4c2 0fbd 0c2c ef3e 7efd 263f
00000050: 66fb 3bbf 7a0f 3a3f d72a 7b3f 1e99 0bbf
00000060: 93c1 503e fc25 e5be 5d47 c3bd d71c 1dbf
00000070: 7294 813d 6abf 4abe 1261 3ebe 3620 5cbf
00000080: cc68 793f 0d56 80bf 34c2 91bd eefb 2ebe
00000090: 13c2 b03e be75 223f d1ee abbf 48ad 523f
000000a0: b7b7 4d3f 7b8c 2b3f 8a43 b9bd b187 24bf
000000b0: 65c8 2bbe 337d fabe 4824 64be 27a0 833f
000000c0: 01cf 823f 7c16 4d3f 5e68 1c3e f339 863f
000000d0: 222a 68bf 3fd6 8a3f 6e0b 803f 17bd 893f
000000e0: a79f 8fbd 047e 72bf e82f ebbd 27b3 6dbd
000000f0: d865 603f aa9f 073f cb76 f9be 9c63 623f

gcn_layers.1.bn.running_var f4 [64]
0.25738698 0.697142 0.5005543 0.749696 0.10207191 0.9939601 0.51254517 0.7621797
0.26218858 0.8531596 0.44250694 0.5145603 0.25305358 0.34439024 0.36101452 0.73230475
0.63056296 0.11016741 0.5278874 0.38207704 1.4776067 0.41753224 0.8665076 0.17892131
0.15034646 0.19870488 0.37520912 0.11173721 0.07046221 0.73344153 0.2920814 0.3073497
0.70962334 0.6215934 1.2524059 1.4246042 0.8867215 0.41578835 0.67748713 0.76594317
0.571073 0.4201444 1.6058798 0.18369548 0.07502547 0.14615986 0.08742308 0.9531467
1.0266485 0.522311 0.9993653 0.9809693 0.4526463 0.9141795 0.87284726 0.91826314
0.045345224 2.100262 1.0290356 1.1258405 0.6078473 0.99814236 0.6129759 0.812366
00000000: 3ac8 833e e677 323f 5424 003f 14ec 3f3f
00000010: 140b d13d 2b74 7e3f 2936 033f 351e 433f
00000020: 953d 863e ab68 5a3f 4590 e23e 39ba 033f
00000030: 3d90 813e eb53 b03e e5d6 b83e 5378 3b3f
00000040: 936c 213f 739f e13d a123 073f 9a9f c33e
00000050: 3722 bd3f c9c6 d53e 71d3 5d3f 2637 373e
00000060: 6cf4 193e 4b79 4b3e 691b c03e 7ad6 e43d
00000070: 7e4e 903d d3c2 3b3f b18b 953e f15c 9d3e
00000080: e0a9 353f bf20 1f3f d64e a03f 6e59 b63f
00000090: 2e00 633f 36e2 d43e cc6f 2d3f da14 443f
000000a0: d731 123f 2b1d d73e 788d cd3f ab1a 3c3e
000000b0: f4a6 993d eeaa 153e df0a b33d 6c01 743f
000000c0: 3869 833f 2cb6 053f 68d6 7f3f ce20 7b3f
000000d0: 41c1 e73e ab07 6a3f eb72 5f3f 4b13 6b3f
000000e0: eabb 393d b16a 0640 70b7 833f 8b1b 903f
000000f0: e19b 1b3f 4286 7f3f fdeb 1c3f 38f7 4f3f

joint_attention.attention.weight f4 [1, 64]
-0.010309171 0.032882184 -0.00038945224 -0.072568394 -0.1286843 0.04665253 -0.030204654 -0.06800051
0.06488003 0.044141244 0.0744983 0.0046461737 -0.061611712 -0.05229421 -0.055271167 0.0033112387
0.0051213466 -0.009764086 0.021040346 -0.057634003 0.025978226 -0.058649253 0.048212025 -0.034496803
-0.17691545 -0.12212186 -0.05775829 0.06207398 -0.021155292 -0.14730053 -0.04289729 0.031533647
-0.008332002 0.0034447256 -0.06789153 -0.13262407 -0.044609234 -0.06390749 0.007172769 -0.07308461
-0.058871195 -0.049124174 -0.14993237 -0.059792135 -0.15730873 -0.09086338 -0.13783637 -0.0423827
0.003033837 -0.053076938 -0.009190105 0.022630295 -0.13928536 0.025075285 -0.010946298 0.003664195
-0.018530576 -0.035251353 -0.12144105 -0.08903448 -0.02448151 0.002451282 0.011989076 -0.08925665
00000000: cce7 28bc 78af 063d 652f ccb9 bd9e 94bd
00000010: d1c5 03be b916 3f3d c06f f7bc da43 8bbd
00000020: d2df 843d 73cd 343d 9192 983d ee3e 983b
00000030: 905c 7cbd 7432 56bd 0564 62bd 5e01 593b
00000040: f8d0 a73b 8cf9 1fbc ce5c ac3c a211 6cbd
00000050: 4ad0 d43c 333a 70bd f979 453d 854c 0dbd
00000060: 5329 35be 071b fabd f593 6cbd 4941 7e3d
00000070: dd4d adbc f3d5 16be 12b5 2fbd 6d29 013d
00000080: f382 08bc e8c0 613b b70a 8bbd 9bce 07be
00000090: 2cb8 36bd eee1 82bd 8c09 eb3b 62ad 95bd
000000a0: ec22 71bd 6e36 49bd df87 19be 99e8 74bd
000000b0: 8a15 21be 9416 babd fa24 0dbe 7b99 2dbd
000000c0: 57d3 463b 3467 59bd 1892 16bc 2b63 b93c
000000d0: d2a0 0ebe af6a cd3c 1a58 33bc fe22 703b
000000e0: 6fcd 97bc b963 10bd 16b6 f8bd b657 b6bd
000000f0: 738d c8bc b0a5 203b d46d 443c 31cc b6bd

lstm.weight_ih_l0 f4 [512, 64]
0.017595844 0.014721022 -0.007899535 -0.0005130336 0.00043647434 -0.0007923678 -0.016166663 0.0033808125
0.01709883 -0.010139529 0.04181382 0.013735776 0.02599725 -0.011776353 -0.010438966 -0.008868683
0.012879608 -0.026301643 -0.002588232 -0.012779936 -0.020095756 0.00638808 -0.0039452864 0.012227657
0.011015553 0.060673222 0.025174623 0.06506001 0.0057433834 0.04751705 -0.026251122 0.033614676
-0.004026524 -0.016049994 0.026194774 0.038996704 0.012966458 -0.0031025186 0.016101308 0.0026224917
0.000776387 0.005560259 0.033516724 -0.0071676425 -0.01800384 0.0005372155 -0.018239036 0.0060457527
0.0011686658 -0.0016045509 0.016936988 -0.0024516103 0.04464576 -0.0034202656 0.0027434363 -0.00086303987
-0.00017431074 -0.014976795 0.045408484 0.027729033 0.0018094361 0.00647828 0.039150767 0.010003224
0.025755813 -0.03363848 -0.008569398 -0.009539558 0.014676712 -0.011324328 0.010205849 -0.010472329
0.022213718 -0.009767052 0.011349958 -0.027702048 -0.01730313 -0.04403394 -0.04543873 -0.013633524
-0.036764845 0.01944377 -0.00844998 -0.041288577 -0.010378014 -0.043530658 -0.010034741 0.0016798507
0.021230254 0.031721335 0.027282055 0.015341584 0.0065839007 0.008778442 0.006974204 -0.0048624324
-0.011135028 0.020392006 0.005208048 0.009331186 -0.0015307039 -0.045823134 0.008406327 -0.009631097
-0.043898083 -0.036116842 0.011382737 0.0016750027 0.00931377 0.0072913393 0.006016654 -0.011626366
-0.012058575 -0.008888613 0.0018457277 -0.011429946 0.004321042 -0.010771319 -0.010076197 -0.011627765
0.033754483 -0.012351528 0.009846419 0.0043253233 -0.0302038 -0.008270935 0.0055403183 -0.03119281
0.049658537 -0.11675648 -0.018979413 0.05887179 0.07382449 0.075215675 -0.010342146 0.084666334
0.08862557 -0.019946042 0.07013503 -0.10179735 -0.08708897 -0.18730642 -0.17964752 -0.04594369
-0.16547695 0.03758273 0.095877714 -0.1541617 -0.094664685 -0.15812175 0.04932174 0.09451974
0.073990926 0.07101479 0.117977254 0.03984365 0.06967421 0.10185618 0.0025001424 0.055001322
0.026185462 -0.0035104218 0.07526198 0.11821276 0.07642498 -0.12947756 -0.0030973842 0.09282126
-0.19622514 -0.15266879 0.11384212 0.05198991 0.031812727 0.082045 0.09738557 0.09847667
0.09029127 0.029756185 0.084837735 0.0754091 0.09948814 0.039012935 0.075060464 0.07854728
0.035329733 -0.081790134 0.077300645 0.10193766 -0.15434514 0.07939303 0.07988799 -0.15836653
0.05548681 0.06600666 0.0018858403 0.0018106903 0.020139448 0.0014900506 0.016520102 0.0054971473
0.07359944 0.027043153 0.058721907 0.051020727 0.08064069 0.058493283 0.048252728 0.040929332
0.06823575 0.001929624 0.016030349 0.037473977 0.021766473 0.051816694 0.0020823958 0.03868822
0.013087415 0.10287822 0.059151947 0.089141235 0.033910476 0.063763805 0.045426972 0.06514411
-0.00020286064 0.014078664 0.043956053 0.06622022 0.028592462 0.04193184 0.020000646 0.0046586287
0.045698464 0.053449493 0.06051519 0.025257012 0.017661298 0.026354335 0.030242864 0.006441289
0.0037494672 0.001013203 0.03848129 -0.0019949006 0.049023613 -0.0017926921 0.003930643 0.00086373254
0.05336003 0.018839786 0.06775045 0.054807976 0.054418195 0.019441936 0.06690851 0.06572342
00000000: 2925 903c 7130 713c 0d6d 01bc 1a7d 06ba
00000010: 98d6 e439 e7b6 4fba f36f 84bc 9f90 5d3b
00000020: d812 8c3c 4420 26bc f844 2b3d 050c 613c
00000030: 2ff8 d43c 9bf1 40bc 3208 2bbc f44d 11bc
00000040: fe04 533c 8b76 d7bc 549f 29bb f062 51bc
00000050: db9f a4bc 1953 d13b 7647 81bb 8356 483c
00000060: 947a 343c 7c84 783d 033b ce3c 2f3e 853d
00000070: fe32 bc3b 3da1 423d 980c d7bc 8baf 093d
00000080: eef0 83bb 477b 83bc 6c96 d63c 02bb 1f3d
00000090: 4471 543c a053 4bbb e4e6 833c 1cde 2b3b
000000a0: 7386 4b3a d532 b63b d548 093d 8bde eabb
000000b0: ca7c 93bc ecd3 0c3a 086a 95bc 731b c63b
000000c0: eb2d 993a cb4f d2ba 70bf 8a3c 32ab 20bb
000000d0: 79de 363d 8926 60bb 39cb 333b a03d 62ba
000000e0: 2fc7 36b9 3b61 75bc 3ffe 393d ff27 e33c
000000f0: 9a2a ed3a c047 d43b 8e5c 203d 90e4 233c
00000100: dbfd d23c 81c8 09bd a966 0cbc ce4b 1cbc
00000110: 9876 703c ad89 39bc 6f36 273c 2294 2bbc
00000120: 8bf9 b53c fc05 20bc 2df5 393c 68ef e2bc
00000130: 4bbf 8dbc ef5c 34bd f61d 3abd 255f 5fbc
00000140: bc96 16bd 8b48 9f3c c971 0abc 361e 29bd
00000150: 8c08 2abc 344d 32bd c168 24bc 702e dc3a
00000160: 12eb ad3c 3bee 013d 9e7e df3c 445b 7b3c
00000170: c3bd d73b 74d3 0f3c dd87 e43b 0a55 9fbb
00000180: b16f 36bc 230d a73c 46a8 aa3b d5e1 183c
00000190: e6a1 c8ba 0ab1 3bbd b1ba 093c c0cb 1dbc
000001a0: 7ace 33bd 41ef 13bd a97e 3a3c c48b db3a
000001b0: c898 183c 30ec ee3b 5a27 c53b 837c 3ebc
000001c0: 5491 45bc 8ca1 11bc 58ec f13a ab44 3bbc
000001d0: 8797 8d3b 307a 30bc a216 25bc 6282 3ebc
000001e0: 2442 0a3d 105e 4abc e052 213c 71bb 8d3b
000001f0: f66d f7bc d182 07bc 8f8b b53b 1088 ffbc
00000200: c066 4b3d 051e efbd b77a 9bbc 8c23 713d
00000210: 4b31 973d ad0a 9a3d 1b72 29bc 8b65 ad3d
00000220: 5381 b53d e265 a3bc f4a2 8f3d 217b d0bd
00000230: b45b b2bd 41cd 3fbe 85f5 37be 732f 3cbd
00000240: ca72 29be 59f0 193d 895b c43d 91dc 1dbe
00000250: 8fdf c1bd abea 21be 9805 4a3d 9193 c13d
00000260: 8e88 973d 3470 913d 0f9e f13d 1833 233d
00000270: 5ab1 8e3d f999 d03d 6ed9 233b 1149 613d
00000280: e582 d63c 1b0f 66bb f422 9a3d 8819 f23d
00000290: b384 9c3d c495 04be 7cfd 4abb 1319 be3d
000002a0: 3eef 48be 3555 1cbe 0f26 e93d 5ff3 543d
000002b0: 104e 023d 3507 a83d 1672 c73d 23ae c93d
000002c0: a1ea b83d 3ec3 f33c 68bf ad3d 1670 9a3d
000002d0: 70c0 cb3d 07cc 1f3d 4db9 993d 65dd a03d
000002e0: e9b5 103d 9681 a7bd cd4f 9e3d b1c4 d03d
000002f0: a70c 1ebe d098 a23d 519c a33d d62a 22be
00000300: 2346 633d 802e 873d 4d2e f73a af54 ed3a
00000310: 7cfb a43c cd4d c33a 2a55 873c 6a21 b43b
00000320: 4ebb 963d 9a89 dd3c 6286 703d 1cfb 503d
00000330: f226 a53d a796 6f3d a7a4 453d 84a5 273d
00000340: 2fbf 8b3d 70eb fc3a 1452 833c 507e 193d
00000350: 9a4f b23c be3d 543d ce78 083b 8a77 1e3d
00000360: 996c 563c d1b1 d23d 5049 723d ae8f b63d
00000370: b6e5 0a3d 9996 823d a211 3a3d 466a 853d
00000380: fdb6 54b9 32aa 663c 430b 343d 779e 873d
00000390: bd3a ea3c b9c0 2b3d 65d8 a33c 69a7 983b
000003a0: 502e 3b3d dbed 5a3d c7de 773d cbe7 ce3c
000003b0: 6dae 903c 0ce5 d73c e2bf f73c 7311 d33b
000003c0: 9fb9 753b 73cd 843a 8f9e 1d3d e1bc 02bb
000003d0: fccc 483d c4f8 eaba a0cc 803b 1c6c 623a
000003e0: 0c90 5a3d e555 9a3c bfc0 8a3d 547e 603d
000003f0: 9de5 5e3d b244 9f3c 5407 893d 009a 863d

lstm.weight_hh_l0 f4 [512, 128]
0.0048578396 -0.006350805 0.10896602 -0.037932932 0.056113552 0.017516376 0.10653357 0.034221686
0.05481095 -0.04330268 -0.06059382 0.0052141785 -0.05225467 0.029645747 -0.021666681 0.008085772
0.0054686842 0.0856245 -0.014658391 -0.08151791 -0.029262995 -0.07997674 -0.037701473 0.039373484
0.09916393 -0.06547652 0.004294026 -0.077095896 -0.1268234 0.047001444 -0.012090124 0.09393231
-0.041587424 -0.04322352 -0.03851569 0.023333428 -0.05097403 0.033843987 -0.013526826 0.018788625
-0.08853878 -0.014910596 -0.08635936 0.013204473 0.06112669 -0.018643111 -0.042193588 -0.032336943
-0.014657302 0.13554755 -0.012582271 -0.008671362 -0.009190453 0.038280696 0.07021986 -0.015426879
-0.023730388 -0.029374007 0.08226142 -0.03355266 0.024568668 0.0024891098 0.094555385 0.059116248
0.02758506 0.037939906 -0.05362339 0.041570045 -0.0077147824 -0.018924143 -0.019515047 0.0845757
-0.004952169 0.07372311 0.025051776 0.037614193 0.03248253 -0.043739997 -0.05401737 -0.0097274715
-0.03153586 0.053950883 -0.05685675 -0.0043885494 0.03031784 -0.13036245 -0.03625821 -0.08994239
0.107785866 -0.010331404 0.07992054 -0.006241392 0.053143527 0.06849608 -0.0067657474 0.05465129
0.008628712 0.04202981 0.0224775 -0.021083439 0.034241583 0.0030011022 0.04424895 0.09303975
0.042502716 0.07709735 0.00846374 -0.08963167 -0.0024658137 0.025404984 -0.066652074 0.0073539233
-0.038818054 0.060540106 -0.028192665 -0.006020786 -0.015219866 0.016207056 0.024908721 -0.021920092
-0.03507018 -0.004749129 -0.072185904 0.10494906 0.018599236 0.065669715 -0.08195587 -0.0032659015
-0.09479424 -0.001187269 0.0779672 -0.041073438 -0.018624803 -0.032547705 0.06461815 0.04071597
-0.022467721 -0.014233494 0.072553456 0.06976111 0.016292881 -0.029700708 -0.013588986 0.040566407
-0.03888549 -0.021699073 -0.0008264195 -0.0008192715 -0.05465306 0.0252491 0.0236308 -0.017575674
-0.016169868 -0.03059654 -0.0341526 0.009555032 0.0080913715 -0.018802073 0.009069581 -0.027911086
-0.033004764 -0.022755569 -0.03475682 0.006728059 -0.03530842 -0.034956995 -0.0098173795 -0.03558503
-0.022016123 0.0044075474 -0.015828196 0.017548157 -0.0065843123 -0.057420395 0.008510113 0.024990102
-0.013739441 0.034139838 0.05494374 0.047631815 0.0488329 0.018400952 0.025638886 -0.024463415
-0.0666766 0.022519847 0.025729524 0.00890509 0.020101232 0.059888218 0.019677391 0.006732223
-0.041528087 -0.005585869 0.016845902 0.07715353 -0.03592645 -0.0014941532 -0.002082867 0.013846698
0.017388696 -0.05730894 -0.058995567 0.043781705 -0.04286705 0.017767709 -0.022027338 -0.043114718
0.044218767 -0.008078498 -0.005278841 -0.041014887 0.05016986 -0.026003063 -0.00016959966 0.011592304
0.0063261455 0.010043281 -0.018223284 -0.008233497 0.03444669 0.007561569 -0.04096233 -0.022114621
-0.03387879 -0.0059580663 0.05518984 0.0055421777 0.04383974 0.020616485 0.0015451034 -0.014427419
0.03905101 0.0019456241 -0.008251029 -0.02289308 0.012613857 -0.03603945 -0.08496998 -0.042351216
-0.0014881628 0.030691603 -0.00020394922 0.030286998 0.030625671 0.0056622354 -0.087584876 -0.049965132
0.03033604 0.009684855 0.04605617 -0.03397824 0.051162582 -0.021394372 -0.021204183 -0.072322346
00000000: 832e 9f3b 6a1a d0bb 9429 df3d 905f 1bbd
00000010: 53d7 653d 817e 8f3c 462e da3d 0a2c 0c3d
00000020: 7281 603d 275e 31bd 3a31 78bd b3db aa3b
00000030: fe08 56bd a3db f23c 537e b1bc 307a 043c
00000040: a632 b33b e65b af3d bf29 70bc ddf2 a6bd
00000050: f3b8 efbc d8ca a3bd dc6c 1abd 1746 213d
00000060: 7516 cb3d 8e18 86bd e7b4 8c3b 74e4 9dbd
00000070: fedd 01be 9684 403d a815 46bc 955f c03d
00000080: 9357 2abd 250b 31bd a1c2 1dbd bf25 bf3c
00000090: 25ca 50bd fe9f 0a3d 9f9f 5dbc 9aea 993c
000000a0: d253 b5bd 934b 74bc 2ddd b0bd 9357 583c
000000b0: fb5f 7a3d 70b9 98bc 2fd3 2cbd be73 04bd
000000c0: 2e25 70bc facc 0a3e df25 4ebc 5412 0ebc
000000d0: 8e93 16bc 38cc 1c3d 6ecf 8f3d 05c1 7cbc
000000e0: 3b66 c2bc c2a1 f0bc ad78 a83d 846e 09bd
000000f0: 3b44 c93c 5520 233b 41a6 c13d e123 723d
00000100: 10fa e13c e066 1b3d 33a4 5bbd 5a45 2a3d
00000110: 49cc fcbb ce06 9bbc 05de 9fbc 0636 ad3d
00000120: ce45 a2bb 24fc 963d 6239 cd3c 5711 1a3d
00000130: 670c 053d b628 33bd 5141 5dbd f95f 1fbc
00000140: bf2b 01bd 9afb 5c3d a0e2 68bd d2cd 8fbb
00000150: 1e5d f83c bc7d 05be 7d83 14bd b733 b8bd
00000160: d6be dc3d 0d45 29bc 61ad a33d 9784 ccbb
00000170: 07ad 593d ac47 8c3d 34b3 ddbb 08da 5f3d
00000180: 715f 0d3c 7327 2c3d bc22 b83c 2db7 acbc
00000190: e740 0c3d 24ae 443b 633e 353d a08b be3d
000001a0: 5417 2e3d 37e5 9d3d 80ab 0a3c cf90 b7bd
000001b0: 7d99 21bb 1d1e d03c e280 88bd 2ef9 f03b
000001c0: aeff 1ebd e7f8 773d 4ef4 e6bc 034a c5bb
000001d0: bf5c 79bc a9c4 843c 600d cc3c c491 b3bc
000001e0: c0a5 0fbd 959e 9bbb 34d6 93bd 88ef d63d
000001f0: 6d5d 983c d87d 863d 7bd8 a7bd bc08 56bb
00000200: 7c23 c2bd 239e 9bba 44ad 9f3d 9f3c 28bd
00000210: 0b93 98bc be50 05bd 8556 843d cac5 263d
00000220: 3a0e b8bc 9a33 69bc e896 943d eade 8e3d
00000230: a678 853c e64e f3bc 57a4 5ebc f628 263d
00000240: 6446 1fbd 41c2 b1bc 13a4 58ba 61c4 56ba
00000250: e3db 5fbd 33d7 ce3c 6195 c13c dcfa 8fbc
00000260: ac76 84bc 98a5 fabc 99e3 0bbd b58c 1c3c
00000270: ac91 043c ce06 9abc 9498 143c caa5 e4bc
00000280: 0130 07bd e369 babc 2b5d 0ebd 0d77 dc3b
00000290: 909f 10bd 112f 0fbd 13d9 20bc 9cc1 11bd
000002a0: 285b b4bc 306d 903b 22aa 81bc 27c1 8f3c
000002b0: 37c1 d7bb a631 6bbd 006e 0b3c 0bb8 cc3c
000002c0: 641b 61bc 37d6 0b3d b00c 613d 9419 433d
000002d0: 0205 483d 98bd 963c a408 d23c 8067 c8bc
000002e0: be8d 88bd 8b7b b83c b9c6 d23c a8e6 113c
000002f0: 57ab a43c 594d 753d 7b32 a13c fb99 dc3b
00000300: 5b19 2abd aa09 b7bb 6b00 8a3c ac02 9e3d
00000310: 9d27 13bd 76d7 c3ba b680 08bb 43dd 623c
00000320: bd72 8e3c c7bc 6abd 56a5 71bd 7254 333d
00000330: 5c95 2fbd 968d 913c ad72 b4bc 0f99 30bd
00000340: bd1e 353d ad5b 04bc 21fa acbb 3aff 27bd
00000350: e97e 4d3d 6004 d5bc 90d6 31b9 a6ed 3d3c
00000360: 8e4b cf3b 938c 243c ff48 95bc cae5 06bc
00000370: f917 0d3d 0ac7 f73b 1ec8 27bd b929 b5bc
00000380: 7cc4 0abd e23b c3bb be0e 623d 289b b53b
00000390: 4d91 333d e7e3 a83c 1185 ca3a fb60 6cbc
000003a0: f4f3 1f3d 5004 ff3a 532f 07bc 458a bbbc
000003b0: 5aaa 4e3c 1a9e 13bd be04 aebd 7878 2dbd
000003c0: 750e c3ba f56c fb3c 34db 55b9 701c f83c
000003d0: b0e2 fa3c 468a b93b b35f b3bd 3da8 4cbd
000003e0: 4983 f83c 3aad 1e3c 65a5 3c3d c42c 0bbd
000003f0: db8f 513d 4043 afbc 65b4 adbc bd1d 94bd

lstm.bias_ih_l0 f4 [512]
0.012836441 0.0026217513 0.063437626 0.06385878 0.01490845 0.0066605774 -0.042866096 0.0150068775
0.07887814 0.033174668 0.051506203 0.038209595 0.030161522 0.014023617 -0.053580463 0.012517422
0.026543917 0.03659204 -0.0051386124 0.010301754 0.06125434 0.004141409 -0.0047800695 0.10707086
0.09791971 -0.018312957 -0.019031076 0.068213396 0.045970935 0.049002964 -0.011529111 0.06579773
0.05433845 -0.025457565 0.033560295 0.07451523 0.02766797 0.07986882 0.06878532 0.051013764
-0.016003652 0.041059673 0.09286162 0.033317637 0.046301782 0.07981247 -0.10840766 0.05597044
0.019793231 0.062224958 -0.011024953 0.038356487 0.07892172 0.10394972 0.022676053 0.061184954
0.08939909 0.04306217 -0.07207976 0.051519513 -0.03267221 0.10636394 -0.03738993 0.0050122594
-0.022091357 0.030841384 -0.009073568 0.11540865 0.04839121 0.06279122 -0.027463881 0.003010424
0.0379382 -0.02302309 0.042179536 0.031274036 -0.07923979 -0.031580035 -0.016321372 0.091945514
0.039602432 -0.039627247 0.015585063 0.014229324 -0.0077400627 -0.004177039 -0.030111853 -0.0576718
-0.018605726 0.09327108 0.029116446 0.025691848 0.083926395 0.01993807 -0.029829072 0.03935413
0.0046522925 -0.022906724 0.015629256 0.04435774 0.03446315 0.032453 -0.012586791 0.07464119
0.049366478 -0.007141504 0.041332413 0.017096862 0.0017055682 0.04565238 0.022975253 0.007552049
0.09504401 0.0103361765 -0.051609345 -0.0433151 0.024464805 0.02048946 0.016055282 0.064864844
0.064819984 -0.036380954 -0.003986991 0.009326187 0.010788026 0.045054242 0.056337133 0.10937374
0.0566697 0.028954169 0.07443272 0.00035085322 0.02693187 0.09076217 0.028718803 0.042308886
0.07218748 -0.01736525 0.0149852745 0.037557524 0.005418866 0.008571651 0.0801828 0.13468765
0.01103344 0.06886961 0.13921012 0.13392533 0.04862769 0.07273715 0.0950067 0.0703496
0.03976905 0.12733965 -0.004878986 0.004316364 -0.027362883 0.05401679 -0.00581911 -0.024269892
0.10545626 0.19528414 0.0280567 0.021112066 0.0067541236 0.019699354 0.0506746 -0.004932912
0.110837996 0.0057871505 0.0036527836 0.0533003 -0.044908617 0.029607128 0.05696095 0.02541812
0.037501246 -0.024112754 0.024820535 -0.02052119 0.004127972 -0.0032487197 -0.027415058 0.084968366
0.02373574 0.03006835 0.189463 -0.024944399 0.017881844 0.011277594 0.11599462 -0.013754186
0.042714726 -0.0011997268 0.019499157 -0.015813915 0.05494622 0.018322058 0.016408825 -0.041238077
0.016165309 0.031123757 0.10076387 0.016352098 0.11654943 0.03528887 0.07993377 0.0019405355
0.032550994 0.041738626 0.03206245 0.07420121 0.10162708 0.040940635 -0.0022147184 0.01892873
0.23142 0.07458045 -0.0133118685 0.05907971 0.0050474894 0.0712841 0.018520763 0.011371023
0.091030575 -0.023659917 0.028332671 0.057732042 0.05286112 0.007713508 -0.009546096 -0.009720457
-0.00277901 0.012202339 -0.0025365483 0.009256832 0.004783889 0.060524028 0.031795226 0.090592675
0.022728248 0.05035449 0.05953954 0.04909237 0.056077566 0.008986339 0.08236616 0.07887416
0.04987396 0.06227962 0.09657652 0.22986992 0.1026308 0.106557295 0.05619493 0.06278437
00000000: f04f 523c b0d1 2b3b 96eb 813d 64c8 823d
00000010: 9242 743c f940 da3b 5c94 2fbd 68df 753c
00000020: dd8a a13d 29e2 073d 2bf8 523d aa81 1c3d
00000030: 4c15 f73c 50c3 653c 3077 5bbd e015 4d3c
00000040: a172 d93c 89e1 153d ce61 a8bb b0c8 283c
00000050: d5e5 7a3d a8b4 873b 21a2 9cbb f847 db3d
00000060: 218a c83d 0e05 96bc 0fe7 9bbc 77b3 8b3d
00000070: 054c 3c3d 55b7 483d 99e4 3cbc f6c0 863d
00000080: ff91 5e3d 628c d0bc 8576 093d 719b 983d
00000090: f0a7 e23c 4492 a33d 51df 8c3d cff3 503d
000000a0: 171a 83bc 302e 283d 3c2e be3d 1378 083d
000000b0: f0a6 3d3d b874 a33d d604 debd 4341 653d
000000c0: 6a25 a23c 99df 7e3d 01a2 34bc b11b 1d3d
000000d0: b6a1 a13d 97e3 d43d 21c3 b93c 139d 7a3d
000000e0: df16 b73d f561 303d 8e9e 93bd 2006 533d
000000f0: 4cd3 05bd 56d5 d93d 2f26 19bd e13d a43b
00000100: eff8 b4bc 12a7 fc3c 4da9 14bc 5f5b ec3d
00000110: dd35 463d af98 803d effb e0bc 894a 453b
00000120: 1665 1b3d eb9a bcbc 73c4 2c3d 3419 003d
00000130: 7948 a2bd 115a 01bd 66b4 85bc ee4d bc3d
00000140: 2936 223d 2e50 22bd 7e58 7f3c 1c22 693c
00000150: 5aa0 fdbb 8bdf 88bb 22ad f6bc 4439 6cbd
00000160: 096b 98bc e804 bf3d 9d85 ee3c b677 d23c
00000170: 9ae1 ab3d 2a55 a33c 195c f4bc cc31 213d
00000180: 4272 983b e2a6 bbbc ed08 803c 76b0 353d
00000190: 3b29 0d3d 70ed 043d d438 4ebc 7bdd 983d
000001a0: 8134 4a3d 4703 eabb 2d4c 293d b80e 8c3c
000001b0: 5f8d df3a fdfd 3a3d 9936 bc3c 2e77 f73b
000001c0: 6fa6 c23d 1159 293c 5264 53bd 2d6b 31bd
000001d0: 6a6a c83c 83d9 a73c 5e86 833c dcd7 843d
000001e0: 57c0 843d 3204 15bd 4ea5 82bb ddcc 183c
000001f0: 43c0 303c cc8a 383d c4c1 663d 57ff df3d
00000200: 7d1e 683d 4b31 ed3c 2f70 983d b9f2 b739
00000210: 3aa0 dc3c 84e1 b93d b243 eb3c 154c 2d3d
00000220: 08d7 933d 9241 8ebc cc84 753c ebd5 193d
00000230: be90 b13b 1c70 0c3c e136 a43d 8feb 093e
00000240: 9ac5 343c 830b 8d3d 198d 0e3e b923 093e
00000250: d42d 473d 37f7 943d df92 c23d 7313 903d
00000260: dfe4 223d 5365 023e e7df 9fbb 4970 8d3b
00000270: 2028 e0bc b640 5d3d 3cae bebb a7d1 c6bc
00000280: 74f9 d73d 91f8 473e 2ad7 e53c 36f3 ac3c
00000290: b251 dd3b 8a60 a13c 2b90 4f3d 44a4 a1bb
000002a0: 08ff e23d 23a2 bd3b 8a63 6f3b 6a51 5a3d
000002b0: 19f2 37bd a68a f23c e34f 693d a939 d03c
000002c0: e89a 193d 1c88 c5bc 6f54 cb3c 0e1c a8bc
000002d0: f043 873b 79e8 54bb 8b95 e0bc e503 ae3d
000002e0: 7471 c23c e651 f63c 9702 423e 3258 ccbc
000002f0: f27c 923c a8c5 383c 968e ed3d 3d59 61bc
00000300: a3f5 2e3d 2740 9dba b2bc 9f3c 2f8c 81bc
00000310: 4a0f 613d 2418 963c cd6b 863c 42e9 28bd
00000320: 1c6d 843c 40f7 fe3c 4a5d ce3d d6f4 853c
00000330: 78b1 ee3d 108b 103d 51b4 a33d 9159 fe3a
00000340: 3154 053d 1ff6 2a3d ea53 033d cef6 973d
00000350: dc21 d03d 5eb1 273d cf24 11bb 6d10 9b3c
00000360: 5df9 6c3e a3bd 983d 061a 5abc 91fd 713d
00000370: 6965 a53b 66fd 913d dbb8 973c 874d 3a3c
00000380: 3d6e ba3d 71d2 c1bc eb19 e83c 6f78 6c3d
00000390: e784 583d 98c1 fc3b 3b67 1cbc 8d42 1fbc
000003a0: 0d20 36bb 52ec 473c 383c 26bb f8a9 173c
000003b0: 2bc2 9c3b 0be8 773d b63b 023d a788 b93d
000003c0: 9730 ba3c 8240 4e3d bcdf 733d 1515 493d
000003d0: 97b1 653d 703b 133c 97af a83d c788 a13d
000003e0: a348 4c3d ea18 7f3d e9c9 c53d 0563 6b3e
000003f0: 1930 d23d b63a da3d a82c 663d 1795 803d
