outputs/models/best_hgc_lstm.pth (torch, 839494 bytes, 24 tensors)

gcn_layers.0.fc.weight f4 [64, 2]
00000000: 0e0a 063f ca2d dd3e fe5d 0dbf 8add f53e
00000010: 5242 4dbe deb0 4c3c c7ff aa3d 1ee3 bebe
00000020: 878f 943c c2f5 15be f903 163f 5467 ae3e
00000030: eab7 053f d1cb eabe a07d da3b 0984 043e
00000040: ef34 083e 26dd e3be bb18 bbbd c02d 9a3e
00000050: 76a6 a2be b3a7 b03d d062 a23d 1d80 2ebe
00000060: b2c7 dd3e 3d1a d83e e9bc f8be 1f72 5d3e
00000070: a7b0 88be 23c0 e0be 68c8 b63c ecc1 26be
00000080: e7ab efbe 597f a73e dd11 2a3e 5531 9ebe
00000090: 59fb 043d 17a3 82be 9657 803e 050c d13e
000000a0: 73f7 183e 5087 753d b3d7 4a3e ff64 be3e
000000b0: c338 37be 24ee bf3e 4238 66be 9fed 07be
000000c0: 65de 8e3e 6fd5 6abe 8e50 22bb 43b3 fdbd
000000d0: 8530 ba3e 2124 ee3e 5f26 d2be d9b3 dd3e
000000e0: a757 e23e 5a5f b2be 19f4 5c3e 36dc e03d
000000f0: 8cfa 82be a688 43be c723 5fbe df1a f13e
00000100: a2e5 f63e f7d4 f0bd 7193 23bd ba18 873e
00000110: 4731 7b3e 3612 e9be cfb3 00bf eb29 473e
00000120: 1f57 92be 854a 11be 07fc 96be 712a b93c
00000130: 30f8 13bf 82ba 973e 72a1 243f e199 163e
00000140: c61d 8f3d 613c b5be c039 82be 80da e5bd
00000150: 0cc9 cb3e d26f 573e 82e0 b83e b80b d8be
00000160: 59c6 7bbe 1aa6 03be b8d1 ad3c 0fac 54be
00000170: 74ef ccbe 0feb 04be bdce f13e e709 e0be
00000180: 5333 273c 5173 20be c3f2 03be c2c3 943e
00000190: 4de2 083f a11b 5bbd d969 4b3e 8ada 3eb9
000001a0: c9ae bc3e 89e9 723e 5f7d dbbe c562 5f3d
000001b0: e45d bd3e eef1 2dbe f227 e73d b7c3 9e3e
000001c0: d960 953d cc90 6d3e 3391 91be bf45 47be
000001d0: d707 89be d059 443d 0602 af3e d624 1ebe
000001e0: 551d 4ebe ffda c4be 289c 183f 92cd 6a3e
000001f0: 43d1 e83e 9a82 603e f147 b33e cd0d b8bc
0.5235909 0.43198997 -0.55221546 0.48020583 -0.2004483 0.01249334 0.08349567 -0.37282652
0.018134845 -0.1464453 0.5859981 0.34063208 0.52233756 -0.45858625 0.0066678077 0.12940992
0.13301443 -0.4450466 -0.09135576 0.3011303 -0.31767625 0.08625736 0.07929003 -0.17041059
0.43316418 0.42207518 -0.48581627 0.21625565 -0.26697275 -0.4389659 0.022312358 -0.16284913
-0.4681084 0.32714346 0.16608377 -0.30897012 0.032466266 -0.25515053 0.25066823 0.40829483
0.14938144 0.059943497 0.19808845 0.3718643 -0.17892747 0.37486374 -0.22482398 -0.13274239
0.2790405 -0.22932981 -0.0024767253 -0.12387707 0.36365142 0.4651194 -0.410449 0.43301275
0.44207498 -0.34838372 0.21577491 0.10979502 -0.25581777 -0.19095096 -0.21790992 0.47090814
0.4822207 -0.1175937 -0.039935533 0.26386052 0.24530517 -0.45521706 -0.50274366 0.19449584
-0.28582093 -0.14188583 -0.29489157 0.022603245 -0.5780058 0.29634482 0.64308846 0.14707138
0.06988101 -0.35397628 -0.25434685 -0.11223316 0.39801824 0.2103875 0.36108786 -0.4219644
-0.24587382 -0.12856331 0.021218166 -0.2076876 -0.40026438 -0.12980293 0.4722804 -0.43757555
0.010205108 -0.1566899 -0.12885575 0.290556 0.5347031 -0.053493146 0.19864596 -0.00018201224
0.368521 0.23721899 -0.42869088 0.054537553 0.36985695 -0.1698682 0.11286916 0.31008694
0.07293863 0.23199767 -0.2843109 -0.194602 -0.26763794 0.047937214 0.3418123 -0.1544374
-0.20128377 -0.3844833 0.59613276 0.22929981 0.45472154 0.2192482 0.35015824 -0.022467518

gcn_layers.0.fc.bias f4 [64]
00000000: de2f 35b2 bd44 be35 d104 da35 5f33 5736
00000010: c1e9 a935 9476 9835 4017 3b36 346d b335
00000020: af06 d2b6 cae5 0eb6 3d77 84b6 b237 56b6
00000030: 0292 8935 5857 91b5 de97 5b35 572f 0f31
00000040: 5cea 93b4 d1df 2137 d3d4 84b5 884f 6bb6
00000050: d5da ccb5 fc29 beb4 76b9 17b7 a4a6 df35
00000060: a340 3636 0dd5 edb5 9cb9 8132 d0a1 7636
00000070: aa29 f235 b585 dab5 7cde c9b5 5744 e035
00000080: 817b cf35 82d7 0bb6 94be a635 54be 0b35
00000090: fb1a bd34 2c8f f036 ef16 ab34 054b 50b5
000000a0: 238a 0d34 be5f 6ab5 ca54 d535 400b 2f36
000000b0: a625 8a36 0504 4534 5438 05b6 7c19 d3b6
000000c0: e798 e535 d48d e7b5 db3b dbb5 8712 99b6
000000d0: feb4 7c35 2a6d 6db4 0689 b9b6 1153 3534
000000e0: 1d06 62b5 bd65 deb5 7c77 3db7 5c91 e5b6
000000f0: ebdc e234 ce2a 23b6 7e04 25b3 b74f 6735
-1.054647e-08 1.4176109e-06 1.6243667e-06 3.2067398e-06 1.2659513e-06 1.1359393e-06 2.7878705e-06 1.3368322e-06
-6.259266e-06 -2.1293404e-06 -3.9477877e-06 -3.1920904e-06 1.0249789e-06 -1.0828762e-06 8.1804853e-07 2.0836148e-09
-2.7551403e-07 9.648459e-06 -9.896706e-07 -3.5064022e-06 -1.5262873e-06 -3.5420805e-07 -9.043482e-06 1.6663294e-06
2.7157737e-06 -1.7719882e-06 1.5101982e-08 3.6751044e-06 1.8042531e-06 -1.628118e-06 -1.5040418e-06 1.670919e-06
1.5458646e-06 -2.0838056e-06 1.2423429e-06 5.20585e-07 3.5223624e-07 7.169225e-06 3.1867918e-07 -7.7595206e-07
1.3181902e-07 -8.7311116e-07 1.5894414e-06 2.608358e-06 4.1171033e-06 1.8348517e-07 -1.9851332e-06 -6.291257e-06
1.710633e-06 -1.7252119e-06 -1.6334192e-06 -4.561912e-06 9.4140694e-07 -2.2112059e-07 -5.5293813e-06 1.6887158e-07
-8.4200457e-07 -1.6569899e-06 -1.12930975e-05 -6.841654e-06 4.225652e-07 -2.4313808e-06 -3.8421142e-08 8.6170206e-07

gcn_layers.0.bn.weight f4 [64]
00000000: d3f2 593f 7ac8 573f 4247 653f 18e5 5f3f
00000010: 285f 383f b1ed 723f 5ad2 3d3f 4260 403f
00000020: 9b7f 693f 5d71 3c3f a1ce 693f 85e3 623f
00000030: c426 3f3f e0e4 6e3f b288 433f 2942 333f
00000040: 8b4e 5e3f d482 683f 2270 573f ad97 5f3f
00000050: 2e9a 3c3f 3e96 493f e611 663f 40f1 623f
00000060: 80d9 6f3f 20a6 4c3f 686d 3b3f ca9b 563f
00000070: 9da1 5d3f f428 433f 0467 563f 3aab 5c3f
00000080: 07c6 713f 3bbd 493f 3e5a 713f fbdb 4b3f
00000090: 56da 4d3f 869f 723f 8615 543f fd2f 863f
000000a0: f355 653f b33d 583f 69ec 503f cdf9 5d3f
000000b0: 1219 6c3f 50df 533f d5c0 6f3f 1298 603f
000000c0: ca27 3c3f 367a 5c3f e65b 523f 7341 6f3f
000000d0: a910 3f3f d2de 513f a755 793f d843 483f
000000e0: ec62 5d3f 1d78 573f 1a12 593f 7bd9 663f
000000f0: 5c21 583f 8839 663f 9c38 603f 9f82 5f3f
0.85136145 0.8429028 0.89561856 0.87458944 0.72020197 0.9489394 0.74149096 0.7514688
0.91210335 0.7361048 0.91330916 0.8862842 0.74668527 0.93317986 0.76380455 0.7002283
0.868386 0.9082463 0.84155476 0.87340814 0.7367276 0.78744876 0.8987106 0.8864937
0.93691254 0.79940987 0.73213816 0.83831465 0.8657473 0.76234365 0.8375094 0.8619877
0.9444279 0.7880437 0.94278324 0.7963254 0.8041128 0.94774663 0.8284534 1.0483395
0.89584273 0.84469146 0.81610733 0.8670929 0.92225754 0.8276262 0.93653613 0.8773204
0.73498213 0.8612398 0.82171476 0.9345924 0.74634796 0.8198062 0.9739632 0.7822852
0.8647907 0.84167653 0.84793246 0.901756 0.844259 0.89931536 0.8758638 0.87308687

gcn_layers.0.bn.bias f4 [64]
00000000: 4b04 bcbc fb4c bc3c 6567 973e abdf cc3d
00000010: f77d ad3d 8dc3 4b3e 2990 873d 8961 8abe
00000020: bfb7 dd3d 3d99 58be 4a3d 2c3e a116 153e
00000030: ded3 dcbd 4f98 133e af73 19be a2d1 01bd
00000040: 5387 d7bd f6d9 283e a8e1 d63d 1b7d 7bbe
00000050: f3c6 82be 62b6 843d 691d 063e e6bd 61be
00000060: 9386 2f3e 34dd 15be b967 7cba 50ab f13d
00000070: c4a3 503e 7175 d73d 22ae 32be ad18 5cbe
00000080: 1b86 62be 83a8 83bd 4057 0a3e 06d8 c9bd
00000090: 0290 8bbe 9d39 803e eead cebd 0c55 31bd
000000a0: 40b9 183e 34d3 8abe ece9 f93d 5411 93be
000000b0: 6499 15be 3a30 583b 3b17 123a a92a f23d
000000c0: b091 34be 1c4b 39bd 9338 5dbd e958 a63d
000000d0: a2e5 173e 7f13 f1bd b29b 123e adee 94bd
000000e0: 3e13 7ebe 4ee5 70be 47ef 833e 18aa 243e
000000f0: 915a 58be 60fa 283e de4a ce3d 18ef 7f3d
-0.022951266 0.022985926 0.2957107 0.10003599 0.084712915 0.19898815 0.06619293 -0.27027538
0.108260624 -0.21152206 0.16820255 0.14559413 -0.10782598 0.1441357 -0.14985536 -0.031694062
-0.10523858 0.16489395 0.10492259 -0.24559443 -0.2554241 0.06480099 0.13097157 -0.22045097
0.1714118 -0.14635164 -0.0009628493 0.118002534 0.20374972 0.10520447 -0.17449239 -0.21493788
-0.2212147 -0.064286254 0.13509846 -0.09855656 -0.27258307 0.25043955 -0.10091768 -0.043293998
0.14914417 -0.2711426 0.1220282 -0.28724158 -0.14609295 0.003298773 0.00055729196 0.11824543
-0.176337 -0.045237646 -0.05400903 0.08122427 0.14833692 -0.11771297 0.14317206 -0.07272086
-0.24812028 -0.23524973 0.25768492 0.1608051 -0.21128298 0.1650176 0.100728735 0.062483877

gcn_layers.0.bn.running_mean f4 [64]
00000000: c91b ca3e 0827 a23c eda2 8bbd c856 12be
00000010: 7c5d 7cbd c91c c03e 29cb a9bc c58e 803d
00000020: a817 22be fc55 da3d 38fc 9dbd 9761 4dbd
00000030: 9ba4 b63e 3d20 a1bd 483e 9bbe 2b98 8abd
00000040: 540c a8bc 3740 a9bd c416 dbbd 0dd4 903e
00000050: 443d aa3d 9a62 7c3e 7a63 de3d 4166 14be
00000060: d44f 78bb b347 70bd 8ec3 b33e 995d 4d3d
00000070: e0db 803a 1205 063e 25e8 3bbe 1c50 0e3e
00000080: 12ac fc3d d6a3 dd3d b0e2 f8bd 77c7 c2bd
00000090: 3cd8 2fbe 907c c9bd 49a8 9abd 3bbc 9c3e
000000a0: fa82 0ebe a0ca 15be 63f8 7a3e c88c 81bd
000000b0: 425f 1abe be2d b6bd 5f62 55be 23fb f0bc
000000c0: 68d4 8dbd 9ad3 b33d 55c7 303e 6327 963d
000000d0: fc9c 7c3e eb2c 08be 1e3d 6b3d 78aa 3e3e
000000e0: 9e4a 0a3e f06e 48be 9eb3 9cbd 4b3b 5e3d
000000f0: 8fd0 81be 3878 a73e 4d52 8a3e 8b79 f33d
0.39474323 0.019794002 -0.06818185 -0.14290917 -0.06161259 0.3752196 -0.020726757 0.06277231
-0.15829337 0.106609315 -0.077141225 -0.050141897 0.3567246 -0.07867477 -0.30320954 -0.06767305
-0.020513691 -0.08264201 -0.106977016 0.28286782 0.08312467 0.24646989 0.108588174 -0.14492132
-0.0037889378 -0.058662128 0.35110134 0.05013809 0.0009831153 0.13087872 -0.18350275 0.13897747
0.12337507 0.10822265 -0.12152612 -0.09510701 -0.1717233 -0.098382115 -0.07551629 0.30612358
-0.13917151 -0.14628077 0.24508815 -0.0632568 -0.150754 -0.088954434 -0.20838307 -0.029416626
-0.06925279 0.08780594 0.17263539 0.07331731 0.2466926 -0.13298385 0.057431333 0.18619716
0.13505027 -0.1957357 -0.07651447 0.054255765 -0.2535443 0.32708907 0.27015916 0.11888417

gcn_layers.0.bn.running_var f4 [64]
00000000: 29e7 8d3d 1ef0 9c3c c940 e93a 86d1 913c
00000010: e879 423b ab67 713d c322 8f3c 0dbc 2d3b
00000020: 4f9b c43c 8972 333c 7707 473b d05f 4d3b
00000030: 3c50 6f3d cf8e db3b 460e 403d 62d4 6d3b
00000040: 0d22 183c ea1a 213c 751c 133c b5d4 263d
00000050: a965 343b 8838 023d a562 763c 4b68 103c
00000060: b66b 8f3b b86d 1b3b d5d4 743d 7428 833c
00000070: 7754 263c 9163 e63b a5d9 703c e652 c43c
00000080: ebf6 ed3b 4559 1a3c abb1 ae3c 6374 e73b
00000090: 2ba5 453c 6ea6 743b d555 253c a92f 123d
000000a0: 2b1e 863c 413b 0d3c 5013 cb3c 1127 803c
000000b0: d072 193c 4997 c63b aabf 8a3c 79cf 823c
000000c0: 57a4 683b 8d65 173c b825 3f3c 3e1a 043b
000000d0: 6426 d43c 18f0 e73b 946e 803b d634 9f3c
000000e0: f87f 2b3c c0f4 863c 4713 233b f940 5a3b
000000f0: f945 0a3d 75c4 2d3d 249c f33c 1d6a b13b
0.06928856 0.019157466 0.0017795797 0.017800104 0.0029674713 0.058936756 0.01747263 0.0026509792
0.023999838 0.0109526 0.003036944 0.0031337626 0.058426127 0.0067003737 0.046888612 0.003628992
0.009285462 0.009833077 0.008978953 0.040730197 0.0027526414 0.031792194 0.015038167 0.008813928
0.004376854 0.002371652 0.059773285 0.0160105 0.010151974 0.007030912 0.014700328 0.02396531
0.007262101 0.009420698 0.021324953 0.007063435 0.012063305 0.0037330645 0.010091265 0.035689984
0.016371807 0.008620084 0.024789482 0.015643628 0.009365752 0.006060515 0.016937096 0.015968071
0.0035498345 0.00924052 0.011666708 0.0020157243 0.025897212 0.007078182 0.003919432 0.019434374
0.010467522 0.016474128 0.0024883316 0.0033302887 0.033758137 0.042423684 0.02973754 0.005414261

gcn_layers.1.fc.weight f4 [64, 64]
00000000: a38d 8dbd 43c0 15be 18fb c9bd 4bcd 3cbc
00000010: f0ad dcbd 68f0 7abd 7ccf b5bd 8476 b8bd
00000020: ca56 1fbe 4d6a 00be c950 1fbe d394 1fbe
00000030: 565a a0bd 5989 233c 0551 8b3d 37b8 563c
00000040: 3a01 d0bd bbde 1fbe d9c5 c7bd 5f37 02bd
00000050: cbe8 b7bd b3d8 b73d 26fe 553c d09b e33c
00000060: 8453 8ebd 8bc2 d93c 5a21 95bd 9bbd aebc
00000070: f9f7 9dbd 6d3f 3b3d 2e8f 8abd e3f2 46bd
00000080: 3fb0 32be 6625 803c 899f f3bd a2cd 97bd
00000090: a4da a33d f045 d2bd ac74 bbbd be51 5dbc
000000a0: 185d 71bd 0548 f5bc 9f32 c83c 0938 acbd
000000b0: 94cc 9d3d 71e6 313c c712 abbd 859d dabc
000000c0: a85e b93d 7d8a bebc e82d 2fbd 84ee 87bd
000000d0: 85e6 a53d 7332 cb3d 7b9e e03c 4f33 9cbd
000000e0: d564 533d b63a 873c e050 0f3d 6be7 b23d
000000f0: c3ff 9bbb f5b4 093d 8b99 e7bd e692 39bc
00000100: d315 e23d 9d51 a33c 0674 843d 32f7 41bd
00000110: 8527 0f3d e06f c73d 8ce7 893d 734b b03d
00000120: 44b7 febc 7b54 243e acdc 993d 34fa 20bc
00000130: 0b7c e43c d6e7 9e3b f890 1abd 7400 b2bd
00000140: f0e2 183c 364a 9b3d ec01 f13d e0ef fe3d
00000150: 6826 883d c1ed 9f3d abb1 383d efa0 433d
00000160: 0def cebd f5c6 3ebd acea 693d 059c 023e
00000170: eadb 66bd d205 0e3e 0ac8 803a 471e 2c3e
00000180: 3743 583d dd7d 323d 8c7a 823d a1ab 94bd
00000190: 4910 07bb ebc2 aebc c460 b13a 93c8 bf3b
000001a0: 574a f1bb 7d55 39bc 7ccb 003e a34b 3dbc
000001b0: 8e69 8c3d 8ed7 573d 700a 7f3c f3bf 903d
000001c0: 070a 53bb 39ee a33d d35b 1ebd 8288 92bd
000001d0: 09a3 aa3d 9e4c 5d3d 9737 17be 6a71 3a3d
000001e0: 569e dd3d 4087 8bba 877f c2bc 20c4 933c
000001f0: 8c7d 85bd ddaf 2dbd 613f d63d dc66 423d
00000200: d292 a43d fa8d a2bd fcbd 08be e73f c53d
00000210: 5519 dc3c dd6b 52bc 9742 f13a 2ef7 b23d
00000220: 6ca3 c23d a8dc 6f3d a67d 61bd 118e 98bd
00000230: 7a1d 993d 5496 243c 5686 cb3d 4a2c c63c
00000240: 127c 033d c9f8 bc3d ec66 b33d 595a 123e
00000250: f4c5 0d3d 7022 4e3d e996 273e fdea d3bd
00000260: 7a67 a33d 963e c63d 3863 3f3d 90d1 a2bc
00000270: 9214 a6bd d7f4 babd 53f7 d5bd 143b 273c
00000280: 7048 fbbd acc5 343d d260 793d ecd9 89bd
00000290: a336 14bc 6b36 6abd 883f b83c ab2d 0abe
000002a0: 73af 533d 40fc e3bd 3947 29bd c8da 903d
000002b0: ef36 c4bd 6b2a d13d c2d3 adbd a732 793d
000002c0: cd06 1a3e 6e72 9d3d 9f39 c53c de1f 0dbe
000002d0: cffa e5bd f4d5 c6bd dfb0 e93d c2bb 31bd
000002e0: d073 db3d e6eb 02bd b7ad e6bd f5ef 95bc
000002f0: 304a 153c 2d9a 0f3c 4318 1dbd 8a8d bfbc
00000300: f180 cbbb c542 97bd e28f 7e3d 7977 c53c
00000310: 4fc9 dd3c b816 32bb 1e1d a6bd 9c80 583d
00000320: 4182 3ebd 6cb9 4eba a19f bf3d 76f5 843d
00000330: 1445 59bd 2fbc 58bc f7d7 b43d 7301 8dbc
00000340: df71 e9bd f2e9 b9bc a7da 993c 9ba3 213d
00000350: 281c edbc 85d0 9b3c 92dd 4b3d dd0b ae3d
00000360: 2bb9 8cbd ee39 1a3d 6b6b d6bc dd95 8f3d
00000370: be80 85bd ac02 0dbd c97d 263d de4c a0bc
00000380: 7301 8e3d 2c7d d93c 1de7 613d 335b 213d
00000390: 8bce cf3d 4dd8 4c3d d68a 453c bdfd 31bc
000003a0: d385 85bd 4597 e73d de9e 1fbd 27ae a43d
000003b0: 5881 203d e3ec 42bd 0841 ff3d dfb8 f3bc
000003c0: e4b0 da3d 69b9 e03c a96b 153d 1cda 9a3d
000003d0: e4dc e3bc 7274 bd3d 5e23 7e3d beb5 a63c
000003e0: 40fe 873d 2eb4 0f3d 4a42 183c 4f6a 943d
000003f0: e86e b43d f6cb 97bb 5018 083d 76ff ab3d
-0.06911781 -0.14624123 -0.098623455 -0.011523555 -0.107753634 -0.061264426 -0.08877465 -0.0900698
-0.15560451 -0.1254055 -0.15558161 -0.15584116 -0.0782973 0.009981477 0.068025626 0.013105444
-0.10156484 -0.15612309 -0.09754533 -0.031791087 -0.089799486 0.08976879 0.013061082 0.027784258
-0.06949523 0.026582023 -0.07281752 -0.021330645 -0.07713313 0.045714784 -0.067655906 -0.04857148
-0.17450045 0.015642833 -0.11895663 -0.07412268 0.08000687 -0.10267246 -0.09153113 -0.013508258
-0.05892667 -0.029941568 0.0244382 -0.08409125 0.07705036 0.010858164 -0.08353191 -0.02668644
0.09051257 -0.023259396 -0.04276839 -0.0663729 0.08100609 0.09921732 0.02741932 -0.07626974
0.051609833 0.016507488 0.034989238 0.08735546 -0.004760714 0.03361984 -0.11308583 -0.011326527
0.11039319 0.019936377 0.06467442 -0.047354884 0.034949798 0.09738135 0.06733617 0.08608141
-0.031093247 0.16047852 0.07512793 -0.009825278 0.02789118 0.0048494143 -0.03773591 -0.08691493
0.00933145 0.07582514 0.11767945 0.12448096 0.066479504 0.0780902 0.045091312 0.0477609
-0.10104189 -0.04657646 0.057108566 0.12754829 -0.05636207 0.13869408 0.0009825241 0.16808425
0.052798476 0.043577064 0.0637103 -0.07259298 -0.0020609072 -0.021333179 0.0013532867 0.0058527677
-0.0073635983 -0.011311886 0.12577623 -0.011553678 0.068560705 0.052695803 0.015566453 0.070678614
-0.0032202022 0.08004422 -0.03866179 -0.07154943 0.08331878 0.054028146 -0.147673 0.045518316
0.10821216 -0.0010645166 -0.02374245 0.018037856 -0.06518087 -0.042404044 0.10461307 0.047461376
0.08035816 -0.07937236 -0.13353723 0.09631329 0.026867548 -0.012843099 0.0018406686 0.08738552
0.095038265 0.058560044 -0.05505147 -0.07448972 0.07476325 0.010045607 0.09937732 0.02419104
0.032100745 0.092271395 0.08759865 0.14292277 0.03461261 0.05032581 0.16366161 -0.10347555
0.07978721 0.09679906 0.04672548 -0.019875318 -0.08109392 -0.09128731 -0.10447564 0.010206956
-0.12269676 0.044133827 0.06088335 -0.067310184 -0.0090462295 -0.057180803 0.022491232 -0.13493983
0.051680993 -0.11132097 -0.04132769 0.07072979 -0.0958079 0.10213169 -0.08487655 0.06083932
0.15041657 0.07687841 0.024075327 -0.13781688 -0.112294786 -0.09708777 0.114106886 -0.04339195
0.10715449 -0.03196325 -0.11263602 -0.018302897 0.009111926 0.008764786 -0.038353216 -0.02338292
-0.0062104394 -0.07385782 0.062148936 0.02410482 0.02707353 -0.0027174186 -0.081110224 0.052857026
-0.04651094 -0.00078859064 0.09356619 0.064921305 -0.053044394 -0.01322846 0.088302545 -0.017212605
-0.11398672 -0.022694562 0.01878102 0.039462667 -0.02894409 0.019020328 0.049771853 0.084983565
-0.068712555 0.037652902 -0.026174268 0.07011006 -0.06518696 -0.034426376 0.0406473 -0.019567903
0.0693387 0.026548944 0.055152047 0.039393615 0.10146817 0.050010968 0.012057027 -0.010863719
-0.065196656 0.11308149 -0.038969867 0.080410294 0.03918585 -0.047589194 0.124635756 -0.02975124
0.106782705 0.02743216 0.036479626 0.07561132 -0.02781529 0.09250726 0.062045448 0.020350333
0.06640291 0.035083942 0.009293148 0.07246839 0.08810216 -0.0046324683 0.03322631 0.08398335

gcn_layers.1.fc.bias f4 [64]
00000000: c816 c436 cc65 ed34 796f 2d35 97ab 7e35
00000010: ee4c 48b4 5420 9335 97e5 a335 656c bfb4
00000020: 39cc b136 2f5c 4cb6 6c25 1bb5 5167 a635
00000030: 9b9a 83b4 bfcd eb34 8dfd 1cb5 e50b 8336
00000040: d0b4 cd35 13e1 df35 46ae 8f35 3358 ef33
00000050: b24e 95b5 e7ae 8f34 fc38 bf34 cbe2 79b4
00000060: 38a2 2836 f804 b336 e660 d5b4 4088 6a35
00000070: bdff 83b5 85b3 6834 3126 8f35 9d74 05b5
00000080: 8497 af33 d4dc f7b4 95e3 f436 aa37 6036
00000090: e044 bf36 e054 a035 4bbb a135 1343 3436
000000a0: 4a7a 8c35 538b 4a35 7b88 04b4 e0b5 e535
000000b0: 5280 d8b5 51ef 15b6 3954 b4b4 8207 40b5
000000c0: ba5c 9733 dc91 7fb4 b0eb a6b5 7bf9 ba33
000000d0: 567a 0136 7a07 b435 6447 e635 4930 74b5
000000e0: 4b0a e9b4 9144 5933 82dc c135 f9b6 70b6
000000f0: 45bc 0a34 fda2 ce32 7120 dbb4 01e0 6d34
5.8439073e-06 4.4218757e-07 6.4609736e-07 9.487207e-07 -1.8654438e-07 1.0961762e-06 1.2211266e-06 -3.565539e-07
5.2987857e-06 -3.0452027e-06 -5.7796456e-07 1.2398033e-06 -2.4513142e-07 4.392186e-07 -5.8483494e-07 3.905489e-06
1.5326314e-06 1.66803e-06 1.070505e-06 1.1145348e-07 -1.1124268e-06 2.6763084e-07 3.5617984e-07 -2.3272439e-07
2.5128375e-06 5.335194e-06 -3.9744845e-07 8.737006e-07 -9.83469e-07 2.1671993e-07 1.0665445e-06 -4.9716056e-07
8.176633e-08 -4.616801e-07 7.2982607e-06 3.3411002e-06 5.7002617e-06 1.1945631e-06 1.2049944e-06 2.6861132e-06
1.0466404e-06 7.545361e-07 -1.234311e-07 1.7114762e-06 -1.61306e-06 -2.234203e-06 -3.3588893e-07 -7.15365e-07
7.048352e-08 -2.3801789e-07 -1.2436558e-06 8.70668e-08 1.9293707e-06 1.3413221e-06 1.7157113e-06 -9.096735e-07
-4.340712e-07 5.058661e-08 1.4443797e-06 -3.586929e-06 1.2920744e-07 2.4055675e-08 -4.0815533e-07 2.2153837e-07

gcn_layers.1.bn.weight f4 [64]
00000000: e045 923f c5b2 a63f 6e6a 903f 5959 893f
00000010: 32e8 803f 85ba 8d3f 3169 9c3f 9d13 813f
00000020: 1e9c 893f 24d1 843f 47f5 913f f53d 903f
00000030: 211c 713f ac78 803f b833 873f b202 a43f
00000040: 06d3 8f3f 7a69 963f 5460 b03f b892 843f
00000050: bbfd 823f 7999 9a3f 0ba7 833f c120 823f
00000060: 32b8 9f3f 12a5 843f 7440 843f 1ff9 8b3f
00000070: 3fc9 8b3f 4515 8f3f df01 903f c50a 693f
00000080: aed6 813f 41e7 923f 0ddc af3f c8e1 a23f
00000090: be0f 903f e53e 8f3f fd9b 9b3f b71b 913f
000000a0: e232 913f cbb7 903f 98fd 913f c33f 843f
000000b0: d85c 8f3f a7d5 893f bd78 793f e9cb 9f3f
000000c0: 120a 943f 39bf 8b3f a1b2 973f 5c55 843f
000000d0: a8df 953f 38ee 8f3f 5c60 8e3f 270b 953f
000000e0: d584 823f f72d 853f d968 a73f bee6 a23f
000000f0: c2eb 853f 14a3 813f 9dcb 8e3f 8894 9a3f
1.1427574 1.3023306 1.128248 1.0730392 1.007086 1.1072546 1.2219602 1.008411
1.0750768 1.0376325 1.1402978 1.1268908 0.94183546 1.0036826 1.0562658 1.2813323
1.1236274 1.1750939 1.3779397 1.0357275 1.0233682 1.2078086 1.0285352 1.0166246
1.2478087 1.0362875 1.033217 1.0935401 1.092079 1.1178366 1.1250571 0.9103206
1.014364 1.1476823 1.3739029 1.2725153 1.1254804 1.1191069 1.2156979 1.1336583
1.1343653 1.1306089 1.1405516 1.0331959 1.1200209 1.0768327 0.97449857 1.2484103
1.1565573 1.0917732 1.1851388 1.033855 1.170888 1.1244574 1.1123157 1.1644028
1.0196787 1.0404652 1.3078872 1.2726667 1.0462573 1.0127892 1.1155888 1.2076578

gcn_layers.1.bn.bias f4 [64]
00000000: 75af 693d a713 383e 533b d0bc 6f61 c43c
00000010: 79f1 b63d 0e2b d3bc 06ad 4739 4fae c43d
00000020: aca1 c2bb 20e7 163d 4624 003e d070 aebd
00000030: f992 473c 6d07 913d 278a 033e 1cce 3cbe
00000040: b9fa d13c 7416 0e3e 1ca5 333e 40c2 ed3d
00000050: 05b3 a93d 191c 573e c002 b23d 201f a03d
00000060: 1969 eebd 587a 513b 902e da3d 0626 663d
00000070: c31e a63d 8a60 843d 040b 5fbd d7f6 413d
00000080: d5b9 c63d 4dde ef3c 9d3c 303d 43e0 db3c
00000090: 3d16 813d 3076 c33d d669 5c3e ae3c f73c
000000a0: 94b8 273e 7799 aa3c e2fc d83c 97df 10bd
000000b0: f8ff b33d 915e 973d 583e 843d 6c0d 673e
000000c0: 986f 153e abed 1e3e 92da 983b 0eb5 043e
000000d0: 1f27 2cbc c571 7b3c 1f02 2bbd 893c 123e
000000e0: d015 a83d f0fe d93d a194 b6ba 7f11 bbbc
000000f0: d3ca 833d 2337 0d3e 6dfc 6d3d 7a3c 7fbc
0.057052094 0.17976247 -0.025418913 0.023972241 0.08932776 -0.025777366 0.00019042575 0.09603559
-0.005939683 0.03684151 0.12513837 -0.08517611 0.012181037 0.070814945 0.1284567 -0.18438
0.02563225 0.13875753 0.17543453 0.11609316 0.082860984 0.21006812 0.08691931 0.078184366
-0.116411395 0.0031963792 0.10653412 0.056188606 0.08111336 0.06463726 -0.054453865 0.047354545
0.097034134 0.029280806 0.043026555 0.026840335 0.0630307 0.09544027 0.21524748 0.030180302
0.16379005 0.02082513 0.026487771 -0.035369482 0.087890565 0.07391084 0.064572036 0.22563714
0.14593351 0.1552035 0.0046647275 0.12959692 -0.010507374 0.015346949 -0.04175007 0.14280905
0.082072854 0.106443286 -0.0013929793 -0.022835491 0.0643517 0.13790564 0.05810206 -0.015578384

gcn_layers.1.bn.running_mean f4 [64]
00000000: 4040 64bf 6e0a 253f 210c 913c a362 e63e
00000010: d7fb 9b3e 1203 1b3f 8a2a 22bf 1439 3f3e
00000020: 4361 8ebf 719f 9abf f49d b13e 4f5e 7e3f
00000030: 5ac8 cabe 48db c9be 596f 473e cbb6 87be
00000040: b1f8 a93d 52f0 06bf 1c54 223f b78a b03e
00000050: ac0f 8d3e cc2c 06bf 5cf2 a83e 8142 a93e
00000060: 2fa1 d4be ed66 d9be 5506 863e 65e9 343f
00000070: 5ae9 29bf bcdf d03e 4b6c 6dbe dc54 b5be
00000080: 7c0c 723e 7c53 17bf a565 90be 99d3 e43e
00000090: 6f41 88bf d40b 9ebe ab7c a63c 176f 68bf
000000a0: c787 a13e 8c3f 13bf 61df 223f 0234 133e
000000b0: d302 d7be 2816 eabe 1e2f 8c3e 99f1 ccbc
000000c0: 4460 9d3e bfdb 66be a958 f63e 9df7 673e
000000d0: c606 363e 0f4b 59bf 8db0 5c3f e668 c33e
000000e0: 09da 90be 070a edbe 070f 1bbf 8e76 3bbf
000000f0: 23bd d6be 7fb9 743e 34da b73e 3d7e d4be
-0.8916054 0.6446904 0.017705979 0.4499713 0.30465576 0.6055156 -0.6334616 0.18674117
-1.1123432 -1.2079908 0.3469082 0.99362653 -0.3960598 -0.3942511 0.1947607 -0.26506647
0.08299387 -0.5271045 0.6340959 0.3448083 0.2755102 -0.52412105 0.32997406 0.3305855
-0.41529223 -0.4246134 0.26176706 0.7066863 -0.6637169 0.40795696 -0.23185842 -0.35416305
0.23637575 -0.5911176 -0.2820255 0.44692686 -1.0644969 -0.308684 0.020323118 -0.9079451
0.31548902 -0.5751884 0.636221 0.14375308 -0.41994342 -0.4572003 0.27379698 -0.025017546
0.30737507 -0.22544764 0.48114517 0.2265305 0.17776021 -0.84880155 0.86206895 0.3816597
-0.28291348 -0.46296713 -0.60569805 -0.73227775 -0.41941175 0.23898886 0.35908663 -0.41502562

gcn_layers.1.bn.running_var f4 [64]
00000000: 8583 1d3e 2e16 123f a762 043e 1831 683e
00000010: eba4 343e d4c8 bf3e 2151 ae3e f389 463e
00000020: 92fd 133e ff45 563e 3a1b 1a3e 7822 253e
00000030: 3ef8 5d3f aa24 ac3e e3b2 613e 9eec 263e
00000040: 61a0 fb3d c498 633e 9f29 cd3e 4171 ac3e
00000050: 15f8 963e 2ad3 463f 0d4d 9a3e aeb5 223e
00000060: f202 8a3e 938b ba3d 0b51 233e 468d bc3e
00000070: cad2 c13e e9f4 1c3e cad7 383e cf50 ae3e
00000080: f369 523e a200 b83e 952f c03d e131 1a3e
00000090: be16 c53e 8b10 263e 9d6a 143f f22f 6f3e
000000a0: b96a e73d cd18 8f3e 5590 a73e 7505 c23d
000000b0: 36d0 353e 8a65 a73e fb4c c93d 20ec 603f
000000c0: 2c7f 003e f8cd 203f c0cf 1d3e 3de3 e73d
000000d0: fab7 393e cc30 d43e 7cfb 163e 5917 233e
000000e0: 9dae 003f 05dc d13e e474 d13e 0c2c 8e3e
000000f0: 30a6 513e bb7c ce3d ce01 303e 8513 db3e
0.15382202 0.57065094 0.12928258 0.22674978 0.17641036 0.37457907 0.3404627 0.19388561
0.14452198 0.20925139 0.15049449 0.1612643 0.8670691 0.33621722 0.22040896 0.163012
0.12286449 0.22226244 0.40070817 0.33680156 0.29486147 0.7766596 0.3013691 0.15889618
0.26955372 0.09108653 0.15948884 0.36826533 0.37856132 0.15327801 0.18051067 0.34046027
0.20548229 0.35937983 0.093840756 0.1505809 0.38493913 0.16217248 0.5797518 0.23358133
0.112996526 0.2794861 0.32727304 0.09473697 0.17755207 0.32694656 0.09829136 0.878603
0.12548512 0.62814283 0.15411282 0.11322639 0.18136588 0.4144348 0.14744371 0.15926875
0.5026644 0.40988174 0.40909493 0.2776798 0.20473552 0.10082384 0.17188188 0.4278833

joint_attention.attention.weight f4 [1, 64]
00000000: 3e73 10bc b91c 00be 467a e4bd b640 26be
00000010: dee2 1b3c b106 53bd fb5f acbd 9f6d 1c3d
00000020: e3b7 da3c 1f77 853d d2c1 bdbd 6d0d 613d
00000030: 9e73 dabd fb1d ab3d 1c1f ae3c 0441 3fbe
00000040: a1f8 723c 4f69 c5bd 1e77 d2bd 7401 4c3d
00000050: 8fa4 8b3d 07d6 10be e720 c13d 2eda 443d
00000060: a9c7 2ebe cb3d 67bd 8836 8d3c 5bd1 e53c
00000070: d52a 1dbd fac1 a3bd 797b 9ebd 14e3 63bc
00000080: 4f61 103d 1658 02bd e25d 06bc 80de 673c
00000090: ea08 c6bc d282 3f3d 3ef0 17be 87b8 293d
000000a0: 76d0 8ebd 8e07 b3bc 78e5 09be e0db 22bd
000000b0: de0f aa3a 50df 0a3d cee4 acbc 9525 1abe
000000c0: 7b70 acbd a18e 22be d8a4 973d 3658 a3bc
000000d0: 4716 69bd af49 8fbd d9ef 003d eacd cbbd
000000e0: 79e3 303c 3afd b0bc f1db dcbd 013d f8bd
000000f0: da97 823d ab99 8fbc a5ea 15be be7b b3bd
-0.008816538 -0.12510957 -0.11156134 -0.16235623 0.009514539 -0.051520053 -0.08416744 0.03819048
0.026699012 0.06516861 -0.09265484 0.054944444 -0.106665835 0.08355328 0.021255068 -0.18677145
0.014829786 -0.09639227 -0.10276626 0.049806073 0.068184964 -0.14144145 0.09430104 0.048059635
-0.17068352 -0.056455415 0.017237917 0.02805393 -0.038370926 -0.079959825 -0.07738394 -0.01390912
0.03524905 -0.031822287 -0.008201094 0.014152169 -0.024174172 0.04675562 -0.14837739 0.041435745
-0.069733545 -0.021854188 -0.13466442 -0.03976047 0.00129747 0.033904374 -0.021105196 -0.15053399
-0.084198914 -0.15874721 0.07404488 -0.019939523 -0.05690601 -0.06996476 0.031478737 -0.09951384
0.010796421 -0.021605123 -0.10784138 -0.121210106 0.0637662 -0.01752933 -0.14640291 -0.08763836

lstm.weight_ih_l0 f4 [512, 64]
00000000: f240 563d bd07 983c d33e a63b dd72 c53c
00000010: 8ae6 d03c 026c d03b a4c4 a13c df5f b73c
00000020: 1636 073d 47a6 0a3d 8387 da3c 6fed b93c
00000030: cceb bb3c 771b f23c 548f ea3c 6eda 613c
00000040: 0640 fa3c 40ff e83c c559 893c 4252 c23c
00000050: 2629 b93c fb4b 1c3d 7214 c53c 4293 cf3c
00000060: ca50 653c bef5 3a3d 84ff b63c 3564 113c
00000070: 3479 cc3c 258d c73c 9060 1e3c 4028 c63c
00000080: a401 f23c 9506 963c 937f 4b3d 8e82 133c
00000090: 329a 033d 216b 233d 746a 133d e3a0 0a3d
000000a0: f844 db3c 6b25 8e3c 3fc3 bc3c 89cf 9c3b
000000b0: dcb6 3e3d 2b08 a43c ebb8 a93c cfda 113d
000000c0: 3fd8 033d b1e1 063d deae f03b 6f2b bd3c
000000d0: ab3c 033d 9aca 013d 654b 923c e075 053d
000000e0: b1f6 e03c bfa2 a73c 459f 9c3c 0a50 0d3d
000000f0: 14e4 0f3d f184 c73c e376 db3c cbf5 6d3c
00000100: c894 5d3d e5ba ad3c 8c44 ad3b 53e6 913c
00000110: 2f47 943c 7a1c 88bb 91f6 363c a6aa ae3c
00000120: f9ab 5f3d a5ef 4a3d eebe a83c a793 3b3b
00000130: df90 b93c d33c 1f3d 94f0 cf3c 997d 8f3c
00000140: 6ae1 663c d6ef 033d 1630 b83c 3286 b83c
00000150: 1874 b43c bdf4 383d 1295 b43c 8aa9 c13c
00000160: a1b4 0d3c 6d00 463d 970e ba3c 4bf3 733c
00000170: 2104 873c c36c 9c3c 54df 9a3c 6ed1 dc3c
00000180: 944a c83c 9a19 313c 1689 793d 1ede 943c
00000190: c7a2 113d 9d53 233d a65e 0d3d a710 823d
000001a0: 5c09 d43c 5b59 4c3c 24ab 9a3c 2148 a03c
000001b0: cf00 373d 5f27 913c 6573 c83c b23f 053d
000001c0: 1e7f a53c 789a f03c 7e88 923c 1a5f b43c
000001d0: 8d5c aabc 4351 373d 77e3 cfbb 8a51 af3c
000001e0: ba86 fa3c 2301 833c 40b9 fd3c 4078 393d
000001f0: 3800 cc3c c7ce cd3c c55d 8c3c 0336 c9bb
00000200: 4ae5 cb3d 8b2c 88bc 7309 93bd af7e 7a3d
00000210: a6ad 343d 76a0 5abc d746 96bc 1d2b 143d
00000220: 31f9 8c3d 9365 463d 314f 1c3d cbda b33d
00000230: d3b2 8f3c de7c 183d f09a 483d 2b96 afbd
00000240: 073f d7ba e203 02bd 6b16 23bc 45ad 3f3d
00000250: b20d 3c3d fb79 153d 297d 633d 79b6 133d
00000260: 96e4 44bd c2d8 ca3d bfa1 1c3d ee6f b7bb
00000270: 8d23 8cbc 2181 52ba e6c4 2bbd 975d 323d
00000280: 9470 823d c33b 50bd 981a 3b3d de8a 833c
00000290: 5aef 51bc e487 483d 1093 df3c a193 803d
000002a0: d8fc 773d b8d8 f0bc 3936 a9bb b2fd 9fbc
000002b0: 5960 763d 95fc b7bc 7271 a2bc eded 033c
000002c0: 8f65 493d 8d49 a53c ee26 ce3c f702 283d
000002d0: 9607 683b eec2 283d 2d74 fe3c e8ad 8e3d
000002e0: 4eec 9a3c 6fae 23bd cc7d 59bd 2b3c 1e3d
000002f0: bd72 a4bc bf1d 1e3d ffd3 543d 9a1d 55bd
00000300: 1485 4f3c 3a3c ad3a 1c85 063c 281f a2bc
00000310: 3085 b8bc f6eb 893c ec8e 5e3c 1f24 b8bc
00000320: e6a1 93bc 56b8 bebb f910 c4bc 3800 253d
00000330: a6a4 a5bc bf34 1a3d 5d93 debc e2a0 023c
00000340: f867 943d dcf4 26bc 0ce9 7cba 9441 cdbc
00000350: ba6e c4bc b0eb f23b 719f d3bc 4118 c2bc
00000360: 5f43 313c c8e4 6b3d e9a0 c6bc 42e7 363a
00000370: ad5f f73c dbd5 bfbc a277 283c 11e6 edbc
00000380: 0434 c6bc e8d4 913c 84a2 35bd 05fa 50bb
00000390: df28 143d ee8d 883d 7c82 b93c 7a50 95bc
000003a0: 5cbc dabc 1d9c 9e3c 0156 abbc 4b61 a53a
000003b0: fc9c 823d 5d2a a63c b66a a7bc 78c8 7a3c
000003c0: e700 e7bc 8529 b93c 021f 91bb e4fe d1bc
000003d0: b6aa 373d 3c1d 70bc fe46 393d 4487 eabc
000003e0: bec5 f63a c96c 003d 48f5 993c ba58 2bbc
000003f0: dd05 763d 1b4e d8bc ba43 b5bc 2351 6f3c
0.05230803 0.018558377 0.005073407 0.024102623 0.025500555 0.006360532 0.019747086 0.022384582
0.033010565 0.03384998 0.026675945 0.022696225 0.022939585 0.029554112 0.028632797 0.013784988
0.030548107 0.028442025 0.016766438 0.023720864 0.022602629 0.038158398 0.0240576 0.025338773
0.013996312 0.045644514 0.022338636 0.008873989 0.024960138 0.024359295 0.009666577 0.024189115
0.029541798 0.018313685 0.04968221 0.009003295 0.032129474 0.039897088 0.035990193 0.03384484
0.026766285 0.017351827 0.02304232 0.0047854823 0.046561107 0.020023426 0.020718059 0.035609063
0.03218865 0.03293008 0.0073450645 0.023092 0.03204028 0.031687357 0.017858217 0.032583117
0.027461382 0.020463346 0.019118914 0.03450016 0.03512962 0.024355384 0.026790088 0.014523934
0.054096967 0.021207282 0.0052877124 0.017810022 0.01810035 -0.0041537853 0.011167184 0.021321606
0.054607365 0.04954495 0.020598855 0.0028621943 0.022652088 0.038876366 0.025383271 0.017515944
0.014091829 0.032211147 0.022483867 0.022524927 0.022028014 0.045155276 0.022043739 0.023640413
0.008649022 0.04834025 0.022712035 0.0148895485 0.016481461 0.01909483 0.01890532 0.026955333
0.024449624 0.010809327 0.06092175 0.01817232 0.035555627 0.03987466 0.034514092 0.063508324
0.02588337 0.012472476 0.018880434 0.019565644 0.044678506 0.017718969 0.024469087 0.032531448
0.020202216 0.029370531 0.01788735 0.022018004 -0.020796085 0.04475523 -0.0063442546 0.021401186
0.03058182 0.015991753 0.030972123 0.045280695 0.024902448 0.025123013 0.017134557 -0.006140472
0.09955843 -0.016622802 -0.07179537 0.06115597 0.044110917 -0.013343921 -0.018344326 0.03617393
0.06883467 0.048436712 0.03816146 0.08781966 0.017541325 0.037228458 0.048975885 -0.08573564
-0.0016421982 -0.031741984 -0.009954075 0.046796102 0.0459115 0.036493283 0.055539284 0.03606269
-0.04806956 0.099046245 0.03824019 -0.00559806 -0.017106796 -0.0008030106 -0.041935824 0.043546285
0.06369129 -0.050838243 0.04567966 0.016057428 -0.0128134135 0.04895772 0.027291805 0.06278158
0.060543865 -0.029400215 -0.0051639345 -0.019530151 0.060150478 -0.022459308 -0.019829486 0.008052331
0.04916912 0.020176673 0.025165047 0.041018452 0.0035404912 0.041201524 0.031061256 0.06966764
0.018911507 -0.039961275 -0.053098485 0.0386316 -0.020074243 0.038602587 0.051959988 -0.052030183
0.012666006 0.0013216801 0.008210447 -0.019790247 -0.022524446 0.016836148 0.01358388 -0.022478161
-0.018021535 -0.0058203144 -0.023933874 0.04028341 -0.020220112 0.03764796 -0.027169878 0.007972928
0.07246393 -0.010190215 -0.0009647764 -0.025055684 -0.02397858 0.00741335 -0.025832864 -0.023693206
0.010819285 0.05759123 -0.02424665 0.0006977209 0.030196989 -0.023417404 0.010282429 -0.029040368
-0.024194725 0.017801717 -0.04434444 -0.0031887305 0.03617179 0.06667696 0.022645228 -0.01822685
-0.026701145 0.01936155 -0.020915033 0.0012617497 0.06377599 0.020283872 -0.020436626 0.015306585
-0.028198672 0.022602806 -0.0044287452 -0.025634237 0.044840537 -0.0146554075 0.04523372 -0.028628953
0.0018827242 0.031353746 0.018793717 -0.010458166 0.060064185 -0.026404431 -0.022127021 0.014606747

lstm.weight_hh_l0 f4 [512, 128]
00000000: fdf2 36bc 9985 9bbc 040b eebc 5ef6 7abc
00000010: f535 ca3b f797 cebb 561b e13c fe23 b3bc
00000020: 9f9c fd3b a976 e9bc 4053 e83c 5bb7 953c
00000030: 93bc 6abc 8145 6ebc 7c85 753c 2c72 2abb
00000040: 2900 2b3d 9a83 abbc 3976 0c3c 8c6f a7bc
00000050: 01c5 c8bc 6106 23bc d84e 1d3d 7257 38bd
00000060: 585a 213c fa3c 54bc 9248 ec3c b155 9e3c
00000070: 372c a73c 3230 f3bc 47a4 e3bc aae7 03bb
00000080: b5e1 3b3c b9f4 eb39 d845 18bb ac6d 4ebc
00000090: 623a cfbb 062c ee3c 021e ed3c af59 4b3b
000000a0: ca60 cb3b 3786 123d 7a48 96bc e381 7fbc
000000b0: ea6f 8d3c eb5a cbbc f346 15bb 4613 913a
000000c0: 1fb9 f1bb 7969 f03b 7e7c 683c db54 103b
000000d0: 5a82 52bc f54f 6e3c 7ecf b03b 6def a63c
000000e0: 59de efbc 8613 a5bc 8ab2 a43c c294 783c
000000f0: 5093 f43c 9a85 9a3c 63fb 013d de7b 0a3a
00000100: 32e9 01bc d6eb 4cbc c4f2 673c 5229 d5bc
00000110: 9ef4 d8bc 2d67 173a 02f8 bf3c 0bb9 cdbc
00000120: 79b4 e0bc 7092 04bd 51cc ac3c 4793 903c
00000130: 27b2 00bd 85aa 12bd d294 02bc f458 d6bc
00000140: eafe 34bc f48d 4f3b 47da af3c ac63 b5bc
00000150: c6e1 2cbd 8510 94bc f1ea d73c f326 b53a
00000160: 7b80 113d a786 db3b 189b e03c d7b5 bfbc
00000170: b072 4cbc 5b52 e6bc a5c0 d63c ff79 9d3c
00000180: 2778 80bc 8f40 9cba 8626 123c 49b5 983c
00000190: 3d69 78bc 12e6 f63c 51b0 95bc 33fe be3b
000001a0: 16e1 b83b caf0 71ba d018 453b 2fc8 b93c
000001b0: b993 7abc bc7e 7cbc 7844 b63c f5a6 ba3c
000001c0: ad37 8ebc a2fa 5b3c 401c da3c 5d0d bf3b
000001d0: dc21 49bc 9387 c2bc 51e5 bbbc f439 8f3c
000001e0: 6ebd 02bd 2961 bfbc 6190 abbc 1d1a 57bc
000001f0: 445b 013d a24e d7bc f594 283d 4813 64bc
00000200: fad2 9e3c 90c7 913b 6dd5 5abc 1c7f e9bc
00000210: 4959 adbc 1c4d 773c 912a 8d3b 956f 8d3c
00000220: 78d3 e7bc 8271 a43c 2f4a 94ba a026 15bc
00000230: 6471 51bc c83a 02ba 37f3 92bb 2b22 b4bb
00000240: 145b 2b3d 5906 35bc c9ba 013c 65ec 07bc
00000250: f628 65bc 7621 1abd ceea 3dbd 892a 33bc
00000260: 7b1d cdbc bd02 97bc a220 d3bb 8847 793b
00000270: 630a ab3b 4f77 0cbd 64cb 0bbd 2bac 05bb
00000280: ce85 893c 9b5d 3dbc 24a6 d2bb 2d39 a2bb
00000290: 7c59 a13c b32c fbbc 249d 493c b0eb 1a3d
000002a0: 9a7c faba 2faf d33b 6841 023c 9996 3cbc
000002b0: cd4f 203b 124f df3b b07d e8bb 989e c4ba
000002c0: 59ed 62bc 19f2 b43a d23d 053c 966c 933a
000002d0: 15d8 103c 28e2 c43c 0374 48bc 2963 723b
000002e0: 5441 32bc 9f35 b7bb 207d 9a3c 6a94 b33c
000002f0: 4d5c a23a ce8f d7b8 5b36 4d3c 153d 11bc
00000300: 6c11 41bc 8005 823b 3deb 8bbb 8fdf 423b
00000310: ed7b 8e3c 55d6 8f3c 0aa2 94bb 642e ecbb
00000320: b3eb 82bc a72c afbc 80a0 14bc a91f 483a
00000330: d5d1 02bd decb 663c 405b a93b 5404 abbc
00000340: ceac 2bbc 8d8c 93bc db05 80bc 19c6 b03c
00000350: 30d7 033d 4966 dd3b d965 593b 9bcd 253d
00000360: 02bf bb3c 523c b7bc 715d 863c 70cf b9bc
00000370: dacc 5a3c a4e5 32bc 6329 26bb 9908 0ebc
00000380: 1b66 b8bb 9dbf 263b d5a4 4e3a 023b 14bd
00000390: de89 8a3b 5a91 b23b a4b8 54bc be18 393b
000003a0: 0cc0 16bd 9874 a73c ba6d e0bc 74bb 5bb9
000003b0: cd99 40bc 7a33 6cbc c4f4 c5bc 4ce9 b03b
000003c0: 57de b6bb ef45 d73b 7b51 ee3c f8d4 a2bc
000003d0: f8fd 2abc f370 1b3c ebd6 25bd 179a b43b
000003e0: b5e8 3e3b 88ca 79bc bcab 6abc b5ef 363c
000003f0: 8c1d b53b dbb8 0a3c fa40 923c e0c2 10bd
-0.011166331 -0.018984603 -0.029057987 -0.015317528 0.006170983 -0.0063047367 0.027478855 -0.021867748
0.007739618 -0.028498964 0.02836001 0.018275907 -0.014327186 -0.014542938 0.014985438 -0.0026007993
0.0417482 -0.020936776 0.008573108 -0.020438932 -0.024508001 -0.009950251 0.03840527 -0.04500527
0.0098482 -0.012953991 0.028843198 0.01932797 0.020406825 -0.029686067 -0.027788294 -0.0020127096
0.011467387 0.00045005025 -0.002323499 -0.01259939 -0.0063240984 0.029073726 0.028944973 0.0031028797
0.0062066065 0.03577253 -0.018345106 -0.015594932 0.017265279 -0.024823627 -0.0022777885 0.0011068366
-0.0073768045 0.007336792 0.0141898375 0.0022023234 -0.012848461 0.01454543 0.0053958287 0.020377839
-0.029280828 -0.020150911 0.020104665 0.015172185 0.0298554 0.018862534 0.03173388 0.000528274
-0.007929133 -0.0125074 0.014157001 -0.02602068 -0.02648383 0.0005775567 0.023433689 -0.02511265
-0.027429806 -0.032366216 0.02109352 0.017648352 -0.0314199 -0.03580715 -0.007970052 -0.026165463
-0.011047104 0.0031670304 0.021466387 -0.022142254 -0.0422075 -0.018074283 0.026357146 0.0013820812
0.03552292 0.0066994014 0.027417704 -0.023402138 -0.0124785155 -0.028115442 0.026214907 0.019223211
-0.015682293 -0.0011921095 0.0089203175 0.018641131 -0.0151618095 0.030139003 -0.01827255 0.0058286428
0.0056420667 -0.0009229301 0.0030074604 0.022678463 -0.015294009 -0.015411075 0.022249445 0.02278469
-0.017360533 0.013426455 0.026624799 0.0058304504 -0.012276139 -0.023746287 -0.022936495 0.017483689
-0.031918935 -0.02336176 -0.020942869 -0.0131287845 0.03158118 -0.026282612 0.04115768 -0.013920613
0.01938771 0.0044488385 -0.013356549 -0.028502993 -0.021160739 0.015094068 0.004308053 0.01726512
-0.028299078 0.020073656 -0.0011313612 -0.009103447 -0.012783382 -0.00049678655 -0.00448456 -0.005497237
0.041834906 -0.011048877 0.007918068 -0.008296107 -0.013986817 -0.037629567 -0.046366505 -0.010935434
-0.025038471 -0.018433923 -0.006443099 0.003803702 0.005219744 -0.03429347 -0.034129515 -0.002039681
0.016787436 -0.011557962 -0.006428497 -0.0049506635 0.01969599 -0.030660963 0.012305532 0.037822425
-0.001911062 0.0064600925 0.007950164 -0.011510515 0.0024461627 0.006814846 -0.0070950612 -0.0015000878
-0.013850533 0.0013805061 0.008132415 0.0011247571 0.0088405805 0.024033621 -0.012234691 0.0036985374
-0.010879833 -0.005591109 0.018858492 0.021921355 0.0012387127 -0.000102787846 0.012525166 -0.008864661
-0.011783939 0.003967941 -0.004269986 0.0029735302 0.017393077 0.017558256 -0.004535918 -0.0072076786
-0.01598153 -0.021383597 -0.009071469 0.0007634112 -0.031938393 0.014086692 0.0051683486 -0.020876087
-0.010478212 -0.018011356 -0.015627792 0.021578835 0.03218764 0.006756578 0.0033172278 0.040479284
0.022918228 -0.02236763 0.016401978 -0.022681922 0.0133545045 -0.010919008 -0.0025354258 -0.008669042
-0.0056274063 0.00254438 0.0007882838 -0.036189087 0.004227861 0.005449456 -0.012983475 0.0028243507
-0.036804244 0.020441338 -0.027396072 -0.00020955299 -0.011755419 -0.01441657 -0.024164565 0.005398905
-0.005580704 0.006569616 0.029091587 -0.019876942 -0.010436527 0.009487378 -0.040488165 0.005511533
0.0029130403 -0.015246041 -0.014323171 0.011165549 0.005527204 0.008466925 0.017853249 -0.035342097

lstm.bias_ih_l0 f4 [512]
00000000: d8ea 9b3d c75c 8a3d 330b 973c e4af 4d3c
00000010: 781a 763d 2cb7 3539 9d30 b53b a90b 21bd
00000020: a856 323d 60ab 6c3d 2428 90bb 171d 2a3d
00000030: acd9 90ba f9a0 a53c a5fd 613b 4e62 813d
00000040: 2544 143c 27a8 843c ff5a b33b 65f2 8c3d
00000050: 1195 813c e9f9 fb3c a591 e8bc 70a5 c23c
00000060: 65b5 5ebc c4aa a23d edbe 183d d898 dd3c
00000070: 9659 7a3d 8f94 903d 1ce9 fbbc 47de 0d3d
00000080: b9c8 893d 81cd d83c 5d2c 4f3d 59d0 f13c
00000090: 0656 6e3d 49f8 953d 578c 433d 2199 6a3c
000000a0: 1d5d 5c3d 7930 0d3d 645f 4c3d f253 823c
000000b0: 5474 2f3d 5687 c1bc 8218 35bc 45c8 953c
000000c0: d5ca 7f3a 8c32 bd3c b2e9 8f3c 62c5 473d
000000d0: 9ff5 863d 469a 9a3d c898 123d 49e2 3d3c
000000e0: 7f61 a73c f41e 6f3d 7d3d f33b 3aca 493d
000000f0: ce1d 4e3d 7fb0 8fb5 bc94 283d 07e6 4f3d
00000100: 67ce 9e3c e4fe 943d 94f2 9d3b fad3 ac3c
00000110: 1f84 823d ab0e 5f3d 02ac e13c 60ce a43c
00000120: 400d 9c3c e550 0dbd 38d0 813c 10a4 063d
00000130: a9a4 6dbc 7c32 bd3c 9a2b 843d 210a 493b
00000140: d8d8 223d 1cf5 6e3d 0a12 0b3d bb76 bf3c
00000150: 92fe 163d ec4d 8bbc 46ab 123d c662 153d
00000160: aa5f da3c 715a 3b3d d20a c83c 7f71 9a3c
00000170: ae66 e73c 57ef 4c3d 7414 4d3d f073 b03d
00000180: 1d25 893c d0fe a13d e1c7 363d 8535 6abd
00000190: 26cf 2d3d e005 663c f4c4 7a3d f018 063d
000001a0: be58 003c b665 3d3c dc7b 173d 6728 e63c
000001b0: f4d0 353d 9392 5c3d 42e3 bfb9 1d8b 033d
000001c0: 50c5 b33a d908 063d cf75 8c3c aada 2ebb
000001d0: 94af 18bd 6f90 203d d604 0d3d 1c2b 94bb
000001e0: a3c6 333d 72aa 903d 5960 863c b2ec a83c
000001f0: fee0 713c 447a bc3d 68c3 543d a9dd 1fbc
00000200: 92c8 423d 176d 913c 0909 c13c 75de 533d
00000210: 9a6e 873d 9602 183d 1bb8 de3c 898b 623d
00000220: 6dfb 373d a736 a3bc 0697 f93c 5593 e43c
00000230: 97ce 083d 615b 3d3c d4d3 9f3c 76f4 853c
00000240: 392f 153e 3cd7 b23d 239e 293d cebd 393c
00000250: ee77 0d3d 76ca ba3c ba7d 1d3e b33d 233d
00000260: d255 3b3d 7ef9 38bc bb16 0a3d 12fc d73c
00000270: 9caf a23c 15ae 453d c1c5 e43d 0a31 a7bc
00000280: 3643 d33c a944 b13d 883e 843d 7745 ed3c
00000290: f893 8e3c f329 6bbc e2f8 313d c559 163d
000002a0: e8f6 303d 0438 463c 29da 39ba 39cc 253d
000002b0: 1ba5 a03c 4e2f 97bc 7aac 473d f3a8 033d
000002c0: 678d 003c 8d24 bdba 26d3 9ebc e9c5 b63c
000002d0: e4a4 9e3c 99f4 2d3d 6e39 61bc 21c8 8b3c
000002e0: 7e31 653d 0691 dcbb 3d9f 4d3c 8b3c bd3d
000002f0: c68a e83b 2e08 473d 6cc5 4b3c 9eb5 2b3d
00000300: 48b4 7b3d 502f 793d 384a 313c 8123 4e3c
00000310: 548a 663d 3909 5eba 2133 a13d 13e4 d03c
00000320: 7f77 933c f981 813d 7f7b d43c b2ce 9cbc
00000330: c489 aa3d 28de 813d beac 683d 3df9 8a3c
00000340: bee0 9e3d b83f 0b3e 5eee ee3b 64ce 8fbc
00000350: 4f51 8d3d 1024 88ba c3b3 003e 6d1d ee3c
00000360: 9a20 733c c1b2 bc3d 751b 923c b6bd 9c3b
00000370: 8ff9 8b3d 3c5c e83b 067f ea3c 996c 07bd
00000380: b67a e93c af71 993c ba2b 123d ce82 d63c
00000390: 417d d03d 6ae0 0c3d 16b7 ca3c b41c d53c
000003a0: 707e 7b3c 029f a93d 8a76 da3c 6cdb ba3c
000003b0: 1b3f 373d 7032 b23c 949c 1cbc 00ff 233d
000003c0: 6724 f93d 49c2 9c3d 7e85 253d 4439 2b3d
000003d0: c6a4 9a3d 67c4 863d b926 483c 1cfa 7c3d
000003e0: 42e4 923d 4456 5ebc bc5d a03d 8eea 573d
000003f0: 2d42 873d d1a1 6d3c 8a65 383d 06b6 633d
0.07613152 0.06755977 0.018437957 0.012554143 0.060083836 0.00017329742 0.005529477 -0.03931776
0.043539673 0.057780623 -0.0043993164 0.04153165 -0.0011051199 0.02021836 0.003448346 0.06317578
0.00904945 0.016193463 0.005473494 0.068821706 0.01581815 0.030758815 -0.028389761 0.023760527
-0.0135930525 0.07942727 0.037291456 0.02705042 0.061120592 0.07059585 -0.030750804 0.03463581
0.06727738 0.02646518 0.050579417 0.029518293 0.058187507 0.07322747 0.04774126 0.014318735
0.053799737 0.034470055 0.04989566 0.015909169 0.04283555 -0.023624104 -0.011053206 0.018283973
0.00097577024 0.023095392 0.01756749 0.048772223 0.06589817 0.075489566 0.035790235 0.011589595
0.020432232 0.05837913 0.0074231015 0.049265124 0.050321393 -1.0705697e-06 0.04115747 0.05075648
0.01938553 0.07275179 0.0048201773 0.021097172 0.06372856 0.054457348 0.02754784 0.020117939
0.019049287 -0.034500975 0.015846357 0.032871306 -0.01450459 0.023095362 0.06453629 0.0030676203
0.03975758 0.058339223 0.03395275 0.023372045 0.03686387 -0.01700493 0.03580787 0.03647115
0.026656944 0.04574055 0.024419222 0.018852947 0.028247204 0.05003294 0.050068334 0.08615863
0.01674133 0.0790993 0.044624213 -0.057179946 0.04243388 0.014039487 0.061222985 0.032738626
0.007833658 0.011559894 0.036983356 0.028095437 0.044388726 0.05385072 -0.0003659968 0.03211509
0.001371542 0.03272328 0.01714602 -0.0026680627 -0.03727682 0.039200243 0.03442844 -0.0045217406
0.043890607 0.0706376 0.016403364 0.020620678 0.014763115 0.09203008 0.051944166 -0.009757438
0.04755456 0.017752213 0.023563879 0.051725823 0.066128924 0.03711184 0.027187398 0.055308852
0.044917513 -0.019923521 0.030467521 0.027902285 0.033400144 0.011557431 0.019510187 0.01635192
0.14568795 0.08732459 0.041410577 0.011336757 0.034538202 0.022801619 0.15379992 0.039853763
0.04573614 -0.011289952 0.033713084 0.026365314 0.019859128 0.04826172 0.11170531 -0.020409126
0.025788885 0.08655674 0.064572394 0.028963787 0.017404541 -0.014353263 0.043450244 0.036706705
0.04320422 0.012098316 -0.00070896983 0.040477965 0.019609978 -0.018455174 0.04874847 0.032143544
0.007846213 -0.0014430449 -0.019387793 0.022311168 0.019365735 0.042469595 -0.013746602 0.017063202
0.055955403 -0.0067311553 0.012550172 0.09240063 0.007096621 0.048591785 0.012437206 0.04192125
0.061451226 0.060836136 0.010820918 0.012581707 0.056284264 -0.0008470002 0.0787108 0.02549938
0.018001316 0.063236184 0.025937794 -0.019141529 0.08327058 0.06341201 0.056805365 0.01696455
0.0775771 0.13598526 0.007291599 -0.01755447 0.06900274 -0.0010386724 0.12568574 0.029066766
0.014839316 0.09213782 0.017835358 0.0047833575 0.06834709 0.0070910733 0.028625023 -0.03306255
0.028500896 0.018730966 0.035686232 0.02618542 0.1018014 0.034393705 0.024745505 0.026014663
0.015349969 0.082822815 0.026667852 0.022809707 0.044737916 0.021752566 -0.0095588155 0.04003811
0.12165146 0.076542445 0.04041051 0.04180266 0.07550959 0.065804295 0.012216263 0.06176196
0.07172443 -0.013570372 0.078303784 0.052713923 0.06604419 0.014503912 0.04501871 0.055593513
