outputs/models/best_hgc_lstm_13.pth (torch, 839494 bytes, 24 tensors)

gcn_layers.0.fc.weight f4 [64, 2]
0	0x3da94077	0.08264249
1	0xbdf94ad7	-0.12172478
2	0xbe0488e1	-0.1294284
3	0xbec03630	-0.37541342
4	0xbedf7b7f	-0.43648908
5	0x3e6b8c3f	0.23002718
6	0xbd983228	-0.074314415
7	0x3e7865c2	0.24257568
8	0xbe4fe1f3	-0.20301037
9	0x3eb0df6e	0.34545463
10	0xbe2dd851	-0.1697705
11	0x3dca7aab	0.09886678
12	0xbeb342f8	-0.3501203
13	0x3f1d29cf	0.6139192
14	0x3d5d2d19	0.053998087
15	0x3e006b6c	0.12540978
16	0xbe48a063	-0.19592433
17	0x3ec889b4	0.3916756
18	0xbef470c2	-0.47742277
19	0x3dc9f943	0.09861996
20	0x3ee3a3c9	0.44460896
21	0xbe89fd7f	-0.26951215
22	0xbe8be675	-0.27324262
23	0xbd8abf4b	-0.067747675
24	0x3eb888a8	0.3604176
25	0x3c867a29	0.016415672
26	0xbf267870	-0.65027523
27	0x3ef8d200	0.48597717
28	0x3e0ed102	0.13946918
29	0x3d51ad96	0.051190935
30	0xbc541a0c	-0.012945663
31	0xbe69eb52	-0.22843674
32	0x3eb18448	0.34671235
33	0xbf06c898	-0.5264983
34	0x3ec97e43	0.39354143
35	0x3eacc8c4	0.33746922
36	0x3dde00ca	0.10839994
37	0x3ec4f13c	0.38465297
38	0x3e3ad224	0.18244225
39	0x3ec3f241	0.38270763
40	0x3f1afb71	0.6053992
41	0xbd88382a	-0.066513374
42	0x3ef64684	0.48100674
43	0xbe84ab2e	-0.2591185
44	0x3eb10c9a	0.34579927
45	0x3eff21ab	0.49830374
46	0xbe90db21	-0.28292182
47	0xbe0f129b	-0.13971941
48	0xbeda5298	-0.4264114
49	0x3f1774d6	0.5916265
50	0x3ed3ff6f	0.41405818
51	0xbcc3a85d	-0.023883993
52	0xbe2c7383	-0.16840939
53	0xbb07c167	-0.0020714642
54	0xbe444800	-0.19168091
55	0x3ec64473	0.38724098
56	0x3ea387ff	0.31939694
57	0x3db90d09	0.090356894
58	0xbeabebb3	-0.33578262
59	0xbe2786ed	-0.16360064
60	0x3e6056be	0.2190809
61	0x3d141828	0.03615585
62	0x3e885fc0	0.2663555
63	0xbeaee31c	-0.34157646
64	0xbeeeaddd	-0.46617022
65	0x3f04fd2b	0.51948804
66	0x3bef8bce	0.007310367
67	0xbe2fafdf	-0.17156933
68	0xbe32041b	-0.17384379
69	0xbd81acf0	-0.06331813
70	0x3ebca4cf	0.3684449
71	0x3d9b9a68	0.0759781
72	0xbf0f8e34	-0.5607636
73	0x3f12b944	0.5731394
74	0xbde5cfc0	-0.11221266
75	0xbeb58793	-0.35454997
76	0xbdaa1be3	-0.083061
77	0x3ea61340	0.32436562
78	0xbe5829d7	-0.2110971
79	0xbd047c50	-0.032345116
80	0xbe0e6bbb	-0.13908283
81	0xbd19dc0f	-0.03756338
82	0xbece0fde	-0.4024648
83	0xbe3c6126	-0.18396434
84	0xbe235ac5	-0.15952595
85	0xbd093781	-0.0335002
86	0x3ed61d92	0.41819435
87	0x3dad89cf	0.084735505
88	0x3e876630	0.2644515
89	0x3eae43b8	0.3403604
90	0xbe2e327f	-0.1701145
91	0xbcad13ea	-0.02112766
92	0x3f13c81e	0.5772723
93	0xbda3820b	-0.07983788
94	0xbe447c37	-0.19188009
95	0xbd068484	-0.03284122
96	0x3e81dc64	0.25363457
97	0xbebde7a1	-0.3709078
98	0x3e8e1896	0.27753133
99	0x3e3c7b87	0.18406497
100	0x3e800178	0.2500112
101	0xbea4867c	-0.32133853
102	0xbea4b20b	-0.32167086
103	0xbea94104	-0.33057415
104	0x3f1e8010	0.6191416
105	0x3e82e7aa	0.2556737
106	0xbe2df691	-0.16988589
107	0x3e8cf87e	0.27533334
108	0x3ed08d0c	0.4073261
109	0x3e3a77ee	0.18209812
110	0x3d1bffec	0.038085863
111	0xbe7cc972	-0.2468622
112	0x3eef715d	0.46766177
113	0x3d87f7b5	0.06639043
114	0xbec23176	-0.3792836
115	0xbe2d1f69	-0.16906513
116	0xbe8c6d84	-0.27427304
117	0x3e5a904c	0.21344107
118	0x3ea7de3f	0.32786748
119	0x3d7bb636	0.061453067
120	0x3e9bfb96	0.30465382
121	0xbe21250d	-0.1573679
122	0x3f0cb27a	0.54959834
123	0x3e94d24a	0.29066688
124	0x3f2a98da	0.6663948
125	0xbdd8dc72	-0.105889216
126	0xbe27e832	-0.16397169
127	0xbef00306	-0.46877307

gcn_layers.0.fc.bias f4 [64]
0	0xb7769941	-1.4698425e-05
1	0xb685f0c9	-3.99174e-06
2	0xb6b3b7c8	-5.3560107e-06
3	0xb6933e1c	-4.388172e-06
4	0xb6dbe767	-6.5536474e-06
5	0x37b663bf	2.1742539e-05
6	0xb709d525	-8.215463e-06
7	0xb5c61066	-1.4756922e-06
8	0x369dc316	4.7016756e-06
9	0x3764e9e1	1.3644313e-05
10	0x372a005c	1.0132873e-05
11	0xb6a2e8ea	-4.855091e-06
12	0xb72688ba	-9.926205e-06
13	0x3611f2bb	2.1747971e-06
14	0xb7888453	-1.6274082e-05
15	0x3732aee4	1.0650347e-05
16	0xb6d024b5	-6.2031563e-06
17	0xb403df3e	-1.2281541e-07
18	0x34d09962	3.885462e-07
19	0xb59b6b22	-1.157958e-06
20	0xb7271d04	-9.960731e-06
21	0xb6540ff4	-3.1599748e-06
22	0x35bd0d43	1.4085457e-06
23	0x35e990b5	1.7401968e-06
24	0xb691f9fb	-4.3504383e-06
25	0xb69cde0b	-4.6750115e-06
26	0x37214a01	9.613578e-06
27	0x33cb1c9d	9.458129e-08
28	0xb770e138	-1.4357553e-05
29	0xb5f0698c	-1.7912112e-06
30	0x3681a65a	3.8638655e-06
31	0x37999a57	1.8310891e-05
32	0x33d9613e	1.0122538e-07
33	0x34bb9b32	3.4944384e-07
34	0x370bb067	8.3261175e-06
35	0x3740bb9f	1.1487776e-05
36	0xb5e45ec3	-1.7014903e-06
37	0xb6e69c58	-6.872735e-06
38	0xb51ff64f	-5.959054e-07
39	0xb742e7c9	-1.1617268e-05
40	0xb7753958	-1.4616489e-05
41	0xb5cd8537	-1.5312461e-06
42	0x36d1fec6	6.258345e-06
43	0xb4d479c6	-3.957668e-07
44	0x3477e5ef	2.3087317e-07
45	0x36d7fed5	6.4371657e-06
46	0xb6b68007	-5.438927e-06
47	0x3732ac62	1.0649763e-05
48	0x36b1de06	5.300858e-06
49	0x36c48ada	5.8574196e-06
50	0xb72736e8	-9.9667595e-06
51	0x35b2cd70	1.3321824e-06
52	0x368efc02	4.2612673e-06
53	0x371a12fe	9.183537e-06
54	0x358f4678	1.0674839e-06
55	0x375197e3	1.2492735e-05
56	0x368ee508	4.2585925e-06
57	0xb58a0cc5	-1.0285518e-06
58	0xb6654928	-3.4166242e-06
59	0x371cc742	9.344718e-06
60	0xb7866aa7	-1.6023709e-05
61	0x3678c70a	3.7070736e-06
62	0x363d06f9	2.8167253e-06
63	0xb4af6194	-3.2667288e-07

gcn_layers.0.bn.weight f4 [64]
0	0x3f70aa40	0.9400978
1	0x3f5cb2df	0.86210436
2	0x3f644a4d	0.89175874
3	0x3f5c3507	0.86018413
4	0x3f62bc1b	0.88568276
5	0x3f5985fc	0.8497007
6	0x3f633518	0.8875289
7	0x3f3cf285	0.73807555
8	0x3f3a39a6	0.72744215
9	0x3f5c3690	0.86020756
10	0x3f723533	0.94612426
11	0x3f496899	0.7867523
12	0x3f5b5020	0.85669136
13	0x3f6355ac	0.888026
14	0x3f52f362	0.8240262
15	0x3f67df5a	0.9057518
16	0x3f821dca	1.0165341
17	0x3f478a18	0.7794509
18	0x3f4c1208	0.79715014
19	0x3f4794ec	0.7796161
20	0x3f6e5b15	0.9310773
21	0x3f70488c	0.938607
22	0x3f468f5a	0.7756249
23	0x3f431683	0.76206225
24	0x3f6e94e1	0.9319592
25	0x3f52e00e	0.8237313
26	0x3f6401ac	0.8906505
27	0x3f65b7e7	0.8973374
28	0x3f5fd250	0.87430286
29	0x3f3c45d2	0.7354404
30	0x3f68eb61	0.9098416
31	0x3f82fbfc	1.023315
32	0x3f67c7c3	0.9053919
33	0x3f4d2023	0.8012716
34	0x3f4d8ad6	0.8028997
35	0x3f58f2af	0.84745306
36	0x3f57ed7c	0.8434675
37	0x3f64f3f2	0.8943473
38	0x3f5ee83b	0.87073106
39	0x3f79162a	0.97299445
40	0x3f63eb18	0.890306
41	0x3f50911c	0.8147142
42	0x3f4806e6	0.78135526
43	0x3f52ff94	0.8242123
44	0x3f477ac8	0.77921724
45	0x3f470f35	0.7775758
46	0x3f633af9	0.8876186
47	0x3f51d4f5	0.8196557
48	0x3f7f4740	0.99718094
49	0x3f41de5b	0.7572991
50	0x3f829842	1.0202715
51	0x3f5ad1e1	0.854765
52	0x3f50a4ab	0.81501263
53	0x3f616ef0	0.880599
54	0x3f5e805c	0.8691461
55	0x3f76c8d9	0.9640022
56	0x3f5273e9	0.82208115
57	0x3f58ab2d	0.84636194
58	0x3f6fc93d	0.9366644
59	0x3f68f357	0.9099631
60	0x3f767194	0.96267056
61	0x3f53476c	0.82530856
62	0x3f61dbf0	0.88226223
63	0x3f4d26b3	0.80137175

gcn_layers.0.bn.bias f4 [64]
0	0xbd837f52	-0.06420769
1	0xbdb9c763	-0.09071233
2	0x3a85df5d	0.0010213662
3	0xbdcef8c1	-0.1010604
4	0x3c40b503	0.011761907
5	0x3d57bb94	0.052669123
6	0x3d04be0a	0.032407798
7	0xbe27f693	-0.16402654
8	0xbb53720c	-0.0032264022
9	0x3c735ae7	0.014853216
10	0xbcf8f099	-0.030388163
11	0xbdefe8d8	-0.11714333
12	0x3caa7dac	0.020811878
13	0xbdc2b5c1	-0.09507323
14	0x3dfa6d7a	0.12227912
15	0xbdbd3cea	-0.09240134
16	0x3d20d2b4	0.039263442
17	0x3cdf014b	0.027222296
18	0xbd78e0b1	-0.060761157
19	0xbe01b9d4	-0.12668544
20	0x3d08d95d	0.03341042
21	0x3c5cf58c	0.013486277
22	0xbd3cb50c	-0.046071097
23	0xbcb00785	-0.02148796
24	0x3ce84697	0.028353972
25	0xbce219b1	-0.027600141
26	0xbe10ccec	-0.14140671
27	0x3c37f8a9	0.011228719
28	0x3e37607b	0.17907898
29	0xbe3ab023	-0.18231253
30	0x3db7b684	0.08970359
31	0xbd77404b	-0.06036405
32	0x3d0f2063	0.034942996
33	0xbd4daa6f	-0.050211366
34	0xbe7c8ceb	-0.24663131
35	0x3ddcb440	0.107765675
36	0xbe3afb54	-0.18259937
37	0x3d65917c	0.056046948
38	0xbe0486fd	-0.12942119
39	0xbe196831	-0.14981152
40	0xbe6d85c8	-0.23195565
41	0xbe7d0161	-0.24707557
42	0xbd9e72a3	-0.07736709
43	0x3b50ffd2	0.0031890762
44	0x3c0f0e03	0.008731368
45	0xbe23a952	-0.1598256
46	0xbb8ccc43	-0.004296811
47	0xbe15a3be	-0.14613244
48	0xbdb60b73	-0.088889025
49	0x3e05d8c7	0.13070975
50	0x3d056781	0.032569412
51	0x3d2c4845	0.04206111
52	0x3d31208d	0.043243933
53	0xbd6847a3	-0.056708943
54	0x3e32bd7d	0.17455097
55	0xbdbc64c9	-0.09198911
56	0x3e02ac7c	0.1276111
57	0xbdca98db	-0.09892436
58	0xbd7ba21f	-0.061433908
59	0x3df64a9c	0.12025949
60	0x3d6db3ef	0.058032926
61	0xbd691723	-0.05690683
62	0xbd8bca7d	-0.06825731
63	0xbd588ef2	-0.0528707

gcn_layers.0.bn.running_mean f4 [64]
0	0xbce42e89	-0.027854221
1	0xbe699f0a	-0.22814575
2	0xbd518349	-0.051150594
3	0x3db6357e	0.088969216
4	0x3db9bc63	0.09069135
5	0xbc7b9796	-0.015355965
6	0x3e291530	0.16511989
7	0x3da43ac6	0.08019023
8	0x3decb030	0.115570426
9	0xbe047ba2	-0.12937787
10	0x3d102bf8	0.035198182
11	0xbe08e775	-0.13369544
12	0x3e10b212	0.14130428
13	0xbbf36fbe	-0.007429092
14	0x3d9c0f66	0.076201245
15	0xbdea6e60	-0.114468336
16	0xbdfee486	-0.12445931
17	0x3e9d89ff	0.30769345
18	0x3e662e21	0.22478534
19	0x3e80a54f	0.2512612
20	0x3e44cbed	0.19218417
21	0x3d5bb096	0.053635202
22	0x3ebc04ca	0.36722404
23	0xbe2ff245	-0.17182262
24	0x3e0136ff	0.12618636
25	0x3e1140a8	0.1418482
26	0xbd81be29	-0.06335098
27	0x3deb7aad	0.11498008
28	0x3e257b73	0.16160373
29	0xbe4fbbc1	-0.20286466
30	0x3dc9a92d	0.09846721
31	0xbd860a79	-0.06544966
32	0x3d9d4748	0.076796114
33	0xbda31888	-0.07963663
34	0xbdc20ee4	-0.094754964
35	0x3e310682	0.17287639
36	0x3d8a4ce0	0.06752944
37	0xbe58d69f	-0.21175621
38	0x3dffea27	0.12495833
39	0xbdbfddaf	-0.09368455
40	0xbd8e6e19	-0.06954593
41	0xbe7303fa	-0.23731986
42	0xbd99e4a8	-0.07514316
43	0x3e482e36	0.19548878
44	0x3e85c77e	0.26128763
45	0xbd95bed9	-0.07311792
46	0x3e339205	0.17536171
47	0xbdb1c679	-0.08680434
48	0xbdac715b	-0.08420058
49	0x3e43b07f	0.19110297
50	0xbd7d0330	-0.061770618
51	0xbe8e3869	-0.27777413
52	0x3eb4315f	0.35193917
53	0x3d8df5fa	0.06931682
54	0x3e73ebde	0.23820445
55	0xbdd5bd1b	-0.1043646
56	0x3e51eb15	0.20499833
57	0xbe62e8fb	-0.22159187
58	0x3a76d2a8	0.00094155455
59	0x3e1a7ee7	0.15087472
60	0x3d185c5c	0.037197456
61	0x3eaf9c58	0.34298968
62	0x3e489295	0.19587167
63	0xbe924ec2	-0.28575712

gcn_layers.0.bn.running_var f4 [64]
0	0x3abacbb6	0.0014251384
1	0x3cebb9b7	0.02877508
2	0x3bb7bc7b	0.0056071854
3	0x3beda5b9	0.0072524217
4	0x3c46771a	0.012113357
5	0x3a738967	0.0009290189
6	0x3d1e6782	0.03867293
7	0x3b60a970	0.003428068
8	0x3c8707b7	0.01648317
9	0x3beef912	0.007292875
10	0x3bda7e79	0.0066679087
11	0x3bdda25a	0.0067637386
12	0x3bf09c66	0.007342863
13	0x3ca0330d	0.019555593
14	0x3b14957f	0.0022672114
15	0x3c0b776e	0.008512361
16	0x3cdd004f	0.026977686
17	0x3d2b72d1	0.041857544
18	0x3cebab06	0.028768074
19	0x3d077514	0.03307064
20	0x3c6a8ee2	0.0143162925
21	0x3be30377	0.0069279033
22	0x3d86e142	0.06585933
23	0x3c439939	0.011938387
24	0x3d06cef8	0.032912225
25	0x3bf7ca5c	0.007561965
26	0x3ac2095a	0.0014803812
27	0x3c846a54	0.016163982
28	0x3c235ae2	0.009970399
29	0x3c8812dc	0.016610555
30	0x3b6c2762	0.0036034216
31	0x3c2e9ed8	0.0106579885
32	0x3cc00647	0.023440493
33	0x3b916be9	0.0044379127
34	0x3b6596b9	0.0035032465
35	0x3c377c99	0.01119914
36	0x3ce3c0ba	0.02780186
37	0x3ccdb6e2	0.02511162
38	0x3c5c79c9	0.01345677
39	0x3b555bba	0.0032555894
40	0x3af111ec	0.0018392182
41	0x3cb8ad4e	0.022543576
42	0x3b0ad84e	0.0021186057
43	0x3c6a785f	0.014310925
44	0x3d059ca0	0.032620072
45	0x3b016ef4	0.001974997
46	0x3c484405	0.012223248
47	0x3b37c8d4	0.0028043287
48	0x3c584281	0.0131994495
49	0x3c7ce580	0.015435576
50	0x3c1aa1b8	0.009437971
51	0x3d109171	0.035294954
52	0x3d489bc9	0.048976693
53	0x3bf7b524	0.0075594354
54	0x3cb98a11	0.022648843
55	0x3c09f7a4	0.0084208585
56	0x3c7eef73	0.015560019
57	0x3ca0856b	0.019594869
58	0x3b7594d9	0.0037472753
59	0x3c0b384d	0.00849731
60	0x3b307312	0.0026924056
61	0x3d44ae8f	0.048018035
62	0x3c7f839e	0.015595345
63	0x3d387da7	0.045041706

gcn_layers.1.fc.weight f4 [64, 64]
0	0x3e406c88	0.18791401
1	0x3d4d22b2	0.050081916
2	0xbdc7630f	-0.09735691
3	0x3dc30dae	0.095240936
4	0x3e2311d3	0.15924768
5	0xb9e6f4b8	-0.00044051348
6	0x3ddb00bb	0.10693499
7	0x3c2a81da	0.010406936
8	0xbc65aee9	-0.014018753
9	0xbc451190	-0.012028113
10	0xbe00eacb	-0.12589566
11	0xbbdcc0ef	-0.0067368667
12	0x3df44074	0.11926356
13	0xbd9ef8aa	-0.07762273
14	0x3c985a8e	0.018597867
15	0x3d58c397	0.052920904
16	0x3da8aaae	0.082356796
17	0xbd1a2b50	-0.037638962
18	0xbd8c66f3	-0.068555735
19	0x3dec267a	0.11530776
20	0x3e10f5a6	0.14156207
21	0x3c5e9205	0.013584618
22	0x3d152fab	0.036422413
23	0x3d03b44d	0.03215437
24	0x3da70a86	0.08156304
25	0x3d8326d8	0.06403893
26	0xbc91f079	-0.017814862
27	0x3e2e8e8b	0.17046563
28	0x3d9b2450	0.075752854
29	0x3d826d45	0.06368498
30	0x3d83eaac	0.064412445
31	0x3d1c8c9b	0.03822003
32	0x3e067cfd	0.13133617
33	0x3d3eb26b	0.04655687
34	0x3d8dfa26	0.06932478
35	0x3cbced74	0.023062445
36	0xbc27ca63	-0.010241124
37	0x3cddb182	0.027062181
38	0x3d6d8a6b	0.057993334
39	0xbdbfb032	-0.093597785
40	0x3cb03cd0	0.021513373
41	0xbcae8f7f	-0.021308659
42	0xbd98bb17	-0.074575596
43	0x3d4e06b8	0.050299376
44	0x3a521507	0.00080139976
45	0xbc61c8a5	-0.013780748
46	0xbd2a8f8a	-0.041640796
47	0x3c45d4b5	0.012074639
48	0x3da73fd7	0.08166473
49	0x3c6115fd	0.013738153
50	0x3e0a0f77	0.13482462
51	0xbda4bad0	-0.08043444
52	0x3de26539	0.11054463
53	0x3e05f140	0.13080311
54	0x3db81e37	0.08990138
55	0x3e344c82	0.1760731
56	0x3d750e72	0.05982823
57	0x3d997422	0.07492854
58	0xbe3a16ab	-0.1817271
59	0x3c382065	0.011238192
60	0xbde13109	-0.10995681
61	0x3dc8c56d	0.09803281
62	0xbdb42375	-0.087958254
63	0x3d64f7cf	0.05590039
64	0xbcaf28c9	-0.021381753
65	0xbe0028d1	-0.1251557
66	0x3dcd49ce	0.10023843
67	0x3d2a8737	0.041632857
68	0x3dd88fba	0.10574289
69	0x3df427a8	0.11921626
70	0xbd21e244	-0.039522424
71	0xbdc5fe91	-0.09667695
72	0x3b8cc61f	0.004296079
73	0xbd2f4818	-0.042793363
74	0x3e32d83f	0.17465304
75	0x3d9aaf12	0.07552923
76	0x3df323d2	0.118720666
77	0x3e2b866c	0.16750497
78	0xbd452a4e	-0.048136048
79	0x3cb5c3c5	0.022188077
80	0x3dc7d2c7	0.097569995
81	0x3cac2c53	0.02101723
82	0xbdc12d7f	-0.09432506
83	0xbdc8d480	-0.09806156
84	0x3e1a950a	0.15095916
85	0x3d8fd5a9	0.07023174
86	0xb98ba857	-0.0002663757
87	0x3d9c9814	0.07646194
88	0xbd43eb8f	-0.047832068
89	0x3c61b3e9	0.013775804
90	0x3c72eac8	0.014826484
91	0xba74af48	-0.000933398
92	0x3d024b2d	0.031809974
93	0x3c4259ed	0.01186226
94	0x3e00d64c	0.12581748
95	0x3dfaf364	0.12253454
96	0x3d48bff6	0.049011193
97	0x3da0e203	0.07855608
98	0xbccde33e	-0.025132772
99	0x3da164d1	0.07880557
100	0x3bbe1303	0.005800606
101	0x3d863928	0.065538704
102	0xbad9f3b3	-0.0016628414
103	0x3d9bfcc2	0.07616569
104	0x3c83945f	0.01606196
105	0x3e02259e	0.12709662
106	0xbc9113c3	-0.017709618
107	0x3d4d517e	0.050126545
108	0xbda39aaa	-0.07988484
109	0x3d60c310	0.054873526
110	0x3d26ccea	0.040722765
111	0xbc50f79a	-0.012754345
112	0xbd090658	-0.033453315
113	0x3c87e767	0.016589833
114	0x3d82f83f	0.063950054
115	0xbd5f5a18	-0.05452928
116	0x3d9314ec	0.07181725
117	0x3df4aa20	0.11946511
118	0xbd8fee7c	-0.07027909
119	0x3cdfa8fc	0.027302258
120	0x3d8b7ff7	0.06811517
121	0x3bac307b	0.0052548028
122	0x3e001b11	0.12510325
123	0x3b6de3a6	0.003629902
124	0x3df741cb	0.12073096
125	0xbd1324e8	-0.03592387
126	0x3de23d38	0.11046833
127	0x3c4bee54	0.012446959
128	0x3dde18cd	0.10844574
129	0x3cd55727	0.026042534
130	0xbd98dce1	-0.07464004
131	0x3e14242c	0.14466923
132	0x3df6caeb	0.12050422
133	0xbce8af1d	-0.028403813
134	0xbb1c07cf	-0.0023808365
135	0x3dd502e9	0.10400946
136	0x3cb4714b	0.022026679
137	0xbc96a0f8	-0.018387303
138	0xbe0c31f9	-0.13690938
139	0xbd5e0eb0	-0.054213226
140	0x3d399520	0.045308232
141	0xbcae1494	-0.021250047
142	0x3c9d43eb	0.019197425
143	0x3dbfacc9	0.09359128
144	0x3e4c5141	0.19952871
145	0xbd50d8c3	-0.05098797
146	0x3d59d5cf	0.05318242
147	0x3d8c9512	0.068643704
148	0x3dc82326	0.09772329
149	0xbe275cf0	-0.16344047
150	0x3dcd7872	0.10032739
151	0x3d94dfb5	0.07269231
152	0x3ddb4f51	0.10708488
153	0x3e3aceda	0.1824297
154	0xbcbc4e79	-0.022986637
155	0x3db08930	0.086199164
156	0x3ba32e64	0.0049798954
157	0x3d5ca640	0.053869486
158	0x3d8a10ea	0.06741507
159	0x3dd9708b	0.10617169
160	0x3d97fabf	0.07420873
161	0xbd0ec8e8	-0.034859568
162	0xbd5aeec7	-0.053450372
163	0x3d24d831	0.04024524
164	0x3d751c82	0.05984164
165	0x3beac937	0.0071651
166	0x3e04b9c9	0.12961496
167	0xbc181989	-0.009283432
168	0xbdb289b8	-0.08717674
169	0x3da14607	0.07874685
170	0xbd22840b	-0.039676707
171	0x3d37ee36	0.04490491
172	0x3d77bde7	0.06048384
173	0x3d5c28a7	0.053749707
174	0x3db38132	0.087648764
175	0x3d91f00c	0.071258634
176	0x3cc98ffd	0.024604792
177	0x3d8f283e	0.069900975
178	0x3da1294a	0.078692034
179	0xbc38e26a	-0.01128445
180	0xbd392b5a	-0.04520736
181	0x3cebb6f7	0.028773768
182	0xbd5a0818	-0.053230375
183	0x3df98d82	0.121851936
184	0xbccd8de1	-0.025092067
185	0xbd785317	-0.060626116
186	0xbe45d0ec	-0.19317979
187	0xbbff4c1b	-0.007791055
188	0xbd37ab10	-0.044840872
189	0x3db7402f	0.08947789
190	0x3c51fb7e	0.012816308
191	0x3c56fbaa	0.013121525
192	0x3d6975f3	0.05699725
193	0x3dbb4624	0.09144238
194	0x3d1a9413	0.03773887
195	0x3da3632a	0.079778984
196	0x3dcaca53	0.099018715
197	0xbdcff267	-0.101536565
198	0x3db527dc	0.08845493
199	0x3d919866	0.07109146
200	0x3d62208e	0.055206828
201	0xbe0c6b58	-0.13712823
202	0x3e02652b	0.12733905
203	0xbc781298	-0.015141152
204	0xbcb68c3d	-0.022283668
205	0xbe14d345	-0.14533718
206	0xbdbcf656	-0.09226672
207	0x3db910cd	0.090364076
208	0xbcdab498	-0.026697442
209	0x3c9b5a59	0.01896398
210	0x3d2a1665	0.041525263
211	0x3d77fd0a	0.06054405
212	0x3d0fd45f	0.035114642
213	0x3d88630c	0.06659517
214	0x3da3acf3	0.07991972
215	0xbd98303c	-0.07431075
216	0x3e0b2135	0.13586886
217	0x3bd3d0d7	0.0064641046
218	0xbd2aca5e	-0.0416969
219	0xbcc326f8	-0.023822293
220	0xbd534778	-0.05158183
221	0xbdb6b791	-0.08921731
222	0xbcd487da	-0.025943685
223	0x3e21562c	0.15755528
224	0xbd9abf28	-0.075559914
225	0xbc97ee7c	-0.018546335
226	0xbcd7570d	-0.026286626
227	0xbdd2b640	-0.10288668
228	0x3dbff5e3	0.09373071
229	0x3d00841b	0.031375986
230	0x3e093d5c	0.13402313
231	0xbe09eaa9	-0.13468422
232	0xbdc55285	-0.0963488
233	0x3d554624	0.052068844
234	0x39932730	0.00028067222
235	0x3d4741fd	0.048646916
236	0xbda058cc	-0.07829437
237	0xbe1139ff	-0.1418228
238	0xbcbf4d5b	-0.023352316
239	0x3b884061	0.004158065
240	0x3e37a5aa	0.1793429
241	0xbdf0d563	-0.1175945
242	0xbc18851d	-0.00930908
243	0xbc5bb19a	-0.013409043
244	0xbe097768	-0.13424456
245	0x3d42c30a	0.047549285
246	0xbe2b2bec	-0.16715974
247	0x3e467af9	0.19382848
248	0x3d9b9205	0.075962104
249	0xbe24af60	-0.16082525
250	0xbd8d575a	-0.069014266
251	0xbdf084f4	-0.11744109
252	0x3c101961	0.008795113
253	0xbd208457	-0.03918871
254	0xbd02fc12	-0.031978674
255	0x3d12b5a1	0.035817746

gcn_layers.1.fc.bias f4 [64]
0	0x36969c38	4.4885346e-06
1	0xb66779cc	-3.4492577e-06
2	0x35a3a8ee	1.2193611e-06
3	0xb6a4b267	-4.9083496e-06
4	0xb5790c19	-9.277733e-07
5	0x35c8389e	1.4917639e-06
6	0x34a5e978	3.0903516e-07
7	0xb5ceb474	-1.5400715e-06
8	0xb5523887	-7.8313354e-07
9	0xb318981a	-3.5528593e-08
10	0xb4dc8aa7	-4.1079076e-07
11	0xb4d22cf9	-3.914827e-07
12	0x34a64efc	3.0977378e-07
13	0xb6160a31	-2.2357674e-06
14	0xb41a57f4	-1.4374365e-07
15	0x35446c9c	7.317374e-07
16	0x3518fa27	5.698843e-07
17	0xb576a63d	-9.188405e-07
18	0x3400d993	1.2000082e-07
19	0x33b5025b	8.428898e-08
20	0xb6a29cde	-4.846238e-06
21	0x34dc4f29	4.103579e-07
22	0xb4d328f6	-3.9331616e-07
23	0x35ea2fee	1.7448308e-06
24	0x366d1f32	3.533391e-06
25	0xb4843c11	-2.463062e-07
26	0x355dc8e3	8.2621244e-07
27	0x355d8115	8.2516755e-07
28	0xb5929911	-1.0922396e-06
29	0x357f81de	9.5183884e-07
30	0x357e8625	9.481758e-07
31	0xb55918db	-8.087497e-07
32	0xb5c5c7cb	-1.4735791e-06
33	0xb594d8d4	-1.1089965e-06
34	0xb5b083ff	-1.3151438e-06
35	0x366b37d0	3.5050216e-06
36	0xb44cf166	-1.9086801e-07
37	0x3553e52e	7.8937126e-07
38	0x35e44506	1.7007412e-06
39	0xb654ed27	-3.1728503e-06
40	0xb6c4384f	-5.8478104e-06
41	0xb5238c06	-6.092599e-07
42	0x356aed2f	8.751694e-07
43	0xb4ce87c8	-3.8469284e-07
44	0xb59a5838	-1.1499569e-06
45	0xb66de714	-3.5450257e-06
46	0xb4936667	-2.745539e-07
47	0xb5a82c45	-1.252986e-06
48	0x357bc1f7	9.378704e-07
49	0x3552535c	7.83524e-07
50	0xb58d3e24	-1.0523404e-06
51	0xb602cae4	-1.9489607e-06
52	0xb4455022	-1.8376207e-07
53	0xb518bf28	-5.690258e-07
54	0x35d4d610	1.5857531e-06
55	0xb50c4908	-5.226034e-07
56	0x361d686c	2.3455605e-06
57	0x3510e464	5.397653e-07
58	0xb6847140	-3.9470906e-06
59	0xb691050a	-4.3219234e-06
60	0x369466f2	4.422728e-06
61	0xb5da0b10	-1.6245485e-06
62	0x32afa150	2.0446038e-08
63	0xb71d7d90	-9.387164e-06

gcn_layers.1.bn.weight f4 [64]
0	0x3f871493	1.0553154
1	0x3f8246a4	1.0177808
2	0x3f8c8ecf	1.0981082
3	0x3fa55b44	1.2918477
4	0x3f934367	1.1504945
5	0x3f8270df	1.0190696
6	0x3f7809b9	0.96889836
7	0x3f8fac97	1.1224545
8	0x3f8aa977	1.0832967
9	0x3f936151	1.1514074
10	0x3f9abf3b	1.2089609
11	0x3f872d31	1.0560666
12	0x3f8ff45f	1.1246451
13	0x3f88dd41	1.0692521
14	0x3f8c261d	1.0949131
15	0x3f94ecae	1.1634729
16	0x3f850652	1.0392554
17	0x3f8e3bce	1.1112001
18	0x3f7880d3	0.9707157
19	0x3f8fcb05	1.1233832
20	0x3fa8d3be	1.3189619
21	0x3f72dd60	0.9486904
22	0x3f8c02f4	1.0938401
23	0x3f833019	1.0249053
24	0x3f8ac325	1.0840803
25	0x3f8c1760	1.0944633
26	0x3f769180	0.96315765
27	0x3f7e01ac	0.992213
28	0x3fa0ff5c	1.257793
29	0x3f838315	1.0274378
30	0x3f82beca	1.0214474
31	0x3f82f829	1.0231982
32	0x3f87fa1b	1.0623201
33	0x3f86efea	1.0541966
34	0x3f7f0608	0.9961858
35	0x3fa97fed	1.3242165
36	0x3f8de52d	1.1085564
37	0x3f8e5fc4	1.1122975
38	0x3fa311d8	1.273982
39	0x3f89344d	1.0719086
40	0x3f70ead5	0.94108325
41	0x3f8fc123	1.1230816
42	0x3f83b586	1.0289772
43	0x3f98c2f0	1.193449
44	0x3f63f4f0	0.8904562
45	0x3f8bb9dc	1.0916095
46	0x3f789cb4	0.9711411
47	0x3f7fa1f0	0.9985647
48	0x3f97167e	1.1803739
49	0x3f7b11a1	0.98073775
50	0x3f9da736	1.2316654
51	0x3f9b54ae	1.2135217
52	0x3f8bf9c6	1.09356
53	0x3f815029	1.0102588
54	0x3f837a1b	1.0271639
55	0x3f97ae7a	1.1850121
56	0x3f896b97	1.0735959
57	0x3f93c786	1.1545265
58	0x3fa68272	1.3008559
59	0x3f9747ed	1.1818825
60	0x3f86526f	1.0493907
61	0x3f9a91f4	1.2075791
62	0x3f73026f	0.9492559
63	0x3f9956cc	1.1979613

gcn_layers.1.bn.bias f4 [64]
0	0xbd2285ee	-0.039678507
1	0xba374990	-0.00069918577
2	0xbc8558ec	-0.016277753
3	0xbd909b4d	-0.07060871
4	0x3e23fd53	0.16014604
5	0x3d8d1912	0.068895474
6	0x3dcbc650	0.099499345
7	0x3ca9c5e1	0.020724239
8	0x3dfda405	0.123848
9	0x3e6e9033	0.23297195
10	0x3e118b01	0.14213182
11	0x3d367bba	0.04455159
12	0x3da9d228	0.08292037
13	0x3d854a1b	0.06508275
14	0x3d8e4a66	0.06947784
15	0x3d903a5a	0.0704238
16	0x3d87ca52	0.066303864
17	0x3e34aa12	0.17643002
18	0x3dc574ee	0.09641443
19	0x3c97f706	0.018550407
20	0xbe05d226	-0.13068447
21	0x3d6b6d45	0.057477254
22	0x3deb5ce0	0.11492324
23	0x3d96faff	0.073720925
24	0x3c9410fe	0.018074509
25	0x3d959f73	0.07305803
26	0x3d694853	0.05695374
27	0x3dd70a8a	0.10500057
28	0x3c3b00fd	0.01141381
29	0xbd4b0251	-0.049562756
30	0x3e098080	0.13427925
31	0x3d37bddc	0.0448588
32	0x3de94539	0.11390156
33	0x3d6fb62f	0.058523353
34	0x3d3f05ad	0.046636272
35	0x3df77a42	0.12083866
36	0x3dffdb23	0.12492969
37	0xbb6d0f55	-0.0036172469
38	0xbd2980b0	-0.04138249
39	0x3d21e1e9	0.039522085
40	0xbbc9ed87	-0.0061623487
41	0x3d8d7ed8	0.06908959
42	0x3e090715	0.13381608
43	0x3d333fec	0.043762133
44	0xbd0649e1	-0.0327853
45	0x3d874402	0.06604768
46	0x3e2b3462	0.16719201
47	0x3df97204	0.1217995
48	0x3de836db	0.11338588
49	0x3daab726	0.08335714
50	0x3e77488e	0.24148771
51	0x3db9be66	0.09069519
52	0x3dfe92c4	0.12430337
53	0x3e11a2e3	0.14222293
54	0x3d2366aa	0.03989283
55	0x3d1f172c	0.038840458
56	0x3d91ed61	0.071253546
57	0x3e8021b8	0.25025725
58	0xbca6f9fb	-0.020382872
59	0x3d4ca986	0.049966358
60	0x3dc0ac45	0.09407858
61	0x3df3380d	0.11875925
62	0xbcbea101	-0.023270132
63	0xbd6bb185	-0.057542343

gcn_layers.1.bn.running_mean f4 [64]
0	0x3f4d5626	0.8020958
1	0x3f4cb83b	0.79968613
2	0x3f22b9d5	0.6356481
3	0xbd86c5f4	-0.06580725
4	0x3d890a7a	0.06691451
5	0xbe811214	-0.25209105
6	0x3e400e6a	0.18755499
7	0x3e6f8aea	0.23392835
8	0xbe5192db	-0.20466177
9	0x3dc23ff1	0.09484852
10	0xbf987236	-1.1909854
11	0x3e2e4b03	0.17020802
12	0x3f443607	0.7664494
13	0x3eac03e5	0.3359672
14	0xbe4be874	-0.19912893
15	0x3f5c088f	0.8595056
16	0x3ce9fed0	0.028563887
17	0x3ddec7c5	0.10877947
18	0x3e3811a1	0.17975475
19	0x3f59f79e	0.8514346
20	0xbe8b4864	-0.27203667
21	0xbd23e93d	-0.040017355
22	0x3db7eacf	0.08980333
23	0xbdf4065b	-0.11915275
24	0x3f15f80f	0.5858163
25	0xbf8a3c91	-1.0799733
26	0x3e878c59	0.26474264
27	0x3e342b34	0.17594606
28	0xbe70d20b	-0.23517625
29	0x3f8c5c55	1.0965677
30	0x3e41d1db	0.1892771
31	0x3f08b351	0.53398615
32	0xbe9a8ad5	-0.30184045
33	0xbec16e87	-0.37779638
34	0x3e447c0a	0.19187942
35	0xbf9fa673	-1.2472671
36	0x3f20ea0a	0.62857115
37	0x3f011741	0.5042611
38	0xbf11b10d	-0.56910783
39	0xbe790854	-0.24319583
40	0xbf94eadd	-1.1634175
41	0x3f61875d	0.8809717
42	0x3e99cdd8	0.3003986
43	0x3f46132d	0.7737301
44	0x3ec4f990	0.3847165
45	0xbe93ed6c	-0.28892076
46	0x3f111278	0.56668806
47	0x3e442286	0.19153795
48	0xbf9d3ab7	-1.2283543
49	0x3e4ad170	0.19806457
50	0xbf0bd299	-0.5461822
51	0xbf6a36a8	-0.9148965
52	0xbedfbd8e	-0.43699306
53	0x3e2406ca	0.16018215
54	0xbf5804fc	-0.84382606
55	0x3f6bef18	0.92161703
56	0xbe3fa281	-0.18714334
57	0x3e1d19dd	0.15341897
58	0xbf455650	-0.7708483
59	0xbf581c48	-0.84418154
60	0xbeb2859b	-0.34867558
61	0xbfa42ab2	-1.282553
62	0x3d759cd1	0.059964005
63	0xbf048806	-0.51770055

gcn_layers.1.bn.running_var f4 [64]
0	0x3e6736a3	0.22579436
1	0x3df5dc13	0.120048665
2	0x3e2fb039	0.17157067
3	0x3e0134b3	0.1261776
4	0x3e1c8e41	0.1528864
5	0x3ef5185e	0.47870153
6	0x3e5cb90a	0.21554962
7	0x3df216f0	0.11820781
8	0x3e084dcf	0.13310932
9	0x3e5d2237	0.21595083
10	0x3ed3615b	0.41285214
11	0x3e087baa	0.13328424
12	0x3f0ec8bb	0.5577504
13	0x3e0e0150	0.13867688
14	0x3d8bb2d2	0.06821217
15	0x3f071b09	0.5277563
16	0x3e2ea548	0.17055237
17	0x3f10c78a	0.5655447
18	0x3e0e1d5f	0.13878392
19	0x3efbbddf	0.49168298
20	0x3e25f4c1	0.16206647
21	0x3e93bfde	0.2885732
22	0x3f3b5a9d	0.7318514
23	0x3f0b6faa	0.5446726
24	0x3ddc075b	0.107435904
25	0x3eccadb3	0.39976272
26	0x3f244212	0.64163315
27	0x3e09a9f4	0.13443738
28	0x3e6dc4b8	0.23219573
29	0x3eb21433	0.34781036
30	0x3e03e4d4	0.1288026
31	0x3f00e7b9	0.5035358
32	0x3e7759df	0.24155377
33	0x3ea09db3	0.31370315
34	0x3f20cda7	0.628138
35	0x3f1d1c30	0.61371136
36	0x3ebfebb6	0.3748452
37	0x3eb41da7	0.35178873
38	0x3e639d63	0.22228007
39	0x3e959cdf	0.29221246
40	0x3e577a27	0.21042691
41	0x3f120e73	0.570533
42	0x3ea40267	0.32033083
43	0x3eba6932	0.36408383
44	0x3e2a3a1a	0.16623726
45	0x3e593594	0.21211845
46	0x3e616c0e	0.22013876
47	0x3e136e13	0.14397459
48	0x3e9a5390	0.30141878
49	0x3e44129f	0.19147728
50	0x3f649a4a	0.89297926
51	0x3ec9049c	0.3926133
52	0x3ec30236	0.38087624
53	0x3e007511	0.12544657
54	0x3e262e26	0.16228542
55	0x3f01c1ed	0.5068653
56	0x3ecadd0a	0.39621764
57	0x3ea67b1b	0.32515797
58	0x3e924d1f	0.28574464
59	0x3ea2cd2b	0.31797156
60	0x3ee77f11	0.4521413
61	0x3eea6156	0.45777386
62	0x3ed12fdc	0.40856826
63	0x3e53173e	0.20614335

joint_attention.attention.weight f4 [1, 64]
0	0x3e118d40	0.14214039
1	0x3dd3d82a	0.103439644
2	0x3d8d0622	0.06885935
3	0xbde3b4c2	-0.11118461
4	0xbde54b93	-0.11196055
5	0x3e056606	0.130272
6	0x3d71431d	0.058901895
7	0xbc80e439	-0.015733825
8	0x3d9ea4e4	0.07746294
9	0xbdc8c658	-0.09803456
10	0xbdfdb1a8	-0.12387401
11	0xbbdccd88	-0.0067383684
12	0xbda84d63	-0.08217885
13	0xbae0d65a	-0.0017153725
14	0xbce6da79	-0.028180348
15	0xbdc27037	-0.094940595
16	0x3d4f611f	0.05062973
17	0xbe13e713	-0.14443617
18	0x3cd4de19	0.02598481
19	0xbc96f759	-0.018428491
20	0xbe4bc481	-0.19899179
21	0x3d3f40c2	0.046692617
22	0xbe3b1e4f	-0.1827328
23	0x3e1abc9e	0.15111014
24	0x3d2f86e3	0.042853247
25	0xbd1c8693	-0.038214277
26	0xbcd250b5	-0.02567325
27	0x3d57ce47	0.052686956
28	0xbe803326	-0.25039023
29	0x3c9f094f	0.019413618
30	0x3d0d37d8	0.034477085
31	0x3d476839	0.04868338
32	0x3dc11442	0.09427692
33	0xbc86bee2	-0.016448442
34	0x3d896eb9	0.06710572
35	0xbe453593	-0.19258718
36	0xbd92e5ac	-0.07172713
37	0xbd4365dc	-0.047704563
38	0xbe3e35f7	-0.18575273
39	0x3cff73f3	0.031183219
40	0x3ca2ae31	0.019858452
41	0xbd85134a	-0.0649782
42	0xbdab5ddc	-0.08367512
43	0xbd72a5cd	-0.05924015
44	0xbdca2dff	-0.09872054
45	0x3ce1f40b	0.027582189
46	0xbc364335	-0.011124422
47	0x3d260935	0.040536124
48	0x3d3e9844	0.04653193
49	0x3d73ff6a	0.059569754
50	0xbdd9d608	-0.10636526
51	0xbcda9239	-0.026681053
52	0x3c084193	0.008316415
53	0x3cf6a5fb	0.030108443
54	0x3d1caf18	0.03825292
55	0xbd43f7a9	-0.04784361
56	0x3e31e9d4	0.17374355
57	0xbdd283a7	-0.10279017
58	0xbe3ab667	-0.18233643
59	0xbd00a301	-0.031405453
60	0x3e022f35	0.1271332
61	0xbda91eb3	-0.082578085
62	0x3d624166	0.05523815
63	0xbe597a1d	-0.21237989

lstm.weight_ih_l0 f4 [512, 64]
0	0xbb21a188	-0.002466293
1	0x3c878ced	0.01654669
2	0xbb84a180	-0.0040475726
3	0x3c423f01	0.011855842
4	0x3c316a49	0.010828563
5	0x3d1140ac	0.035462067
6	0x3bf54f35	0.007486249
7	0x3c36c5ea	0.011155585
8	0x3cea0d51	0.028570803
9	0x3c47e643	0.012200895
10	0x3d804bbf	0.062644474
11	0x3cc426c4	0.023944266
12	0xbb09d0fc	-0.0021029105
13	0x3c90e316	0.017686408
14	0x3d4723d4	0.048618153
15	0xbb464380	-0.0030252635
16	0x3ce162bf	0.027512906
17	0x3c40d192	0.011768715
18	0x3c4fbd6f	0.012679442
19	0xbb7cb5d6	-0.003856053
20	0x3c6035c0	0.01368469
21	0x3c78e2c6	0.015190786
22	0x3c7b47c0	0.015336931
23	0x3ceefa2f	0.029172031
24	0x3c8f05c3	0.017458802
25	0x3d7573e8	0.05992499
26	0x3baab931	0.005210065
27	0x3c4e1ed8	0.012580596
28	0x3c037492	0.008023398
29	0x3bd5f18f	0.00652904
30	0x3c693d17	0.014235756
31	0xbb3b3916	-0.0028567961
32	0x3cbc8a74	0.023015238
33	0x3d2dd2ee	0.042437486
34	0x3a867e3c	0.001026101
35	0x3d266580	0.04062414
36	0xbb7d8480	-0.0038683712
37	0x3c8da367	0.01728983
38	0x3cce8167	0.025208188
39	0x3ced834c	0.028993271
40	0x3d3a0e90	0.045424044
41	0xbb2fadaa	-0.0026806393
42	0x3c354e66	0.011066055
43	0xbbaa9319	-0.0052055237
44	0x3c4a4931	0.012346552
45	0x3d4a3394	0.049365595
46	0x3c59a7a6	0.013284599
47	0x3c0a4a72	0.008440601
48	0x3d86e639	0.0658688
49	0x3c05e69c	0.008172657
50	0x3cb59005	0.0221634
51	0x3d4b347f	0.04961061
52	0x3d06416c	0.032777235
53	0x3c45a878	0.012064092
54	0x3d1d4818	0.038398832
55	0xbb37316e	-0.0027953046
56	0x3d133631	0.035940353
57	0x3c741404	0.01489735
58	0x3d158fba	0.03651402
59	0x3d4922e5	0.049105544
60	0x3ce788f1	0.028263541
61	0x3d899515	0.06717888
62	0x3c23d1a5	0.009998714
63	0x3c815d33	0.015791511
64	0xb91522c2	-0.00014222696
65	0xbd2d1c47	-0.042263296
66	0xbb19efdc	-0.0023488915
67	0xbd9f79c6	-0.07786898
68	0xbc7dd4c2	-0.01549262
69	0xbbc93c74	-0.00614124
70	0xbd30c1f9	-0.043153737
71	0xbda0559e	-0.0782883
72	0xbd7de8a0	-0.061989427
73	0xbd7c64c0	-0.06161952
74	0xbd7136fb	-0.058890324
75	0xbd0c9e37	-0.034330573
76	0xbbaa4e0a	-0.0051972913
77	0xbd9d4f61	-0.07681156
78	0xbcdde12e	-0.027084913
79	0xbc059fa7	-0.00815574
80	0xbd96a882	-0.07356359
81	0xbcc60285	-0.024171123
82	0xbd025f41	-0.031829122
83	0xbc0f7446	-0.008755749
84	0xbd870cb1	-0.065942176
85	0xbdaee97c	-0.08540627
86	0xbd53ee98	-0.051741213
87	0x3d4c0c9b	0.04981671
88	0xbdb6c3e0	-0.08924079
89	0xbca69cfb	-0.020338526
90	0x3c6c9968	0.014440872
91	0xbd85f429	-0.065407105
92	0xbca10dad	-0.019659841
93	0x3c2e2a23	0.010630163
94	0xbd93f538	-0.07224506
95	0x3c9f2fc7	0.019431962
96	0xbdb65528	-0.08902961
97	0x3d8360d4	0.06414953
98	0x3c7a7368	0.015286304
99	0xbd089513	-0.033345293
100	0xbc604567	-0.013688422
101	0x3cddbe37	0.02706824
102	0xbd5e029e	-0.054201715
103	0x3be9b64d	0.0071323276
104	0x3cd420d8	0.025894567
105	0xbb4a33b1	-0.0030853564
106	0xbd3e6449	-0.046482358
107	0xb97cf301	-0.00024123119
108	0xbcedc311	-0.029023679
109	0xbc8a7528	-0.016901568
110	0xbd1fa254	-0.038973168
111	0xbd0e0e71	-0.03468174
112	0xbd085b6d	-0.033290315
113	0xbd5d91b8	-0.054094046
114	0x3c3a76ef	0.011380895
115	0xbd38380b	-0.04497532
116	0xbdb2c9ce	-0.087298974
117	0xbd86b2e0	-0.065770864
118	0x3c11c253	0.008896428
119	0xbb2b8378	-0.002617089
120	0x3d0d4bef	0.034496244
121	0xbcf9dd79	-0.030501114
122	0xbd414509	-0.047184978
123	0xbd646721	-0.055762414
124	0x3d1e8a9c	0.038706407
125	0xbd7dc1ee	-0.061952524
126	0xbd3cf935	-0.0461361
127	0xbd23cb4b	-0.039988797
128	0x3d25a468	0.040439993
129	0x3c85269e	0.016253766
130	0x3d4cb3cd	0.04997616
131	0x3ce9e060	0.028549373
132	0x3d9c3e88	0.076291144
133	0x3ac6520f	0.0015130657
134	0x3da02896	0.07820241
135	0x3ce98d21	0.028509678
136	0x3d32fef1	0.043700162
137	0x3d920442	0.07129718
138	0xbd30c956	-0.04316076
139	0xbc2734a7	-0.010205424
140	0x3ca35e52	0.019942436
141	0x3cf421fc	0.029801361
142	0xbc7f125c	-0.015568342
143	0x3d03dda4	0.032193795
144	0x3b24d8d6	0.0025153658
145	0x3d9d519a	0.0768158
146	0x3d868fda	0.06570406
147	0x3d10b48c	0.035328433
148	0x3ca39e65	0.01997299
149	0x3d61549f	0.05501234
150	0x3d835bdd	0.06414006
151	0xbd418f22	-0.047255643
152	0x3d44bbd4	0.04803069
153	0xbcceeb6e	-0.025258746
154	0xbb7997a2	-0.0038084765
155	0x3d897150	0.06711066
156	0xbd01c278	-0.0316796
157	0x3ba99086	0.0051746992
158	0x3d9b2b66	0.07576637
159	0x3cfaae55	0.030600706
160	0x3d277e24	0.04089178
161	0xbd79be48	-0.060972482
162	0x3c182afa	0.00928759
163	0xbd245aa9	-0.040125523
164	0x3c6247c0	0.013811052
165	0xbba192af	-0.004930816
166	0x3cb70ced	0.02234503
167	0xbd248641	-0.040167097
168	0xbccc4058	-0.024933025
169	0x3cf86e15	0.030325929
170	0x3d9f03ed	0.07764421
171	0x3d17e092	0.0370794
172	0x3d3c4acc	0.04596977
173	0xbc313c79	-0.01081764
174	0x3db956d0	0.09049761
175	0x3d93f09f	0.07223629
176	0xbd8a478e	-0.06751929
177	0x3d9ab92e	0.075548515
178	0xbc89e31d	-0.016831929
179	0x3c9abc2b	0.018888554
180	0x3ccfb9b2	0.025357101
181	0x3d8979ee	0.06712709
182	0xbd28be2d	-0.04119699
183	0x3d2ff225	0.042955536
184	0xbd267b5d	-0.040644992
185	0x3dab1c64	0.083550245
186	0x3cf76c94	0.030203141
187	0x3c405296	0.01173844
188	0xbd84493c	-0.06459281
189	0x3b70b763	0.00367304
190	0x3d5a234c	0.053256318
191	0x3a0ce33a	0.00053744356
192	0x3d131483	0.035908233
193	0x3d0f7595	0.035024244
194	0x3c948045	0.01812757
195	0x3c679bcb	0.014136265
196	0xbcceb3c7	-0.025232209
197	0x3dcc49ad	0.0997499
198	0xbc5685d0	-0.013093427
199	0x3c910fbd	0.0177077
200	0x3d0b2dc3	0.03397919
201	0xbd1500ac	-0.036377594
202	0x3d9ec117	0.07751673
203	0x3d502129	0.050812874
204	0x3ca3cd8b	0.019995471
205	0x3d145f90	0.036223948
206	0x3dade847	0.08491569
207	0x3c9892da	0.018624712
208	0x3d440861	0.047859553
209	0xbd043f42	-0.03228689
210	0xbc96f8c4	-0.018429168
211	0x3cb0afaa	0.021568138
212	0x3c602164	0.013679836
213	0x3aac3a25	0.0013139887
214	0xbbe922d7	-0.007114749
215	0x3dca2b27	0.09871512
216	0xbb07e20c	-0.00207341
217	0x3d83411a	0.064089015
218	0x3d412b23	0.04716028
219	0xbcfc1505	-0.030771742
220	0x3c4831f3	0.01221894
221	0x3d38adff	0.04508781
222	0xbd06856c	-0.032842085
223	0x3d13c448	0.03607586
224	0x3cbba8e1	0.022907676
225	0x3dc2f1cf	0.095187776
226	0x3d208eb3	0.03919859
227	0x3db14cfd	0.086572625
228	0x3cfa30df	0.030540882
229	0x3d92dad4	0.071706444
230	0x3c8c3ceb	0.017118892
231	0x3da51a58	0.08061665
232	0x3d84593e	0.06462334
233	0x3ca472fc	0.02007436
234	0xbc98a848	-0.01863493
235	0x3ccfce15	0.025366822
236	0x3bb2d24c	0.0054571982
237	0x3d9c62ce	0.07636033
238	0xbcce57c2	-0.02518833
239	0xbc9093a0	-0.017648518
240	0x3dbd781f	0.09251427
241	0xbc12b3a8	-0.008953966
242	0x3d952d3f	0.07284021
243	0x3d2ecda7	0.042676594
244	0x3d435ee8	0.04769793
245	0xbc98962e	-0.018626299
246	0x3dc5568d	0.09635649
247	0x3c91e0a7	0.017807318
248	0x3db2a15a	0.087221816
249	0xbc8b518c	-0.017006658
250	0x3cca77cb	0.024715325
251	0x3d4aa450	0.049473107
252	0x3de20b7d	0.110373475
253	0x3da245fd	0.079235055
254	0xbc78401f	-0.015152006
255	0x3c41ca39	0.011827999

lstm.weight_hh_l0 f4 [512, 128]
0	0x3c838c06	0.01605798
1	0x3c22f3d4	0.0099458285
2	0x3bb4c6d5	0.0055168667
3	0xbc9f5871	-0.019451352
4	0x3b9c7420	0.0047745854
5	0xbc57e262	-0.013176532
6	0xbc351fad	-0.011054915
7	0xbbbf8bea	-0.0058455365
8	0x3d3baf7b	0.045821648
9	0x3bb2b212	0.0054533565
10	0xbb0b0b24	-0.0021216357
11	0x3c8fecd9	0.017568992
12	0xbc1685ca	-0.009187171
13	0xb96c1819	-0.00022515691
14	0x3cf96a55	0.03044621
15	0x3c077bb0	0.0082692355
16	0x3a0bac13	0.000532807
17	0xbc82f654	-0.015986599
18	0xbc77c148	-0.015121765
19	0xb8d31e59	-0.00010066917
20	0x3c2aca9d	0.010424283
21	0xbabacba6	-0.0014251366
22	0xbc05b3d8	-0.008160554
23	0xbc02ffb6	-0.007995537
24	0x3bc37254	0.0059645567
25	0xbba1e540	-0.004940659
26	0x3caf3240	0.021386266
27	0x3bcab849	0.0061865193
28	0x3c776dc0	0.01510185
29	0xbcbd35d0	-0.023096949
30	0xbcb6eef7	-0.022330744
31	0xbbb87e61	-0.0056303
32	0x3ba22fa9	0.004949529
33	0x3c113eec	0.008865099
34	0xbc15dd7d	-0.009147045
35	0x3bdbedbc	0.0067116898
36	0x3c84a805	0.0161934
37	0x3cfcd63e	0.030863877
38	0xbc63e200	-0.013908863
39	0xbc23069b	-0.009950305
40	0x3b6c6a12	0.0036073965
41	0xbcc665bd	-0.024218434
42	0xbaf13fa8	-0.0018405812
43	0x3bd32d3e	0.0064446023
44	0x3cc0d23c	0.023537748
45	0x3cd7b964	0.026333518
46	0xbbbaaac3	-0.005696626
47	0xbd0875c7	-0.033315446
48	0xbcb957b0	-0.02262482
49	0xbc6d172e	-0.0144708585
50	0x3b768eb1	0.0037621672
51	0xbccb566d	-0.024821484
52	0xbc8e8cea	-0.017401177
53	0xbb8f0fe9	-0.0043659103
54	0x3891852e	6.9389454e-05
55	0xbcaf08bd	-0.021366471
56	0xbc930b42	-0.017949704
57	0x3bce41e1	0.0062944745
58	0xbc85e111	-0.016342672
59	0xbc88f3e2	-0.016717855
60	0x3c140306	0.009033924
61	0x3c56589e	0.013082651
62	0x3c4a5318	0.012348913
63	0x3b6a1b9b	0.003572202
64	0xbac85aac	-0.0015285811
65	0x3c5e0815	0.013551732
66	0xb9c14e91	-0.00036870365
67	0x3c39260e	0.011300577
68	0xbc29c237	-0.010361246
69	0xbcb73bb7	-0.022367341
70	0x3bdaede2	0.00668119
71	0xbc76015d	-0.0150149735
72	0xbbcd0c5e	-0.006257578
73	0x3cf33f85	0.029693374
74	0xbc816148	-0.015793458
75	0xbbb57cc1	-0.0055385535
76	0x3c3b502d	0.01143269
77	0xbc5b39c4	-0.013380472
78	0xbbefb76f	-0.007315568
79	0x3be877fd	0.007094382
80	0x3bdf146d	0.006807855
81	0x3bcc6cb3	0.006238544
82	0x3b49d4b5	0.003079695
83	0xbcd360f5	-0.025803069
84	0xbd2e932f	-0.042620834
85	0xbc10fc85	-0.008849268
86	0x3c088a96	0.008333823
87	0x3c055102	0.00813699
88	0x3c3b6b50	0.0114391595
89	0xbc9edb20	-0.019391596
90	0xbba97a8c	-0.0051720794
91	0xbbd54e26	-0.00650956
92	0xbc2e2409	-0.010628709
93	0x3c849f1f	0.016189156
94	0x3c030ad2	0.007998185
95	0xbcc183dc	-0.023622446
96	0x3d3545e1	0.044256095
97	0xbc83a08b	-0.016067764
98	0x3c9aaeb6	0.018882137
99	0xbc1bec46	-0.009516781
100	0xbbb0982e	-0.005389235
101	0xbad3eeca	-0.0016169187
102	0xbbf16b07	-0.007367495
103	0xbc88c864	-0.016697116
104	0xbb432912	-0.0029779118
105	0x3c27daf8	0.010245077
106	0xbc0b04a3	-0.008484992
107	0x3cb85165	0.02249975
108	0x3c5d777a	0.013517255
109	0xbc5740ee	-0.013138039
110	0xba8012f0	-0.0009771269
111	0x3ce0438f	0.027375964
112	0xbcab2ae3	-0.020894473
113	0xbae3b3e6	-0.001737234
114	0xbb82fa7e	-0.003997146
115	0x3c57a5ad	0.013162059
116	0xbba0ae1e	-0.004903569
117	0x3c937eb7	0.018004758
118	0x3caa7faf	0.020812837
119	0xbc8bae22	-0.017050806
120	0x3a7707ce	0.0009423465
121	0xbc28fce5	-0.010314201
122	0x3b7c0c01	0.0038459303
123	0xbab1971d	-0.0013549064
124	0x3cad7b8d	0.021177078
125	0x3c8a3a98	0.016873643
126	0x3bd346ef	0.006447665
127	0x3c3b5870	0.011434659
128	0x3cef62d2	0.029221926
129	0xbca7ef8a	-0.020499963
130	0xbc2ce7d8	-0.010553323
131	0x3cb718c6	0.02235068
132	0xbd4b7e54	-0.049681023
133	0x3d07ae5c	0.033125266
134	0x3c7d6118	0.0154650435
135	0xbc5ace66	-0.013354873
136	0xbd3957ed	-0.04524987
137	0xbd940c34	-0.0722889
138	0xbc8cc48b	-0.017183563
139	0xbcbfe401	-0.02342415
140	0x3d9b4c67	0.07582932
141	0xbd29492e	-0.041329555
142	0xbd87eb1b	-0.0663664
143	0x3d1acc2e	0.037792377
144	0x3cd07534	0.025446512
145	0x3d926bde	0.0714948
146	0x3caf28b4	0.021381713
147	0x3d05003c	0.032470927
148	0x3d545076	0.051834546
149	0xbd2236ad	-0.039602924
150	0xbdce343c	-0.10068557
151	0xbbcff63d	-0.0063464926
152	0x3dbd4df8	0.09243387
153	0x3d1ee09f	0.038788434
154	0xbd1e73fe	-0.038684838
155	0x3cf476a2	0.029841725
156	0x3bd006bd	0.0063484595
157	0xbd390f8a	-0.045180835
158	0xbcd19bd2	-0.025586996
159	0x3d381c07	0.044948604
160	0xbba46b7b	-0.0050176955
161	0x3d435a94	0.047693804
162	0xbb3dc226	-0.0028954833
163	0xbd199c8d	-0.037502814
164	0x3ce71dbf	0.028212426
165	0xbd95683e	-0.07295273
166	0xbd68d18a	-0.056840457
167	0x3ca19d48	0.019728318
168	0x3b1dc38e	0.0024072859
169	0xbd96a261	-0.0735519
170	0xbceb60e1	-0.028732719
171	0x3c448058	0.01199349
172	0x3d3d79c6	0.04625871
173	0x3cbd76a2	0.023127858
174	0xbdb5533a	-0.08853765
175	0x3d856661	0.06513668
176	0x3d46c090	0.048523486
177	0xbc886498	-0.01664953
178	0xb9b38220	-0.0003423849
179	0xbd1c0382	-0.038089283
180	0x3c9b522f	0.018960087
181	0x3d2b780f	0.041862544
182	0x3cc3bd88	0.023894086
183	0x3d4c7d7f	0.04992437
184	0xbd10fa59	-0.035395
185	0x3cceb43e	0.02523243
186	0x3bf0a06f	0.007343344
187	0xbcc8c51b	-0.02450805
188	0xbd151a44	-0.036402002
189	0xbb949950	-0.004534878
190	0x3cf02c23	0.029317921
191	0x3cb38dc6	0.021918189
192	0xbcb74357	-0.022370977
193	0xbcf1eec7	-0.029532803
194	0xbd0e7493	-0.034779143
195	0xbcc91514	-0.024546184
196	0xbda56937	-0.08076709
197	0xbd60abc3	-0.054851305
198	0xbdd5b7f5	-0.10435478
199	0xbcc32437	-0.02382098
200	0x3db6ff43	0.08935406
201	0xbd8c3cc2	-0.06847526
202	0x3dbb442b	0.091438614
203	0xbc809296	-0.015694898
204	0xbca13cc3	-0.019682294
205	0xbcafa8fa	-0.021442879
206	0xbc6f3774	-0.014600623
207	0x3d363756	0.044486366
208	0x3d00b87c	0.031425938
209	0x3ce09f04	0.027419575
210	0x3b1da4d6	0.0024054549
211	0x3c77de97	0.015128753
212	0x3d43d204	0.04780771
213	0x3d3ce2c4	0.046114698
214	0xbbc07acd	-0.005874014
215	0xbd0dcbd4	-0.034618214
216	0x3d680dec	0.056653902
217	0x3cf8364d	0.03029933
218	0x3d8f24c2	0.06989433
219	0x3d4e2dab	0.05033652
220	0x3ceb64c1	0.028734567
221	0xbba7a5eb	-0.0051162145
222	0x3d835025	0.06411771
223	0xbd79b4fa	-0.06096361
224	0x3d017d15	0.03161343
225	0x3d26a24f	0.040682133
226	0x3cdfab24	0.027303286
227	0xbb312bc4	-0.0027034143
228	0xbd9f196a	-0.07768519
229	0x3d68dc08	0.056850463
230	0x3c2d3e56	0.010573944
231	0x3c8107b9	0.015750753
232	0x3c4f4ac1	0.0126521
233	0x3c46574a	0.012105772
234	0x3d6ea01c	0.05825816
235	0xbd6777bd	-0.056510676
236	0xbd8ef663	-0.06980588
237	0xbc27f56f	-0.010251387
238	0xbd13ee8b	-0.036116164
239	0x3d4d3d08	0.050107032
240	0x3d8646c9	0.0655647
241	0x3cfcfb80	0.030881643
242	0xbe0bc195	-0.13648064
243	0xbbd9370c	-0.0066288766
244	0xbd99d83c	-0.075119466
245	0x3d8d2015	0.06890885
246	0x3db7af82	0.08969022
247	0xbd39a7a5	-0.045325894
248	0xbc817ad6	-0.015805643
249	0x3cdeecc4	0.027212508
250	0xbcc40301	-0.023927214
251	0x3cd9dd51	0.02659479
252	0xbd451cb3	-0.048123073
253	0x3d36d4d9	0.04463658
254	0x3c66644d	0.0140619995
255	0xbc18e89d	-0.009332803

lstm.bias_ih_l0 f4 [512]
0	0x3d6c229c	0.057650194
1	0xbcb5f8f6	-0.02221344
2	0x3c980816	0.018558543
3	0x3dcf3e78	0.10119337
4	0xbc067378	-0.008206241
5	0x3c904f09	0.017615812
6	0x3cbddca2	0.023176495
7	0x3ccd05d7	0.025027199
8	0x3d1fc199	0.03900299
9	0x3cf3ae30	0.029746145
10	0x3d902231	0.070377715
11	0x3d1c42e2	0.038149722
12	0x3cc67750	0.024226815
13	0x3a92daed	0.0011204161
14	0x3c691c31	0.014227913
15	0x3d07ca84	0.03315212
16	0xbdd72e78	-0.1050691
17	0x3d1882f3	0.037234258
18	0xbc8c8e1d	-0.017157609
19	0x3d11aa57	0.03556284
20	0x3d364653	0.04450066
21	0x3c7b0c73	0.015322792
22	0x3d331040	0.04371667
23	0xbd7b67e7	-0.061378386
24	0x3cdcfade	0.026975092
25	0x3d3f4bf3	0.04670329
26	0x3db4047c	0.08789918
27	0xbb7371e5	-0.0037146744
28	0x3c10ef73	0.008846152
29	0x3d07b9ae	0.033136062
30	0x3db97fbf	0.09057569
31	0xbc03a881	-0.00803578
32	0x3c8f564b	0.017497202
33	0x3d487250	0.048937142
34	0xbdc2a896	-0.095048115
35	0x3d0ef691	0.034903113
36	0x3c84be15	0.01620392
37	0x3d52cd02	0.051465042
38	0x3d2d1859	0.042259548
39	0x3d7c8c3a	0.061657168
40	0x3cc5bbb9	0.024137365
41	0x3de4cee6	0.11172275
42	0x3cd25965	0.025677392
43	0x3cae3407	0.021265043
44	0x3d084a93	0.033274245
45	0x3ce4c1ab	0.02792438
46	0x3d102a69	0.035196695
47	0x3d73d253	0.059526753
48	0x3ca28c0d	0.019842172
49	0x3d7d0285	0.06176998
50	0x3cae41f9	0.021271693
51	0x3d3ffcbb	0.046871882
52	0xbd2211d3	-0.03956778
53	0x3d859126	0.065218255
54	0xbc94f749	-0.018184321
55	0x3d1308b9	0.03589699
56	0x3d9d0056	0.0766608
57	0x3d04261e	0.032262914
58	0xbbad5a3b	-0.0052902973
59	0x3d07b95e	0.033135764
60	0x3d1467d2	0.036231823
61	0x3b978955	0.0046245256
62	0x3c7d1566	0.015446996
63	0x3c8a1c0a	0.016859073
64	0xbb08909e	-0.0020838152
65	0x3d6f35d6	0.05840095
66	0x3cee41bf	0.029084085
67	0x3bcaf415	0.0061936476
68	0x3dab90f4	0.08377257
69	0xbc0b8473	-0.008515465
70	0xbdf3a7cd	-0.1189724
71	0x3ce270e1	0.027641715
72	0x3aad084c	0.0013201325
73	0x3c23f70e	0.010007633
74	0xbab85711	-0.0014064034
75	0x3d250c6b	0.040295046
76	0x3d8c3297	0.06845587
77	0x3d26e6e5	0.040747542
78	0xbb61af3f	-0.003443673
79	0x3d5f482c	0.054512188
80	0x3d02b606	0.031911872
81	0x3d000425	0.031253953
82	0x3d3ed798	0.046592325
83	0x3d146e67	0.0362381
84	0x3cbc3fcd	0.022979641
85	0x3d03f1a8	0.032212883
86	0x3ce1b772	0.027553294
87	0x3dca9ae6	0.09892826
88	0x3cc34d1d	0.023840481
89	0xbd26a972	-0.04068894
90	0x3bed3c82	0.007239879
91	0x3d9c9d12	0.07647146
92	0xbce22ad9	-0.027608322
93	0x3c05522c	0.008137267
94	0x3cde28dc	0.027119093
95	0x3d79e3ac	0.06100814
96	0x3dcf4bba	0.101218656
97	0xbd352206	-0.0442219
98	0x3d794dba	0.06086514
99	0x3ce4f603	0.027949339
100	0x3c6772c9	0.014126488
101	0x3c82b930	0.015957445
102	0x3ce107c2	0.02746952
103	0x3da659e9	0.08122618
104	0x3da43fd0	0.08019984
105	0x3ce4a528	0.027910784
106	0x3d785cd4	0.060635403
107	0x3c73c132	0.014877604
108	0x3d85491e	0.065080866
109	0x3d51f550	0.05125934
110	0x3d4557d8	0.048179477
111	0x3d2cb00c	0.04216008
112	0xbc7ec9fe	-0.015551088
113	0x3c8d73c0	0.017267108
114	0x3c9ae7be	0.018909331
115	0x3d925f9c	0.07147142
116	0x3d8a3156	0.06747691
117	0x3d042def	0.03227037
118	0x3dae22f0	0.085027575
119	0x3cef13aa	0.029184181
120	0x3cffe59c	0.031237416
121	0x3d60e712	0.054907866
122	0x3caecf89	0.021339195
123	0x3be206c4	0.006897779
124	0xbd0375b8	-0.032094687
125	0x3d16e9d3	0.036844086
126	0x3c455ef6	0.012046566
127	0x3cf9bcac	0.030485474
128	0x3c177d37	0.009246162
129	0x3dc68940	0.09694147
130	0x3d589bfd	0.052883137
131	0x3d8ad506	0.06778912
132	0x3d04aea9	0.03239313
133	0x3d4243a6	0.047427796
134	0x3d72fe7c	0.059324726
135	0x3c3c72a4	0.011501942
136	0x3d765b71	0.0601458
137	0x3cca1a9f	0.024670897
138	0x3d09c7d9	0.033637855
139	0x3d229a2c	0.03969781
140	0xbc232fac	-0.009960096
141	0x3ca1fd48	0.019774094
142	0x3d167c9e	0.036739938
143	0xbce2b516	-0.02767424
144	0x3e1fc7b3	0.15603523
145	0x3d0ac814	0.033882216
146	0x3c682eec	0.014171343
147	0x3d8e57e0	0.069503546
148	0xbbfbbc50	-0.0076823607
149	0x3d2cced4	0.042189434
150	0x3d4920f1	0.04910368
151	0x3dcee822	0.101028696
152	0x3cecccb2	0.0289062
153	0x3ccdee11	0.025137933
154	0x3cf924ae	0.030412998
155	0x3c7626c5	0.015023892
156	0x3e1f0920	0.15530825
157	0x3d139823	0.03603376
158	0x3d701fda	0.058624126
159	0x3dadf3a4	0.084937364
160	0x3d0cfbfc	0.03442
161	0x3c0a721e	0.008450059
162	0x3e05cf32	0.1306732
163	0xbc056735	-0.008142282
164	0x3cdd94ae	0.027048435
165	0x3d63b9e4	0.0555972
166	0xbcb05739	-0.021525966
167	0x3c82734c	0.015924118
168	0xbcae8242	-0.021302346
169	0x3d874afb	0.06606098
170	0xbc43bee3	-0.011947366
171	0x3b459bf4	0.003015277
172	0x3cafebaf	0.021474687
173	0x3d1d19c1	0.03835464
174	0x3d583b63	0.05279101
175	0x3d98e50b	0.074655615
176	0xbc24648c	-0.010033738
177	0x3d1ad69b	0.03780232
178	0x3d81e7a4	0.0634301
179	0x3dcf6787	0.10127168
180	0x3ba685f0	0.0050818846
181	0x3d47b158	0.048753113
182	0xbccf5d94	-0.025313176
183	0x3d16b6cb	0.03679542
184	0x3d17e34d	0.037082005
185	0x3d10066a	0.035162367
186	0x3cebf510	0.028803378
187	0x3ce506dd	0.027957374
188	0x3d11bb23	0.035578858
189	0x3dadc8e4	0.084855825
190	0x3c302377	0.010750643
191	0x3dd06d54	0.10177103
192	0x3cf78e38	0.030219182
193	0x3d21e68d	0.03952651
194	0xbc8e6b85	-0.017385254
195	0x3dee313e	0.11630486
196	0x3d84b5b0	0.06479967
197	0x3dab94a3	0.083779596
198	0x3d762c61	0.060100917
199	0x3d507e73	0.05090184
200	0x3d032aa0	0.032023072
201	0x3d9bd3f4	0.07608786
202	0x3d0b264e	0.033972077
203	0x3cda8ed1	0.026679428
204	0x3d3034a6	0.04301896
205	0x3d3b68f7	0.0457544
206	0x3d975bd5	0.073905624
207	0x3d2c00bd	0.04199289
208	0x3c8cb368	0.017175391
209	0x3db2a5ab	0.08723005
210	0x3cda457b	0.026644459
211	0x3c3c0f58	0.011478268
212	0x3d71d8a8	0.05904451
213	0x3d4529fd	0.048135746
214	0xbb24947a	-0.0025112913
215	0x3beaff00	0.0071715117
216	0x3cd6117d	0.026131386
217	0x3d8d2d35	0.06893388
218	0x3d30d6a5	0.04317345
219	0x3d1de13c	0.03854488
220	0x3c392b9a	0.011301899
221	0x3d1505e4	0.03638257
222	0x3d023cc4	0.031796232
223	0x3c8515b0	0.016245693
224	0xbba88087	-0.005142275
225	0x3dd6d945	0.104906596
226	0xbc1826e0	-0.009286612
227	0x3cf96333	0.03044281
228	0x3b7a58eb	0.0038199972
229	0x3c4d005c	0.012512293
230	0x3d2696f0	0.04067129
231	0x3c5cf50c	0.013486158
232	0x3dbac19b	0.091189586
233	0x3cb8bb55	0.022550264
234	0x3c88afc7	0.01668538
235	0x3d97359b	0.07383271
236	0x3d18491f	0.03717911
237	0x3d24dacb	0.04024772
238	0x3bf0ca1b	0.0073483116
239	0x3d5a7826	0.05333724
240	0x3ca79654	0.020457424
241	0x3bdcf75b	0.0067433543
242	0xbca34cd2	-0.019934092
243	0x3dd6b6a7	0.10484057
244	0xbb35896b	-0.0027700316
245	0x3c5264c8	0.012841411
246	0x3c8c06d2	0.017093096
247	0xbcef87e5	-0.029239604
248	0x3a35d7bd	0.00069367496
249	0x3d213975	0.039361436
250	0x38df0a16	0.00010635347
251	0xbae68e44	-0.0017590006
252	0x3da29185	0.07937912
253	0x3d01b4e3	0.031666648
254	0x3d130f58	0.035903305
255	0x3d04e6b4	0.03244658
